scripts/outputs/training_20250522_003625/best_model.pt (torch, 194869 bytes, 20 tensors)

adaptive_adj f4 [80, 80]
00000000: 582a 8cbd cc27 12be ae21 7dbb 687a f1bd
00000010: 3d1f 9fbd e708 013e 5b4e c63c e32e 273e
00000020: b7d4 d0bd caeb 8e3d fc72 13bd c851 1fbe
00000030: c103 f5bd 679c 04bc 9741 d73d 5e95 023e
00000040: c6fa 23be e757 833d 5f3d 9f3d 96b7 afbd
00000050: 968f 8dbd 508b ccbd cfa2 33be 8419 2e3e
00000060: 5fcd 1bbe d624 9c3d 8817 7dbd 28bc 3ebe
00000070: 776b cb3d 1022 953b 4d10 33bc 598f c1bd
00000080: 11e5 413a 43ab a63d 1a4b 2c3d 889b 37be
00000090: b064 1cbe 0742 01be 6027 0a3e da03 38bc
000000a0: 40a6 8dbd 81d9 e73c c513 f4bc 4ced 1b3d
000000b0: d113 22be 8100 f0bc 8346 433e b871 143c
000000c0: b34b 3e3e bfe2 083e 3b57 16ba 0498 243e
000000d0: 50ea 43bd b9a2 0b3e f7cd 843c 42b8 41be
000000e0: b60b 8c3d 43a1 c53c f91e 02be 8d0a ec3d
000000f0: 7cc7 10be ad10 33be e876 94bc 9423 053d
00000100: feed 223e a0de c6bd 7962 d3bd 1775 0f3d
00000110: 3ea2 383e bc98 373e d73e 14bd 6397 40bc
00000120: 5218 17bd 7163 3e3e 68af 003d 270f 583c
00000130: 20d7 473d a21e 15be 8714 6fbc 9a38 1ebe
00000140: 4586 6c3d 9129 fb3d 6e41 f63c a7ff 6bbd
00000150: 57ea 0d3e e33d e13c 9a26 1ebe d509 24be
00000160: c1d9 a63d 64bc 163e 3d79 2a3e 7dd0 363d
00000170: db39 ffbd 915c 00be ee48 923c 429d db3d
00000180: 6b6c 20bd 33d2 893d 6e1d e63d cf86 a23d
00000190: e27d 41bd 0952 1cbd 766b f3bd 8ffc dd3a
000001a0: ad55 25be ae7f 063e 2db0 1c3d 2471 9c3d
000001b0: a361 1b3e 6565 4fbd 6a88 823c 8106 88bd
000001c0: 44d8 b73d 2806 953d f600 da3d 4c55 febb
000001d0: b568 9d3d b3cf d8bd 42d6 e4bd 4fca 1dbe
000001e0: 7ade d43d b173 33be 68f8 97bd 4850 c4bc
000001f0: 1326 85bc ac0c 143e 6a53 303e ebf4 a6bd
00000200: 4ba1 d0bc c2ee 1fbe 9e84 d4bd 5da3 84bd
00000210: d3b4 13bd d799 033e 80f2 21bd 1ae7 4c3d
00000220: 7e57 18be fa44 89bd 20d5 943c 007f 6cbd
00000230: 94d1 193e c5f0 afbc a042 2d3e 65b8 b13d
00000240: 50b1 9a3d dada 31be d491 bb3d 9731 0bbe
00000250: f18b 3f3e 8664 0b3e 5e7d afbd 794f 053d
00000260: a76b 6e3d 2546 23be 23b9 0a3d 1843 0abc
00000270: 3fe0 233d 23b1 093e fad5 c2bd ae4c 28be
00000280: 844a 06be 6e3c 4a3c b613 0dbd b830 edbd
00000290: d1ab 54bd 2906 873d 4b5d f4bd b799 023e
000002a0: 4fa2 c83d 14c3 70bd 7904 fcbc 128a 2f3d
000002b0: 419a b43d 72c6 47bc 2b77 d8bd 555f 203e
000002c0: f4da 15bd 4ca4 613d 8c97 2f3e e09c 193d
000002d0: fea2 133e d4e9 2fbd 9993 c9bd 2d7e c13d
000002e0: 6e43 323e c9af 413e 4301 3a3e bdbc 4a3d
000002f0: 1a4b 35be eaee 203e 0a7c 2b3e 2165 2ebe
00000300: 75f7 90ba e3b1 a8ba e5f1 6bbc fcb3 b43d
00000310: c5ab b8bd c11a a4bd 0286 f7bd 360d 35bd
00000320: 1290 cebd 4f29 c1bd de27 f93d d545 bdbc
00000330: 1a05 04be a219 a1bd c88c 683d 2f12 b3bd
00000340: 0bd1 203e 9cfd 953d d27e debd b937 05be
00000350: 4398 92bd 75cb 1abe 9970 003e 2c60 00be
00000360: 3793 a23d e5ba c6bd 821a 7b3d 10d2 1c3d
00000370: 5415 b13d b8c7 9a3d 53ae e73d 4d7c fa3d
00000380: fbfa 2d3e d1e9 57bd 2a77 cebd 04bd cdbc
00000390: bfa8 81bd f69e 57bc dfb9 a0bd 5da3 16be
000003a0: eecd 17bd 21a4 3b3e 2f94 fd3d 5503 82bd
000003b0: d903 0d3e 6c4d d3bc 0e49 efbc bf54 33be
000003c0: f778 283e 7707 36be f234 513d f1af 27be
000003d0: 45ce 1d3e a82c 26be ca77 aa3d 1b80 39be
000003e0: 46e6 843c daff b13d f762 293e 4f39 5cb9
000003f0: f5d9 1f3e 52db fa3d 49d8 103e f9cd 073e
-0.06844014 -0.14272994 -0.003862481 -0.11790925 -0.0776963 0.12601052 0.024207285 0.1632648
-0.10196822 0.06978567 -0.03599833 -0.15558541 -0.119636066 -0.00809393 0.10510557 0.12752292
-0.16013631 0.064132504 0.077753775 -0.08579938 -0.069121525 -0.09987509 -0.17542575 0.17001921
-0.15215062 0.076242134 -0.06179002 -0.18626463 0.09932607 0.0045511797 -0.010929179 -0.094511695
0.0007396499 0.08138134 0.04206381 -0.17930424 -0.15272784 -0.12622844 0.13491583 -0.011231387
-0.06916475 0.028301956 -0.029794583 0.0380681 -0.15827872 -0.029297115 0.19069867 0.009060316
0.18583564 0.13367747 -0.0005735044 0.16073614 -0.04783088 0.13636293 0.016211493 -0.18917945
0.06838171 0.024124747 -0.12707128 0.1152545 -0.14138597 -0.1748683 -0.018123105 0.032504633
0.159111 -0.09710431 -0.103215165 0.035023775 0.1803064 0.17929357 -0.03619274 -0.011754843
-0.036888428 0.18592621 0.03141728 0.013187206 0.048789144 -0.14562467 -0.014592296 -0.1545128
0.057745237 0.122637875 0.030060496 -0.057616856 0.13858925 0.02749533 -0.15444413 -0.16019376
0.08147002 0.14720303 0.16647811 0.044632424 -0.12462207 -0.12535311 0.017857041 0.10723354
-0.039165895 0.067295454 0.11236082 0.07935869 -0.04723919 -0.038164172 -0.11885731 0.001693623
-0.16145964 0.13134643 0.03825395 0.07638767 0.15173964 -0.050633807 0.015934188 -0.066418655
0.08976796 0.07276565 0.106447145 -0.007761633 0.07685987 -0.105864905 -0.11173679 -0.15409206
0.103939965 -0.17524602 -0.074204266 -0.023964062 -0.016253507 0.14457959 0.1721932 -0.08152183
-0.025467535 -0.15618423 -0.10376857 -0.064764716 -0.03606112 0.12851654 -0.039537907 0.050025083
-0.14877126 -0.06702609 0.018168032 -0.057738304 0.15021354 -0.021477113 0.16919947 0.086777486
0.07553351 -0.17368641 0.09158674 -0.13593136 0.18705727 0.13612565 -0.08568834 0.032546494
0.058208134 -0.15944727 0.033867966 -0.008438848 0.04000878 0.13446479 -0.09513469 -0.16435501
-0.13114363 0.012343509 -0.034442626 -0.11581558 -0.05192167 0.06592972 -0.11931857 0.1275395
0.09796583 -0.05877979 -0.030763851 0.042856283 0.08818484 -0.012193309 -0.105696045 0.15661366
-0.036585763 0.055088326 0.17147654 0.037503123 0.14417645 -0.042947605 -0.09842605 0.09447894
0.17408535 0.18914713 0.18164544 0.0494964 -0.1770443 0.15716138 0.16746536 -0.17030765
-0.0011060076 -0.0012870397 -0.014400934 0.08823392 -0.090171374 -0.080129154 -0.12086107 -0.044202052
-0.10086073 -0.09431707 0.12165807 -0.023104588 -0.12892571 -0.07866217 0.056774884 -0.087437026
0.15704744 0.07323763 -0.10864033 -0.13009538 -0.07157948 -0.15116675 0.12542953 -0.12536687
0.07938235 -0.09703616 0.061304577 0.03828627 0.08646646 0.075576246 0.113125466 0.1223074
0.16990273 -0.05271322 -0.100813225 -0.025114544 -0.06331014 -0.013160458 -0.07847952 -0.14710756
-0.037061624 0.18324329 0.123817794 -0.06348292 0.13770999 -0.025793754 -0.02920964 -0.17512797
0.16452394 -0.17776285 0.051075883 -0.1637571 0.15410717 -0.16227973 0.08323629 -0.18115275
0.016223084 0.08691378 0.16541658 -0.00021002184 0.15610488 0.12248863 0.14145006 0.13262166

adj_matrix f4 [80, 80]
00000000: e238 0e3f 0000 0000 388e 633d 0000 0000
00000010: 368e 633d 0000 0000 0000 0000 0000 0000
00000020: 0000 0000 0000 0000 0000 0000 0000 0000
00000030: 0000 0000 0000 0000 0000 0000 0000 0000
00000040: 0000 0000 0000 0000 0000 0000 0000 0000
00000050: 0000 0000 0000 0000 0000 0000 388e 633d
00000060: 0000 0000 0000 0000 0000 0000 0000 0000
00000070: 0000 0000 0000 0000 0000 0000 0000 0000
00000080: 0000 0000 0000 0000 0000 0000 0000 0000
00000090: 0000 0000 0000 0000 0000 0000 0000 0000
000000a0: 388e 633d 0000 0000 0000 0000 0000 0000
000000b0: 0000 0000 0000 0000 0000 0000 0000 0000
000000c0: 0000 0000 0000 0000 0000 0000 0000 0000
000000d0: 0000 0000 0000 0000 368e 633d 0000 0000
000000e0: 0000 0000 388e 633d 0000 0000 0000 0000
000000f0: 0000 0000 0000 0000 388e 633d 0000 0000
00000100: 0000 0000 0000 0000 0000 0000 0000 0000
00000110: 0000 0000 0000 0000 368e 633d 0000 0000
00000120: 0000 0000 0000 0000 0000 0000 0000 0000
00000130: 0000 0000 0000 0000 0000 0000 0000 0000
00000140: 0000 0000 0000 803f 0000 0000 0000 0000
00000150: 0000 0000 0000 0000 0000 0000 0000 0000
00000160: 0000 0000 0000 0000 0000 0000 0000 0000
00000170: 0000 0000 0000 0000 0000 0000 0000 0000
00000180: 0000 0000 0000 0000 0000 0000 0000 0000
00000190: 0000 0000 0000 0000 0000 0000 0000 0000
000001a0: 0000 0000 0000 0000 0000 0000 0000 0000
000001b0: 0000 0000 0000 0000 0000 0000 0000 0000
000001c0: 0000 0000 0000 0000 0000 0000 0000 0000
000001d0: 0000 0000 0000 0000 0000 0000 0000 0000
000001e0: 0000 0000 0000 0000 0000 0000 0000 0000
000001f0: 0000 0000 0000 0000 0000 0000 0000 0000
00000200: 0000 0000 0000 0000 0000 0000 0000 0000
00000210: 0000 0000 0000 0000 0000 0000 0000 0000
00000220: 0000 0000 0000 0000 0000 0000 0000 0000
00000230: 0000 0000 0000 0000 0000 0000 0000 0000
00000240: 0000 0000 0000 0000 0000 0000 0000 0000
00000250: 0000 0000 0000 0000 0000 0000 0000 0000
00000260: 0000 0000 0000 0000 0000 0000 0000 0000
00000270: 0000 0000 0000 0000 0000 0000 0000 0000
00000280: 388e 633d 0000 0000 e438 0e3f 0000 0000
00000290: 388e 633d 0000 0000 0000 0000 0000 0000
000002a0: 0000 0000 0000 0000 0000 0000 0000 0000
000002b0: 0000 0000 0000 0000 0000 0000 0000 0000
000002c0: 0000 0000 0000 0000 0000 0000 0000 0000
000002d0: 0000 0000 0000 0000 0000 0000 398e 633d
000002e0: 0000 0000 0000 0000 0000 0000 0000 0000
000002f0: 0000 0000 0000 0000 0000 0000 0000 0000
00000300: 0000 0000 0000 0000 0000 0000 0000 0000
00000310: 0000 0000 0000 0000 0000 0000 0000 0000
00000320: 398e 633d 0000 0000 0000 0000 0000 0000
00000330: 0000 0000 0000 0000 0000 0000 0000 0000
00000340: 0000 0000 0000 0000 0000 0000 0000 0000
00000350: 0000 0000 0000 0000 388e 633d 0000 0000
00000360: 0000 0000 398e 633d 0000 0000 0000 0000
00000370: 0000 0000 0000 0000 398e 633d 0000 0000
00000380: 0000 0000 0000 0000 0000 0000 0000 0000
00000390: 0000 0000 0000 0000 388e 633d 0000 0000
000003a0: 0000 0000 0000 0000 0000 0000 0000 0000
000003b0: 0000 0000 0000 0000 0000 0000 0000 0000
000003c0: 0000 0000 0000 0000 0000 0000 0000 803f
000003d0: 0000 0000 0000 0000 0000 0000 0000 0000
000003e0: 0000 0000 0000 0000 0000 0000 0000 0000
000003f0: 0000 0000 0000 0000 0000 0000 0000 0000
0.55555546 0.0 0.055555552 0.0 0.055555545 0.0 0.0 0.0
0.0 0.0 0.0 0.0 0.0 0.0 0.0 0.0
0.0 0.0 0.0 0.0 0.0 0.0 0.0 0.055555552
0.0 0.0 0.0 0.0 0.0 0.0 0.0 0.0
0.0 0.0 0.0 0.0 0.0 0.0 0.0 0.0
0.055555552 0.0 0.0 0.0 0.0 0.0 0.0 0.0
0.0 0.0 0.0 0.0 0.0 0.0 0.055555545 0.0
0.0 0.055555552 0.0 0.0 0.0 0.0 0.055555552 0.0
0.0 0.0 0.0 0.0 0.0 0.0 0.055555545 0.0
0.0 0.0 0.0 0.0 0.0 0.0 0.0 0.0
0.0 1.0 0.0 0.0 0.0 0.0 0.0 0.0
0.0 0.0 0.0 0.0 0.0 0.0 0.0 0.0
0.0 0.0 0.0 0.0 0.0 0.0 0.0 0.0
0.0 0.0 0.0 0.0 0.0 0.0 0.0 0.0
0.0 0.0 0.0 0.0 0.0 0.0 0.0 0.0
0.0 0.0 0.0 0.0 0.0 0.0 0.0 0.0
0.0 0.0 0.0 0.0 0.0 0.0 0.0 0.0
0.0 0.0 0.0 0.0 0.0 0.0 0.0 0.0
0.0 0.0 0.0 0.0 0.0 0.0 0.0 0.0
0.0 0.0 0.0 0.0 0.0 0.0 0.0 0.0
0.055555552 0.0 0.5555556 0.0 0.055555552 0.0 0.0 0.0
0.0 0.0 0.0 0.0 0.0 0.0 0.0 0.0
0.0 0.0 0.0 0.0 0.0 0.0 0.0 0.055555556
0.0 0.0 0.0 0.0 0.0 0.0 0.0 0.0
0.0 0.0 0.0 0.0 0.0 0.0 0.0 0.0
0.055555556 0.0 0.0 0.0 0.0 0.0 0.0 0.0
0.0 0.0 0.0 0.0 0.0 0.0 0.055555552 0.0
0.0 0.055555556 0.0 0.0 0.0 0.0 0.055555556 0.0
0.0 0.0 0.0 0.0 0.0 0.0 0.055555552 0.0
0.0 0.0 0.0 0.0 0.0 0.0 0.0 0.0
0.0 0.0 0.0 1.0 0.0 0.0 0.0 0.0
0.0 0.0 0.0 0.0 0.0 0.0 0.0 0.0

feature_extractor.0.weight f4 [64, 4]
00000000: 4c44 ae3e 8dfa be3e ef7d 9fbd 4092 eb3e
00000010: 517a 90bd ed2c 7f3d c201 4fbe 0b62 963e
00000020: 1926 cc3e cb5e a6be 87fd c83e bc47 c13d
00000030: 53b2 a73e f70b 013d 42a4 4c3e b899 0bbd
00000040: 5ee3 af3e 9eea 173d f1d5 44be 052f 023e
00000050: a1be 41be 2753 c1bc 0410 26be 0429 aa3e
00000060: 3b9a b4be 5ce2 41be 9c5f cfbd 9a9f 84be
00000070: 1639 6a3c 5042 e7be 70a6 d13e d0f2 c3be
00000080: 9e2c b03e 4edf 3a3d 1cdd f9bd 35a2 9d3e
00000090: 0ce6 263d 7d59 b93e dff0 a53c 6078 f0bd
000000a0: 51b2 c13d 332b c4bd 9685 2d3e 4c7d e43e
000000b0: 3c6e 7d3e 98cc 35be 6c04 7d3e 4ae7 b83d
000000c0: d1ad 593e 93b8 86be 2dd4 e7be 230b 1cbe
000000d0: e9e7 aebe 5e8f bc3e bb05 d53d 9bd2 523e
000000e0: e35c f13d daea e3ae 49e0 b23e 027a a0be
000000f0: 9b51 843b 3957 99be 436a e93d 1bd7 06be
00000100: 9678 e73d 49fa 85bd 46d2 be3e a470 82be
00000110: 5262 83be 4963 83be e8b6 d03e 2873 293e
00000120: d4c2 e03e 38c5 bdbe e854 e8be 4ed0 b2be
00000130: e3d1 96be e37f 253e c8c1 0d3e efc3 d43e
00000140: 4a0c 5ebe 2121 99be 7e3f 653e 5013 25be
00000150: 3610 863e 477f a2bd b55b 7a3e aa6f b1be
00000160: 2e0f 58be d4ec e53d 48fb 883d 5605 b4bd
00000170: 414c 833e e8a4 983e 8b37 a4be 18ec 66be
00000180: 6cdb d43e 4856 03be d8f3 0bbe 6920 e2be
00000190: 16ad 7abe 73e5 ae3d ba9b f5bc 1a66 a4be
000001a0: 6824 6334 917a 99be c1ac c3be 6378 6fbe
000001b0: 8e86 cabe 9eab 8dbe 794e ea3e c99f c23d
000001c0: ce38 e93d c234 d9be 20c5 92be 1308 01be
000001d0: ace0 273d 09ba cbbe 4097 32be c6f5 83be
000001e0: 9926 15aa 9ed5 14be df1a bcbb 9c16 98be
000001f0: f052 9abe 3212 80be 06ca 05be 6594 b4be
00000200: 1824 c13e 6384 78bd 1ebe c63e 8d2e 1f3e
00000210: 2444 c3be 39c3 9b3e 4e25 c8bd 3082 1abe
00000220: a1fe bebe 5fea e8be ba1c d33d eae3 8fbd
00000230: d98a 1d3e ad97 bcbe d59e a83e a87b a6be
00000240: afcd 46bd 3581 863d c2f5 5d3e 1430 cf3e
00000250: d8a7 d33e 5c82 b5be 89bf b03d 4436 32be
00000260: c5d6 a6bc d72a aabe 43a1 d33e ec74 a6be
00000270: 1138 673e 5d66 0a3e ed1b fa3d 255f 6abe
00000280: 8b24 d33e e82c 913d 5e84 e93c 4111 ccbe
00000290: 6ef9 2c3e 7bd9 1bbd c66a 40be c52c db3e
000002a0: fb52 943d 07cd 70be 02d1 58be 44e4 90ba
000002b0: be63 733e bc97 b4bd ed9b 79be cbdc 05be
000002c0: 60ce a9be 3e05 0d3e 59b0 b03e 8171 dbbe
000002d0: a080 9d3d f221 5e3e 1b74 573d 9bc3 0cbe
000002e0: b6da 603e d2ab 623e a1c1 153e 8fab 4cbd
000002f0: 88d2 bdbd 3a0f 9e3c d075 4ebd b306 dfbd
00000300: 8d4a 8e3e 277c c63e 15c9 83bc 1842 95bd
00000310: 1d86 4037 e7cb 55bb 1293 a53d 374c 0f3e
00000320: a3f7 d2be 1248 13be 8213 c23e 8a3f 483e
00000330: ec11 b5ba 200a 85be a14e 87be 48c6 cfbe
00000340: 2d1b fbbd 9f7e 033e 09e4 8d3e 534e 6b3e
00000350: 0ec1 ccbe 55a5 84be 5391 2abd b4ba f73e
00000360: 8a00 123d 6f03 b8bd ace4 293e af45 19be
00000370: c357 90be 7d6b a53e 71ae 3ebe e990 7cbd
00000380: c113 e9be e2f4 953e 9080 ac3e d535 3a3e
00000390: 211b 9dbe 7512 e7be 8b6d babe 0270 bf3e
000003a0: 5094 4b3e ceeb c13e 60d9 613e 53da 023e
000003b0: 12ef efab f43b adbe 5dd0 c5be 09e3 d9be
000003c0: 12b0 273e 871a 51be 6e19 7ebd bf1e 7cbe
000003d0: 7028 59bd 6dc5 9ebe 81e9 91be f6bf 293e
000003e0: 1c38 debd eab7 883e b3ef f5bd e45b a6be
000003f0: 250c 4ebd 29f1 4dbe 9afe e6bd f623 debe
0.3403648 0.3730053 -0.07787692 0.46010017 -0.0705458 0.062298704 -0.20215514 0.29371676
0.39872816 -0.32494196 0.39255926 0.0943751 0.32753238 0.03150555 0.19984534 -0.034082144
0.34353155 0.037088983 -0.19222237 0.12713249 -0.18920375 -0.02359922 -0.16217047 0.33234417
-0.35273919 -0.18934005 -0.10125658 -0.25903016 0.014295837 -0.4516778 0.40947294 -0.3827119
0.3440904 0.045623116 -0.122003764 0.30787817 0.040746734 0.36201087 0.020256458 -0.1174171
0.09457839 -0.09578552 0.1694549 0.44626844 0.24749082 -0.17753828 0.24708718 0.0902849
0.21257712 -0.26312694 -0.45279065 -0.15238623 -0.34161308 0.3682813 0.104014836 0.20588152
0.11785295 -1.0364483e-10 0.3493674 -0.31343085 0.0040380484 -0.29949358 0.11397221 -0.13167994
0.11302297 -0.06541879 0.372698 -0.25476563 -0.2566095 -0.25661686 0.40764546 0.16547835
0.43898642 -0.37064528 -0.45377278 -0.3492455 -0.29457006 0.16162066 0.13843453 0.41555735
-0.21684375 -0.29908088 0.22387502 -0.16120648 0.26184243 -0.079344325 0.24449046 -0.34655505
-0.2109954 0.11226812 0.06688553 -0.0879008 0.25644115 0.29813313 -0.32073626 -0.22551
0.41573656 -0.12825882 -0.13667238 -0.44165352 -0.2448009 0.08539858 -0.029981483 -0.32109147
2.1154267e-07 -0.29976323 -0.38217738 -0.23385768 -0.39555782 -0.27669996 0.45762995 0.09503133
0.11387788 -0.42423064 -0.2866602 -0.12600736 0.04098575 -0.3979037 -0.1744051 -0.25773448
-1.324725e-13 -0.14534613 -0.005740508 -0.2970475 -0.301414 -0.25013882 -0.13065347 -0.35269466
0.3772285 -0.06067313 0.38816923 0.15545101 -0.38137925 0.3042238 -0.0977274 -0.15088725
-0.3730364 -0.4549131 0.103082135 -0.07025893 0.15384997 -0.3683447 0.3293368 -0.32516217
-0.048536 0.06567613 0.2167578 0.40466368 0.41338992 -0.3545102 0.086302824 -0.17403513
-0.020366082 -0.3323581 0.4133397 -0.3251108 0.22579981 0.13515611 0.12212358 -0.22887857
0.41238818 0.07088643 0.0285055 -0.39856914 0.16892025 -0.038049202 -0.18790731 0.42807594
0.0724239 -0.23515712 -0.2117348 -0.0011054357 0.23768517 -0.088180035 -0.24375887 -0.13072507
-0.33165264 0.13771531 0.34509543 -0.42860034 0.07690549 0.21692637 0.05260096 -0.13746493
0.21958432 0.22135857 0.14624645 -0.0499683 -0.09268671 0.01929437 -0.050405324 -0.1088995
0.27791253 0.38766596 -0.016087094 -0.07287997 1.14753175e-05 -0.0032622756 0.08084692 0.13993917
-0.41204557 -0.14382961 0.37905508 0.19555488 -0.0013814545 -0.25984287 -0.26427177 -0.40580964
-0.12261043 0.12841271 0.2771304 0.22979097 -0.3999104 -0.25907388 -0.0416425 0.4838463
0.035645045 -0.0898503 0.16591138 -0.14967988 -0.28191957 0.3230857 -0.18621232 -0.061661635
-0.45522884 0.29288393 0.33691835 0.18184598 -0.3068476 -0.4513127 -0.364117 0.37390143
0.19880795 0.37875217 0.22055578 0.12778597 -1.7048327e-12 -0.33834803 -0.3863553 -0.42556027
0.16375759 -0.20420276 -0.06203597 -0.24621104 -0.05301708 -0.3101 -0.28498462 0.16577134
-0.10850546 0.26702815 -0.120086096 -0.32491982 -0.05030455 -0.20111527 -0.1127903 -0.4338681

feature_extractor.0.bias f4 [64]
00000000: 3df8 733e afd2 9cbe 3d0b 573e 3137 3e3e
00000010: ea7a a13e 93e7 aebe 28b1 a23e e7d8 47be
00000020: 274f 143e 68d9 da3e 3c45 0bbd f353 02b6
00000030: b481 9bbd bd40 c0be fe7a 4b3e fc8b e8be
00000040: 7299 893e 9c19 aa3e 9588 dc3e 0f0c a1bd
00000050: 9ad7 bcbe 962d 963d 595e 703e 7c35 e9be
00000060: 314d 98bd 1929 84be 3be9 3fbc 11bf 51be
00000070: fc62 27be 2991 f2bd 51b5 ddbe 7a8d bc3e
00000080: 8d1b c13e aad0 28bd 7e86 b5bc fc0e 27be
00000090: 5ca3 d1be 768b e3be 119c 143e b6a5 6ebe
000000a0: 0f3a 8fbe 5e0e 0abc 1e1c 01be 37aa f8bd
000000b0: 89f3 4738 34ac 89bd 17ce 06be 4fec 4abe
000000c0: ccd8 babe b025 c13e 0d0a 23be 0600 be3d
000000d0: 4821 08be 1f2c 1c3c ad1b d93e f6bc 413e
000000e0: 9052 c8be 595d 213e 7b70 dd3e 251c bc3d
000000f0: 3340 963e 5ecd e63e dbf9 21bd 1035 853d
0.23825164 -0.3062949 0.21000381 0.18575741 0.31539088 -0.34161052 0.31775784 -0.19516335
0.14483319 0.42743993 -0.034001574 -1.9420374e-06 -0.07593098 -0.3754939 0.19871137 -0.454193
0.26874882 0.33222663 0.43072954 -0.07863628 -0.3688324 0.073329136 0.23473491 -0.45548618
-0.07436598 -0.25812605 -0.011713321 -0.20483042 -0.16346353 -0.11844093 -0.43302396 0.36826688
0.37716332 -0.041214623 -0.022158857 -0.1631431 -0.40944946 -0.44442338 0.1451266 -0.23305401
-0.27973983 -0.008426277 -0.12608382 -0.12141841 4.7672107e-05 -0.06722298 -0.13164555 -0.19816707
-0.36493528 0.37724066 -0.15921803 0.09277348 -0.13293946 0.009532004 0.42403927 0.18919739
-0.3912549 0.15758266 0.43249878 0.09185056 0.29345855 0.45078558 -0.03954492 0.065042615

temporal_module.conv.0.weight f4 [64, 64, 3]
00000000: 5ee4 47bd 6e83 8bbc beda 583d a8bc 1b3d
00000010: 2f18 3ebd c4e0 6cbd 210f 47bd 1800 91bd
00000020: 334f 67bd f1dc 0fb9 1c62 7d3c c45b fb34
00000030: 431d 5cbd a2b5 6ebd 9d4b 0f3d 3ba3 56bd
00000040: d53f 05bc 9153 0b3d 8831 a5bb ae45 022e
00000050: 0c9a d6ab 5e2f bdb8 ea00 e2bb 179e e9bc
00000060: bca1 69bd 3f30 23bd 7fc5 8d3d 6516 c0bb
00000070: 8d4c 7abc 7c0f ef38 0579 ae3c 17e4 1d3d
00000080: 59f1 5d3d 46c1 253d 7af5 92bd 9341 c03b
00000090: 4dba 3f3c 8477 2e2d 2fbb 31bc eb15 8f3d
000000a0: 90e1 debc 9948 2abd 5cdf eebc 21d6 feaa
000000b0: b091 8c3b 47c0 3b38 99eb 3137 ca6d a6bc
000000c0: 3ec7 ffbc 048d 102a af3a f43c 9745 2b3d
000000d0: 0a5c 2dbd d945 20bc ed1f 9cbc 4047 bfbb
000000e0: 7ddf 2836 4055 253d 4f25 733d 7863 89bd
000000f0: d99f 773c f6e3 8cbc ec72 093b 865e d23c
00000100: 725d a629 2d2c f33c 8955 d5bc 12c9 16bb
00000110: 19b0 2c3c 987b 1cb8 a9e3 8fb7 de8a 5cbb
00000120: 7c62 853c de71 ca3b 2adf 703a 3238 1bbc
00000130: 3de6 c0bc a92d 96ad a210 133a 24c6 a3bb
00000140: d708 c5b9 1437 4d3d 28b4 bf3b aa57 563b
00000150: 24a2 09b9 0ff9 f0bc 7990 01bd 5e49 b9bb
00000160: 2ce1 e3bb b226 4b3a db87 02ba 941c 28bb
00000170: 7909 053d 7eaa bf3a c87e 903c fd97 c1bb
00000180: daac edbc 54fb de3c 9c7b 47bd 7a0a 6abc
00000190: 3bf5 4dab 7a75 f5ba b52b a2bc 2000 353c
000001a0: c717 bd3c 0d91 5734 5527 9bb5 3fc8 fbbc
000001b0: 42cf cbbc 83f9 933c 6f31 0a3d af4f d9af
000001c0: 8221 30bb 0269 173c 3336 b9bc daa1 563c
000001d0: 4ee5 21bb 6270 9fa9 de2d 30b7 3e27 1e2f
000001e0: 9982 27ba 0149 973c 9e6a b02a 4dfd 6b3d
000001f0: a586 8c3d 5a08 12bd bf6d 98bc 4129 bc3c
00000200: 2bda b23c b5f4 a8bc b2d4 3f2c 8bb5 0dbd
00000210: e758 c4bc ec23 fa36 b6f5 8539 3861 e137
00000220: 401c a0b9 93d8 f93c 3a05 97b1 b068 32bc
00000230: bd3c 9dab 32c9 da38 3819 c53a 6abc 8dbc
00000240: 8e02 0a3b 239f e7bb 2496 cabc b093 1ebd
00000250: 58ff 8c3d 5c18 7d3d 17ba 833d b112 323d
00000260: 5a74 5c3d 3a2a 1a30 74d6 11bc 0d60 d73b
00000270: efee 13bd bf8a 4ebd 18c0 c4bc e05e 873c
00000280: 2004 173d cac7 eabc ea21 31bc 2f03 7fb0
00000290: 49dc 31bc 50a7 67bc e9fe f63b bc5a 09b5
000002a0: 1773 893d 1bcb 8f3d 49fe ac3c 4cba d43c
000002b0: 1b14 8c3c cd88 ef3a 9704 87bb 67a3 853a
000002c0: 9181 d83c ff9d fd3c 1f5a 58b9 379c 69bb
000002d0: 84ef ecb8 e73c c0bb f193 3735 39af 5f3d
000002e0: d4be 613d a988 053d 4385 9bbc 7e42 07bc
000002f0: 3375 2cb8 b822 68b6 ebbe 8e2c 836f f7bc
00000300: 0e3c bf3c ea2f 60bd 6765 3abd cb10 73bd
00000310: 5b09 803d f8d9 8bbd 5ef6 623d 4325 5bbb
00000320: 4a36 f9bb 89dd 503c 647b 2e2d e656 523c
00000330: 85d3 583d a8c2 7cbd 5190 e73c 9f0d 6e3c
00000340: 5b9a 853c 9ec9 3f3c f55b a639 456d bdbb
00000350: 5437 d6af c829 043d 5198 7a3c aa6a b22a
00000360: 6771 89bd 4f83 833b 4520 46bd d09f c13c
00000370: e0df 40bc a2b7 fca9 5b47 7abc e220 663c
00000380: 1562 8c3d f183 fc3b c9b1 2d3d 1bf4 673d
00000390: bcab be3c 4b33 b7ba 3099 52b8 a32a 123d
000003a0: 40ca 9bbc 5fc2 0d3d 6a8e 21b8 0940 80bc
000003b0: 32c7 473b 51a4 c932 a0de 8f3b bdab 0f3d
000003c0: 6653 823c 5b99 033d f9f6 30ab c4a9 7bbd
000003d0: 74a9 4cbd 9822 34bd ae57 e4bc dfa6 d9bb
000003e0: 30cb f8bc af7c 86bd d397 2dbd 589a 92bd
000003f0: a4ae 46bc 679a 153b 412a cc3c 6106 17ba
-0.048801772 -0.017030444 0.052942984 0.038021713 -0.046409782 -0.05783154 -0.048598412 -0.07080096
-0.056472015 -0.0001371985 0.015465286 4.6819162e-07 -0.053738844 -0.058278687 0.03498422 -0.052401762
-0.0081328945 0.034015242 -0.005041305 2.9620466e-11 -1.5248371e-12 -9.021045e-05 -0.0068970816 -0.028517766
-0.057039008 -0.039840933 0.06922435 -0.0058620446 -0.01527704 0.00011399292 0.021297941 0.0385476
0.054185245 0.040467523 -0.07175727 0.005867192 0.011702132 9.917293e-12 -0.010847851 0.069866024
-0.027207166 -0.04157314 -0.02915924 -4.5268045e-13 0.0042898282 4.4763347e-05 1.06048765e-05 -0.020316023
-0.031222936 1.2838694e-13 0.029813139 0.041814413 -0.042324103 -0.009782278 -0.019058192 -0.005837351
2.5164038e-06 0.040364504 0.059361752 -0.06708425 0.015113794 -0.017198544 0.002097304 0.025679838
7.388091e-14 0.02968415 -0.026041763 -0.002300803 0.010540032 -3.7308404e-05 -1.7152941e-05 -0.0033652107
0.016282313 0.006178125 0.00091885275 -0.009473847 -0.023547286 -1.7073303e-11 0.00056100835 -0.0049979854
-0.00037581354 0.050101355 0.0058503337 0.003270606 -0.0001312574 -0.029415635 -0.03163192 -0.005654498
-0.006954333 0.00077496015 -0.00049793505 -0.00256518 0.032479737 0.0014622954 0.017638579 -0.005908011
-0.029013086 0.027219452 -0.048701867 -0.014284724 -7.3170956e-13 -0.0018727027 -0.019796232 0.011047393
0.023082627 2.0076205e-07 -1.1559847e-06 -0.030735133 -0.024879102 0.018063312 0.03373855 -3.952869e-10
-0.002687544 0.009241344 -0.022608852 0.013100112 -0.0024703327 -7.080514e-14 -1.0501097e-05 1.4383958e-10
-0.0006390005 0.018467428 3.133786e-13 0.057614613 0.06861619 -0.035652496 -0.018607019 0.02296889
0.021832546 -0.020624498 2.7260802e-12 -0.03459696 -0.023968173 7.4547625e-06 0.00025550806 2.6867361e-05
-0.00030538626 0.030498778 -4.3952726e-09 -0.010889217 -1.1172379e-12 0.000104325256 0.0015037423 -0.017301757
0.0021058652 -0.007068531 -0.024729796 -0.038715065 0.068846405 0.06179081 0.06431978 0.043474857
0.0538219 5.608488e-10 -0.008901227 0.0065727294 -0.036116537 -0.050425287 -0.024017379 0.016524732
0.03686917 -0.02865972 -0.010811308 -9.2772984e-10 -0.010855743 -0.0141390115 0.007537712 -5.1168513e-07
0.06711405 0.07021161 0.021117346 0.02596774 0.01709943 0.0018275023 -0.00412042 0.0010195792
0.02642897 0.030959127 -0.00020632938 -0.003564609 -0.0001129797 -0.005866635 6.8388096e-07 0.054610465
0.05511363 0.032601032 -0.018984443 -0.008255599 -4.1117146e-05 -3.4590903e-06 4.057079e-12 -0.03020454
0.023344066 -0.054733194 -0.04550686 -0.059342187 0.062517844 -0.068286836 0.055410735 -0.0033438958
-0.0076053487 0.012748131 9.918153e-12 0.012838101 0.052936096 -0.061709076 0.028267058 0.014529615
0.016308954 0.011705784 0.000317305 -0.005780848 -3.8965686e-10 0.03226641 0.015295104 3.1693165e-13
-0.06711083 0.004013456 -0.04837062 0.023635775 -0.011772126 -1.1222903e-13 -0.0152758015 0.014045926
0.06854645 0.0077061583 0.042405877 0.05662928 0.023275249 -0.0013977078 -5.021057e-05 0.035685193
-0.019017339 0.034609195 -3.8518025e-05 -0.015655534 0.003048372 2.3474202e-08 0.0043905526 0.03507589
0.015908908 0.032128673 -6.2870504e-13 -0.061441198 -0.04996629 -0.043978304 -0.02787384 -0.006642207
-0.030370325 -0.0656675 -0.04238112 -0.07158345 -0.0121265985 0.0022827627 0.024922492 -0.00057611434

temporal_module.conv.0.bias f4 [64]
00000000: 6123 ac3c 5480 313c f0b3 26ae cf7b 10bd
00000010: 1caf 26bb 78f0 b92c 265d f9bc f2ad b43c
00000020: a71a df39 ed91 a63c 8e4d ebbc 2f63 ebbb
00000030: 4bfa 6438 ec03 2f2f 364c 2bbc db3b 993c
00000040: 240d 533b 851f 902d 3cec 043d 68d1 0abd
00000050: e765 f2bc 82fe 4837 00fb f13c d1ef 1d3c
00000060: 74e4 11bc 69a6 923c 647e f43b f41a 90ad
00000070: a535 573c c2e0 3337 628f 56ae 295d b6b9
00000080: 5617 03bc 122a 55bc 94da f8ae 08dc 82bc
00000090: 511e 6c3b 09aa d239 01c0 0abd 5758 9bbc
000000a0: b651 913c 197f fbbb d86f 92ac 602e 5ebc
000000b0: 2a9b 23b8 6036 ce3b 7b6f 3739 fae6 ca3b
000000c0: c22a 4bac 92f1 b9bc f443 0bae 87be 343c
000000d0: dfe4 a838 38c6 a437 4618 2737 cb4c c53c
000000e0: 1a4a de3b d451 88b4 44ca 0bbc b2e4 c13c
000000f0: 267a f5bb 4983 77bc fd79 4e3a 4974 5cbc
0.021012964 0.010833818 -3.7903847e-11 -0.035274323 -0.0025433963 5.2847136e-12 -0.030439924 0.0220556
0.00042553732 0.020333255 -0.028723504 -0.0071834545 5.459254e-05 1.591755e-10 -0.010455182 0.0187053
0.0032203877 1.6384902e-11 0.032451853 -0.03389111 -0.029589606 1.1980186e-05 0.029538631 0.009639696
-0.008904565 0.017901616 0.007461356 -1.6382874e-11 0.013135348 1.0721562e-05 -4.8785316e-11 -0.00034783155
-0.008001169 -0.013010519 -1.13165616e-10 -0.01597406 0.0036028812 0.00040181007 -0.033874515 -0.018963022
0.017739158 -0.0076750633 -4.1619867e-12 -0.013560861 -3.9006736e-05 0.006293103 0.0001749377 0.0061920853
-2.887177e-12 -0.022698198 -3.1665295e-11 0.011031753 8.053495e-05 1.9642626e-05 9.959627e-06 0.02408447
0.006783736 -2.5391512e-07 -0.008532111 0.02366862 -0.007491368 -0.015106984 0.0007876454 -0.013455459

temporal_module.conv.1.weight f4 [64]
00000000: c0fd 7f3f 8f11 803f 542d 803f e22d 803f
00000010: ac3b 803f 7ba5 7f3f 26ba 7f3f 2819 803f
00000020: 7342 803f ba1f 803f 952a 803f 1ea8 7f3f
00000030: 0ebb 7f3f 1d95 7f3f 5c80 7f3f ca83 7f3f
00000040: 740d 803f 998d 7f3f 6b08 803f 76ff 7f3f
00000050: 7d5d 803f 6d3b 803f e0fd 7f3f 45cd 7f3f
00000060: 6cfb 7f3f f332 803f 3bc7 7f3f a207 803f
00000070: f5ab 7f3f 8e3e 803f 12af 7f3f 2d0c 803f
00000080: 9dfd 7f3f 4500 803f 6aef 7f3f b823 803f
00000090: b601 803f 0826 803f 292e 803f 0535 803f
000000a0: e0c4 7f3f 98df 7f3f 9403 803f d090 7f3f
000000b0: 4f11 803f 0b1f 803f 002a 803f 8b09 803f
000000c0: 7c13 803f b53b 803f 2683 7f3f c599 7f3f
000000d0: 1036 803f 4ed3 7f3f b833 803f 6906 803f
000000e0: 5be5 7f3f 513f 803f 9b11 803f b3e3 7f3f
000000f0: f20c 803f 617f 7f3f 4a20 803f ef1c 803f
0.99996567 1.0005358 1.0013833 1.0014002 1.001821 0.9986188 0.99893415 1.0007677
1.0020279 1.0009682 1.0012995 0.998659 0.998948 0.99836904 0.99805236 0.9981047
1.0004106 0.99825436 1.0002569 0.9999918 1.002853 1.0018135 0.9999676 0.9992259
0.99993014 1.0015548 0.99913377 1.0002329 0.9987176 1.001909 0.9987651 1.0003716
0.9999636 1.0000082 0.9997469 1.00109 1.0000522 1.0011606 1.0014087 1.001618
0.9990978 0.9995055 1.0001092 0.9983034 1.0005282 1.0009474 1.0012817 1.0002912
1.0005946 1.0018221 0.9980949 0.9984401 1.0016499 0.999318 1.0015783 1.0001956
0.99959344 1.0019323 1.0005373 0.99956816 1.000395 0.9980374 1.0009854 1.000883

temporal_module.conv.1.bias f4 [64]
00000000: 048e 233a ffd8 9439 a67f c13a 032b dc3a
00000010: 5a9f ed3a f17e 9cba 3cc7 efba 9196 903a
00000020: bacf 263b ba82 d339 f5c7 783b e57c e9ba
00000030: 44cc e1b9 720e d8ba 575b f7ba 2abc f3ba
00000040: 2ad9 d939 131b ebba 0da8 703a c861 3dba
00000050: 7b10 7539 f0ca fc3a 722d a039 7638 e9b9
00000060: f815 c7b8 5b25 ba3a 6cae 92b9 461f b63a
00000070: 15bb c7ba 911b f83a f5ee 9cba d033 bcb6
00000080: a7ad 9639 e463 83ba 7929 49ba 001e 943a
00000090: ca15 2038 6e44 0e3b 3cce 013b 5e8f cf3a
000000a0: 04b7 06ba 2ba6 f43a 1e26 b73a 7375 f1ba
000000b0: 7d7b 82b7 97f6 993a a7be d63a 3ea0 613a
000000c0: c904 90b5 127c f63a 10fd fdba b470 303a
000000d0: 2b88 d93a c30b 59ba d7e0 183b 62d9 efb9
000000e0: 73c2 d4b9 d048 f93a 4803 12b9 b233 c1ba
000000f0: 3ee1 813a d656 03bb 9ab6 0b3a bb91 be3a
0.00062391185 0.00028390434 0.0014762774 0.0016797486 0.0018129156 -0.0011939687 -0.0018293629 0.00110312
0.0025453405 0.00040342455 0.003796098 -0.0017813711 -0.00043067534 -0.0016483797 -0.0018871826 -0.0018595506
0.00041551265 -0.0017937146 0.0009180315 -0.00072243484 0.0002337116 0.0019286554 0.00030551438 -0.0004448329
-9.4931514e-05 0.0014201807 -0.00027977244 0.0013894818 -0.001523825 0.0018929114 -0.001197307 -5.6088684e-06
0.0002873961 -0.0010024277 -0.00076737214 0.0011300445 3.8167265e-05 0.0021708268 0.0019806763 0.0015835573
-0.0005138966 0.0018665245 0.0013973152 -0.0018421843 -1.5554711e-05 0.0011746463 0.0016383723 0.0008606947
-1.0730229e-06 0.0018805286 -0.0019377787 0.0006730661 0.0016596367 -0.00082796457 0.0023327374 -0.00045747595
-0.00040580667 0.0019018892 -0.00013924867 -0.0014740138 0.0009909046 -0.0020040772 0.0005329639 0.0014539281

temporal_module.conv.1.running_mean f4 [64]
00000000: 6f89 6a4b f311 0dcb 7dfc b5c8 a16c 88c9
00000010: 8f8e e3ca 027f 4fca 5ff2 1e49 f338 92cb
00000020: 00f0 85cb b0db 494b 6d74 87cb 36b4 b54b
00000030: fc39 1349 5223 beca 355a 8eca 50ef 81ca
00000040: a7ab 7bcb 94a8 d6cb 5e65 1f4b ca88 a649
00000050: 2bfe aa4b 759e b8cb aeeb 184b 2f1c f54a
00000060: 1a31 be4a 915e c5ca d1e4 914a 572b b94a
00000070: 7848 2b4b 1c1c e0ca f25f 1dcb 4748 0d4b
00000080: 3e0c e34b b460 6b4b 1f4d a04a ff1b c0ca
00000090: e198 3e4a 970d 474b 3553 6eca e42c 1ccb
000000a0: 4cbd f348 6faa 0bca c97a 334a 90b7 5fca
000000b0: 929a fe49 5a98 14cb 5758 104b b668 174b
000000c0: b3a0 664b df6c 56cb 1c1b 9ccb 77e7 f6c9
000000d0: 90b2 03cb 6958 da4a 8aa0 934a ed86 fd4a
000000e0: d5b3 31cb 957d baca 3fc2 204b 5bc4 97ca
000000f0: 3c06 1bc9 a204 45cb 620e 9f4a 7ed7 f9c9
1.5370607e+07 -9.245171e+06 -372707.9 -1.1175881e+06 -7.4565835e+06 -3.3996165e+06 651045.94 -1.916567e+07
-1.7555456e+07 1.3228976e+07 -1.775433e+07 2.38163e+07 603039.75 -6.230441e+06 -4.6646025e+06 -4.257704e+06
-1.6493479e+07 -2.813572e+07 1.0446174e+07 1.3642492e+06 2.2412374e+07 -2.4198378e+07 1.0021806e+07 8.0317675e+06
6.232205e+06 -6.4674005e+06 4.7806485e+06 6.0676275e+06 1.1225208e+07 -7.34363e+06 -1.0313714e+07 9.259079e+06
2.9759612e+07 1.5425716e+07 5.2527515e+06 -6.2950395e+06 3.1227442e+06 1.3045143e+07 -3.9047172e+06 -1.0235108e+07
499178.38 -2.2882838e+06 2.9405942e+06 -3.66538e+06 2.0857142e+06 -9.73833e+06 9.459799e+06 9.922742e+06
1.5114419e+07 -1.4052575e+07 -2.0461112e+07 -2.0226389e+06 -8.630928e+06 7.1547405e+06 4.837445e+06 8.3075745e+06
-1.1645909e+07 -6.1109225e+06 1.0535487e+07 -4.9731015e+06 -634979.75 -1.2911778e+07 5.211953e+06 -2.0467038e+06

temporal_module.conv.1.running_var f4 [64]
00000000: 4d93 5e59 088d b958 fa6d 0258 d46c 7757
00000010: ae37 8858 d449 d657 69cc 6957 0f10 a559
00000020: fe9d 8c59 bc5e 5059 2bb7 8e59 1636 005a
00000030: 890a a457 9ed6 7d58 92c5 2658 1517 0e58
00000040: e333 7959 0996 315a 157c f558 81d7 de57
00000050: 25c5 0c5a cf92 015a 6468 d858 6221 8558
00000060: 4549 8658 6f7b a358 c171 a958 9894 8758
00000070: e71f 0059 e095 7358 26a0 f358 c90f bd58
00000080: 79c4 485a 2b68 7059 0fd2 5458 6306 3f58
00000090: 0dba d857 001f 2959 a962 4258 8701 0159
000000a0: ce6e f157 f29d 0f58 894c 9d57 a5b1 e657
000000b0: 1169 d757 9a3e f958 0579 c458 2453 c458
000000c0: 8a25 5359 3c4e 4459 d6c8 be59 4fbb da57
000000d0: f35d bf58 ecd4 6a58 72a5 1f58 5cf7 c058
000000e0: 0e63 0e59 ee7f 4958 5d8e 0159 c299 2c58
000000f0: 4f6a 9157 a395 3459 f736 2258 00a2 9e57
3.9155877e+15 1.632123e+15 5.736354e+14 2.7204679e+14 1.1981818e+15 4.7122516e+14 2.5706414e+14 5.8076285e+15
4.9475264e+15 3.6656848e+15 5.021355e+15 9.022066e+15 3.607303e+14 1.11639286e+15 7.3346995e+14 6.2491915e+14
4.38402e+15 1.2496509e+16 2.1593062e+15 4.9003433e+14 9.905815e+15 9.117922e+15 1.9035429e+15 1.1710274e+15
1.181194e+15 1.4380043e+15 1.4904483e+15 1.1925782e+15 2.253992e+15 1.07130014e+15 2.1429533e+15 1.663004e+15
1.4127755e+16 4.229283e+15 9.3599464e+14 8.401366e+14 4.765872e+14 2.9752097e+15 8.54916e+14 2.269497e+15
5.309164e+14 6.316341e+14 3.4590408e+14 5.073013e+14 4.736925e+14 2.1923781e+15 1.7281924e+15 1.7268909e+15
3.714531e+15 3.4534447e+15 6.7126334e+15 4.8099604e+14 1.6832818e+15 1.03280085e+15 7.021317e+14 1.697349e+15
2.5048974e+15 8.8620516e+14 2.279175e+15 7.5910554e+14 3.1977156e+14 3.1768764e+15 7.134278e+14 3.4883724e+14

spatial_attention.attention.0.weight f4 [64, 128]
00000000: 5f56 9cbd 09c3 91bd 638d b53c 0125 68bd
00000010: 1b59 a13d f287 6bbb cd06 17bd aaa8 5cbd
00000020: f106 dbbc 6aaf 9d3d 62d5 67bd 9805 a8bd
00000030: 38be da3c 1df7 f03c 909d 9bbd 1a8e 1fbd
00000040: 9a63 9b3d f7ff 29bd 9fc3 173d 7172 2dbd
00000050: a257 9fbd 7062 aebd 5f35 8a3d d948 e23c
00000060: a964 cc3c 9082 f13c 2084 0d3d 97e2 683d
00000070: 5734 8b3d b72b 8b3d 296c ec3c e4e2 803c
00000080: 0ba9 9d3c 3de3 92bd 4e21 223d a1d9 b33c
00000090: 765c 173d 0c73 b5bc 8857 963d 29c1 373c
000000a0: b37c aabc b61f eeba e31d 1bbd 7899 5dbc
000000b0: 1b40 9a3d 8889 f63c afdf 1fbc 4aeb 5b3b
000000c0: fb35 a53c 494c 4fbd ef6f 46bd 621a 9d3d
000000d0: 923b a0b9 145c da3c c572 26bd 33c0 84bd
000000e0: 960d 883c 691a 413d 3277 a9bd 6c00 b3bd
000000f0: bfc3 eabc 1ef4 6b3d 07e9 a2bd 711b 903d
00000100: 2a29 a43d d1a9 a4bc 3b6d 523b 63fa 93bb
00000110: 0398 af3d c93c 203c 8092 b53c 7888 fdbc
00000120: 6ea3 01ba 8bd9 3dbd 938b 923b b3a1 46bc
00000130: cd4c 8b3c af62 883c 3ef1 93bd 09aa 723d
00000140: 7e6d 443d c723 7b3d a472 853d 76c8 c23c
00000150: 8072 463d e25b 2f3d 8f96 5a3d f040 58bd
00000160: 14ce 2a3d 0c70 00bc 665e 0d3d b535 023d
00000170: 9511 85bd 93b8 2dbd a7a7 80bd 4d36 c8bc
00000180: 94d8 eb3c 7e24 af3c 3c80 903d 8995 80bd
00000190: 1f3d e33c 77c2 913d 9893 8bbd 1ec2 88bd
000001a0: e40e b53c 326c 0ebd 0dd7 b53c d00b 33bd
000001b0: 27a2 493c 93d2 97bd f6a3 913d 3584 66bd
000001c0: a7c9 a5bd b252 3cbd 4c24 303b 459f ab3d
000001d0: c4c1 8d3c 53d2 94bc 04c5 82bd ee02 293d
000001e0: ac5e bb3b ec84 d3bc ebad c4bc dd87 4b3c
000001f0: cf94 563d 169c 59bd 3216 b1bc 2fca 273d
00000200: f488 79bd 6b4d 1fbb 21ae 923d 720f 793d
00000210: 42b5 91bd c589 2bbd b700 673c c896 633d
00000220: d679 12bd 525f abbd fdbe 69bb 202a 623d
00000230: a410 3abd 301c a8bd e020 b13b 25da 953d
00000240: 9a47 93bd 4fc9 993c 4daf 633d 9218 273b
00000250: e85b 42bd 1b11 04bd 5e52 6ebd 00c1 c63b
00000260: 5273 26bd b6ad 283b a039 9abc a005 7fbd
00000270: 1dfe ae3d 62bb a83c 68f1 313d d4ba 553d
00000280: edfa 113d 3fb0 b2bc 4c6b dbbc b0bc 48bd
00000290: df6f a1bd a081 8abd bbfc 09bd 96f3 a93d
000002a0: 8f32 adbd 5d03 64bd 52af 8cbd 8656 86bd
000002b0: 90a4 953d faef 8fbd d29e 81bd df09 56bd
000002c0: df4d c23c ad5f e4bc 433f 72bd 6bce 943d
000002d0: 0289 463c d07b 84bd e89d 08bd ac09 5e3d
000002e0: 750d 023d fb0b 68bd 9bca 38bd f715 0fbd
000002f0: 5ac7 0d3d 3cba 91bd 8356 a83d d68d df3b
00000300: ff3a 103d 6fed da3c efc6 893d 0777 f4bc
00000310: a83b 06bd 5683 6bbd 43e8 943d f301 f5bb
00000320: f9da e9ba 7614 a03d 2d4d b7bc 4fc3 f2bc
00000330: e39f 14bd 0d83 4d3d 86de 2f3c 1945 41bd
00000340: e80d 6d3d ffd5 0b3d b964 a5bc 0e49 ab3c
00000350: 89de a3bd df5a 81bd d32e 04bd 8ea9 2f3d
00000360: 616d 9ebc be84 843d f96e a8bd e692 823d
00000370: b0aa adbd cfd5 fbbc c36b a53d 3be7 fabc
00000380: 7e3b 1dbd 0018 463d 59cb 40bd d39f 9d3c
00000390: 77d5 03bd 647b 093d 2a84 5ebd 4b24 3ebd
000003a0: be6c 6dbd c049 6dbc 40fc b23d 371b 4c3d
000003b0: 87be 94bd 126f 3c3d 2d3b a63d 6b2e b33d
000003c0: 07e9 113c c264 be3c 3719 833d 70fa af3d
000003d0: eff9 8a3a 6d9e 7cbc 0cef 903d 738d bebc
000003e0: f2a0 8e3d ab70 993d fd38 cb3c 01d0 92bd
000003f0: b710 8e3d 33cb 2b3d ebd3 a63c 3e67 953c
-0.076336615 -0.07117278 0.022162145 -0.056675915 0.07878324 -0.0035939184 -0.03687172 -0.053871788
-0.026736708 0.07699473 -0.056599982 -0.08204192 0.026702031 0.029414708 -0.07598412 -0.038953878
0.07587357 -0.041503873 0.037051793 -0.042345468 -0.077803865 -0.08514869 0.06748461 0.027622627
0.024950342 0.029481202 0.034549832 0.056856718 0.067970924 0.06795447 0.028860169 0.01573319
0.019245645 -0.071722485 0.039582543 0.02195436 0.036953412 -0.022149585 0.07340914 0.011215487
-0.020811414 -0.001816741 -0.0378703 -0.013525359 0.075317584 0.030094877 -0.00975792 0.0033556991
0.020167341 -0.05060986 -0.048446592 0.07671048 -0.00030561961 0.026655234 -0.040636797 -0.064819716
0.01660804 0.047144327 -0.08274688 -0.08740315 -0.028657792 0.057605855 -0.07954603 0.07036484
0.08015664 -0.020100506 0.0032108563 -0.0045159324 0.08573916 0.009780117 0.022164583 -0.030948862
-0.00049453124 -0.046350043 0.004472205 -0.012123513 0.017004395 0.016648619 -0.07223748 0.05924419
0.047955982 0.061313417 0.065160066 0.023777228 0.04844904 0.042812236 0.05336624 -0.052796304
0.041700438 -0.007839214 0.034513853 0.0317895 -0.06497494 -0.04241235 -0.06281977 -0.024439955
0.028789796 0.021379706 0.07055709 -0.062785216 0.027739106 0.07117169 -0.06815261 -0.0667765
0.022101827 -0.03477115 0.02219727 -0.043712437 0.012306727 -0.07413211 0.07111351 -0.056278426
-0.08095103 -0.045977302 0.0026877103 0.083799876 0.017304309 -0.018166697 -0.06385234 0.04126256
0.005718073 -0.025820218 -0.024008712 0.012422529 0.05238801 -0.05312737 -0.021617029 0.0409643
-0.060921624 -0.002430762 0.07162119 0.060805745 -0.0711465 -0.041879434 0.0140992915 0.055563718
-0.035760723 -0.0836779 -0.0035666816 0.055215955 -0.045426026 -0.08208501 0.0054055303 0.073169984
-0.07191391 0.01877275 0.0555871 0.0025496823 -0.04745093 -0.032242876 -0.05818402 0.006065488
-0.04063732 0.0025738305 -0.018826306 -0.062261224 0.08544562 0.020597164 0.043443114 0.052180126
0.035639692 -0.021812556 -0.026784562 -0.04900807 -0.07882666 -0.06763005 -0.03368829 0.082984135
-0.08456909 -0.05566727 -0.06869377 -0.06559472 0.073067784 -0.07028194 -0.06329121 -0.052255508
0.023718772 -0.027877653 -0.059142362 0.072659336 0.012117626 -0.06468928 -0.033353716 0.054208443
0.031751115 -0.05665205 -0.045115095 -0.034933057 0.034613945 -0.071155995 0.08219626 0.006822328
0.035212513 0.026724545 0.06727397 -0.029841913 -0.032771736 -0.0574983 0.07270863 -0.007477039
-0.0017841748 0.078164026 -0.022375667 -0.029634146 -0.036285292 0.050173808 0.010734206 -0.047185037
0.05787459 0.03413963 -0.02018963 0.020908859 -0.080014296 -0.063161604 -0.032271218 0.04288631
-0.019339265 0.06470631 -0.08224291 0.06375675 -0.08479822 -0.0307416 0.080771945 -0.030627837
-0.038386814 0.048362732 -0.047068927 0.01924125 -0.032185998 0.03356494 -0.05432526 -0.04642133
-0.057965033 -0.014482915 0.08739519 0.04983064 -0.07262903 0.046004362 0.08116756 0.08749088
0.008905656 0.023241404 0.06401294 0.08592689 0.001060305 -0.015418631 0.070768446 -0.023260808
0.06964292 0.07492193 0.024807448 -0.0716858 0.06936782 0.041941833 0.020364722 0.018237706

spatial_attention.attention.0.bias f4 [64]
00000000: c1b0 12bd d2b5 9d3c 3725 623d 5aab 47bc
00000010: 5331 64bc a16a a43d 17bb ac3d 92bd 433d
00000020: c2fd 0f3b ffa1 11ba 0f6e 5ebd fd77 7f3d
00000030: e9a6 1d3d 105f 8f3d 8773 70bd fe25 b93c
00000040: 8e44 973c 0e2e d0bc c444 0cbc def3 843c
00000050: 6179 c3bc 32f1 aa3d 1198 a1bd d36b 50bc
00000060: 4626 2abd ceaa 8a3d 5e60 01bd c6bf 9fbc
00000070: aab8 9c3d 2ac3 a3bd 7f57 ebbc b9e8 993d
00000080: f4df 7d3d dacd b2bc f68d 87bc 01b8 2cbd
00000090: c4cd 923c 0b8b d13c 38fc 753d 74d8 1e3d
000000a0: d468 353d 532e 6fbc 5078 81bd 71da 483d
000000b0: c08c 59ba e39b 6cbd 1eb9 ea3b b327 b33d
000000c0: 80c8 cbbb 0556 95bd c558 5a3d 8781 853d
000000d0: 7f69 63bd ea87 a0bd d532 81bd f198 173d
000000e0: 8698 12bd 553e b2bd 0879 b8bb c357 34bd
000000f0: 1a2d dbbc 93cd 0ebd 4cd8 f1bc cfca 6dbd
-0.035813097 0.019251738 0.055211272 -0.0121868495 -0.013927775 0.0802815 0.08434122 0.04778821
0.002197132 -0.00055554503 -0.05430418 0.06237029 0.038489256 0.070005536 -0.058703925 0.022601124
0.018465307 -0.025412586 -0.008561317 0.016229566 -0.023861589 0.083467856 -0.078903325 -0.01272102
-0.041540407 0.0677086 -0.031586044 -0.019500624 0.076524094 -0.07996209 -0.028728245 0.075150914
0.061981156 -0.021826673 -0.016547184 -0.042167667 0.017920382 0.025578996 0.060054988 0.038780645
0.044289425 -0.014598447 -0.06321776 0.049036447 -0.00082988665 -0.057765853 0.007163181 0.087478064
-0.00621897 -0.072917975 0.053307313 0.06518846 -0.05552053 -0.078384236 -0.063085236 0.03701109
-0.03578999 -0.08703295 -0.0056296624 -0.04402901 -0.026754905 -0.03486402 -0.029522084 -0.05805474

spatial_attention.attention.2.weight f4 [1, 64]
00000000: 97b3 d1bc d8f6 9dbd 102a 88bc b30a 9fbd
00000010: b3d4 093c 49db b33d 60a8 4ebd a524 8ebc
00000020: 7b71 afbc 7c95 2abd af21 b0bd d567 003d
00000030: 59b9 25bc 28c7 cd3b b0f5 00bd e776 a4bd
00000040: 1864 3fbd 3c2e 833d ff06 b33d 9ac1 1cbd
00000050: 82e3 873d a649 92bd 7032 03bc 6554 e5bd
00000060: 6113 92bc 4847 173d 9243 9d3d 7702 393d
00000070: 1714 713d e051 dbbc 204d fe3d 4cd2 d2bd
00000080: 399f eebc e97a 9fbc d553 aa3d 7fcf c63c
00000090: eb4f fa3d e9dc b0bd 56f2 273d bac2 d9bd
000000a0: e359 1f3d 7cdd 6abd 8402 64bd e6fe 5e3c
000000b0: 208a 663c 1eac fb3d e277 cd3d c8d1 903b
000000c0: 5fbb 323d a8db d83c 283e cebc 1698 b8bd
000000d0: f5cd cdbd 8a38 333c 677b 48bd 4aaa e83d
000000e0: 9aab 61bd 4eec 0f3d d371 7abd a88d fe3d
000000f0: 6174 573d d566 8c3d dd21 053d 7a37 8fbc
-0.02559833 -0.07713097 -0.01662162 -0.077657126 0.008412528 0.0878206 -0.050453544 -0.017351458
-0.021416416 -0.041646466 -0.08600175 0.031349022 -0.010114991 0.006279845 -0.031484306 -0.08030491
-0.046726316 0.06405303 0.08741569 -0.03827057 0.066351905 -0.071429536 -0.008007631 -0.111977376
-0.017831506 0.036933213 0.07678904 0.045168366 0.05885705 -0.02677244 0.12417054 -0.10294017
-0.029128658 -0.019467788 0.08316771 0.024268864 0.122222744 -0.08635885 0.041002594 -0.10632844
0.038904082 -0.05734013 -0.05566646 0.013610577 0.0140710175 0.12288688 0.100326315 0.004419539
0.043635722 0.026471928 -0.025176123 -0.09013383 -0.10049049 0.010938773 -0.04894581 0.11360605
-0.055095293 0.035137467 -0.061143707 0.124293625 0.052601222 0.06855551 0.032502998 -0.017482508

gcn.weight f4 [64, 64]
00000000: 26c8 d2bd 2617 8e3d 8341 3ebd 4fb2 bbbd
00000010: 5b41 eb3b 0d89 263e 5b51 48be 04cb b8bd
00000020: b845 283e b024 d5bd 5fe5 4c3d 16c3 a63d
00000030: eeba 923c 5348 8e3c 4254 14be fb13 0bbd
00000040: 45cc 2abd fca8 33bc 28ae c3bc 066d 4fbd
00000050: a7d6 03be 43f5 1d3e e7ad 803d 36e5 933d
00000060: eb09 dc3d 8780 923b 3807 103e 28e4 893d
00000070: 20fb 85bd 59bd 453b 4d3a 41be 92bd e5bd
00000080: c849 4e3e 4c79 5b3e 2a8a 1ebe e511 c1bd
00000090: ebf3 f33d da2e 46be dbb1 c4bc 3330 4bbe
000000a0: cccb d1bd 7c86 e8bd 2931 28bc 3dca 6bbd
000000b0: 756a f4bd 9cb4 e73d e542 c4bd 0f10 5abe
000000c0: d2e3 d73d b7a6 113e 56b7 3fbd e763 cf3b
000000d0: 81ca e23c 302b debc f828 34bd d682 34be
000000e0: 2e19 c23d c3cc 64ba 4c2b eb3d b01a 6a3c
000000f0: 8c06 b0bd f0e8 dabd e3be e63c 1bda e23d
00000100: 5688 5c3e e2ae 463e c6d6 353e 37ed 27be
00000110: 0bc5 203d a2fa 493e 0601 c93d b7b2 133e
00000120: e467 523e 3dd6 85bd 100c ed3d f65a 033e
00000130: c7a2 7c3b 834c 02be 43c0 743d 138d 383e
00000140: f6b6 dc3c a528 8b3d 7c5b f33c 7b8f 1c3e
00000150: 4b11 ec3d 62b4 46bd 2b59 103d bf85 cfbd
00000160: 3ee3 0a3d 862d 3fbe 5c00 983d 2155 063e
00000170: 3b07 3abe 8adc 713d 5d66 f3bc ebcd afbd
00000180: 6b4b c63d 56c0 203c fdb7 e9bd 0f12 183e
00000190: 09b4 663d ce4c 19be 574b 10bd c57c f0bd
000001a0: 6084 0bbe 508f 533e a9e8 babc 781d 51bc
000001b0: eef6 d3bc 594f 47bd b027 3cbe abf5 e9bc
000001c0: 5ce4 b8bd 0fb8 b83d 5a11 c6bb 7d45 59be
000001d0: 058c 03be 6b72 26be 6059 593c 36f2 083e
000001e0: f1e1 cb3d 2af3 573c 767c fd3d ee6c c0bc
000001f0: 6172 4c3e b5c1 38be e863 6cbd b265 f2bc
00000200: 7aa4 27be 5ce7 8b3d 53e9 173e 00a5 133d
00000210: e647 9a3c 0f17 403e 5121 9ebd ca25 0bbd
00000220: 37a8 a43d 7198 f2bd a38a 27be 669a 33bd
00000230: db98 103e 512c e4bd b0d1 7e3d 736a 813b
00000240: 517f 4b3e 56d3 e93d 3528 eabd f355 55be
00000250: 62eb 033e f9e2 4bbe e6f7 01be de42 573e
00000260: 0dc4 823d acfc 3fbb ea7c 28be 6adc 25bd
00000270: 9cf8 ed3c 215b 033e 033d adbd 3407 1cbd
00000280: 4476 303d bd05 5abe 331e 89bd 21a1 4abe
00000290: d36a 9fbd 111d 03be d858 d93d fc38 19be
000002a0: 1dc1 50be 1e85 cbbc 7beb d0bd 44f7 e7bd
000002b0: 6605 4fbd b33b a53d 2832 44be 46bb 20be
000002c0: 2a49 813c 799d c63d b767 0b3c ab2d 5c3e
000002d0: b675 dc3d 25cc 15be 41b7 fa3d 7e65 e5bd
000002e0: d565 233e d766 61bd 7a99 383e 4cfd 4fbd
000002f0: b6f2 80bd 5dff 21be 3265 5b3e 7222 fdbd
00000300: d86c c1bd 5f6a f3bd e62c 5bbe 19cb dabd
00000310: 7ec6 363e 2f80 0d3e 3fee 633d c73e 82bd
00000320: 3061 f43c cd2e 25bd f59c 35be 5490 163e
00000330: 4798 e83d 5470 3f3e 9b17 4fbe 5f31 0b3d
00000340: 802e fa3d 6766 f5bc bbb3 cd3d 061c dc3d
00000350: c88a dabd e503 233e 1e7a 603d 7af0 c1bc
00000360: cf66 a03d 9182 273e f7f3 243d 5b81 d63d
00000370: 0e71 16be 4699 cdbd 2ee4 18bd 2b6d fd3d
00000380: 83dd fb3d 9a41 71bd 0366 0bbd f26f f3bc
00000390: 8077 cdbd 7b67 3a3e eecf df3d f9c7 103e
000003a0: a2ff 95bd 1a04 55bd af9c 38be d6de 243e
000003b0: cac7 a7bd 1d3c 92bc a93d 13be b49d 363d
000003c0: 66a3 f23d 6562 5cbe a122 2a3e 78df 223d
000003d0: 39c1 d33d 81bc 41be c132 633d 1e26 593e
000003e0: 021a 123e dc12 c7bd 99f3 403c bda8 17be
000003f0: 24bf b13d fb56 d23d f40d c03d 0e2d 40be
-0.102920815 0.06938009 -0.046449196 -0.09164869 0.007179422 0.16263218 -0.19562285 -0.09023097
0.16432846 -0.10407388 0.050023433 0.081426784 0.0179114 0.017368471 -0.14485267 -0.0339546
-0.041698713 -0.010965582 -0.023886755 -0.050641082 -0.12874852 0.15425591 0.06283169 0.07221453
0.10744079 0.004470888 0.14065254 0.067329705 -0.06542039 0.0030172674 -0.18869896 -0.11217798
0.20145333 0.2143299 -0.15482393 -0.09427241 0.11911758 -0.1935381 -0.02401059 -0.19842605
-0.10243949 -0.11353776 -0.010265627 -0.057565916 -0.119343676 0.113137454 -0.095830716 -0.21295188
0.105415 0.14223753 -0.046805702 0.006329048 0.027684452 -0.027120203 -0.043984383 -0.17628035
0.09477459 -0.00087280216 0.114828676 0.014288589 -0.08594999 -0.106889606 0.028167194 0.110767566
0.21536383 0.1940265 0.17757711 -0.16399084 0.039250415 0.19724515 0.09814648 0.14423643
0.20547444 -0.06535003 0.11574566 0.12827668 0.0038549171 -0.127245 0.059753668 0.18022566
0.026942711 0.06794862 0.02970671 0.15289108 0.11526736 -0.04851187 0.035241287 -0.10132932
0.03390812 -0.1866971 0.074219435 0.13118412 -0.1816682 0.059048213 -0.029711897 -0.085841976
0.096823536 0.009811481 -0.11412046 0.14850639 0.05632404 -0.14970705 -0.0352281 -0.11742548
-0.13624716 0.20660138 -0.02281602 -0.012763374 -0.025874581 -0.048659656 -0.18374515 -0.028559526
-0.09027931 0.090194814 -0.006044549 -0.21217914 -0.12846382 -0.16254584 0.013265938 0.13373646
0.09955204 0.013180533 0.12377255 -0.023489442 0.19965507 -0.18042643 -0.057712466 -0.029589508
-0.16371337 0.06831238 0.148351 0.036046028 0.018833112 0.18758796 -0.07721198 -0.033971585
0.08039897 -0.11845482 -0.1636148 -0.043848418 0.1412081 -0.11141265 0.062211692 0.0039494573
0.19872786 0.11417262 -0.1143345 -0.20833568 0.1288276 -0.19910802 -0.12692222 0.21021602
0.0638505 -0.0029294891 -0.16453901 -0.040493406 0.02904921 0.12827732 -0.08458903 -0.038092807
0.043081537 -0.21291251 -0.06695213 -0.19788028 -0.07784047 -0.12804057 0.10612649 -0.14963144
-0.20386167 -0.024843749 -0.10201164 -0.11326459 -0.050542258 0.08068027 -0.19159758 -0.15696439
0.015781958 0.09698004 0.008508614 0.21501796 0.10764639 -0.14628656 0.12241984 -0.11200999
0.15956815 -0.055029716 0.18027297 -0.050778672 -0.062962934 -0.1582007 0.21425322 -0.123600855
-0.094445884 -0.11885523 -0.21403846 -0.10683269 0.17849156 0.1381843 0.05564713 -0.0635963
0.029831499 -0.040327836 -0.17735656 0.14703494 0.113571696 0.18695194 -0.20223849 0.03398263
0.122159004 -0.029956056 0.100440465 0.107475325 -0.10671002 0.15919454 0.05480396 -0.023674238
0.07832109 0.16358401 0.040271726 0.10473891 -0.14691564 -0.10039 -0.037326984 0.12374338
0.122981094 -0.058900453 -0.034032833 -0.029716466 -0.100325584 0.18203537 0.10928331 0.14138784
-0.07324149 -0.052005865 -0.1802852 0.1610063 -0.081924036 -0.01785093 -0.1437899 0.04458399
0.11847572 -0.2152191 0.16614772 0.039763898 0.10339589 -0.18919565 0.055468325 0.21205947
0.14267734 -0.09720394 0.011776828 -0.14810462 0.08679035 0.102704965 0.09377661 -0.18767187

gcn.bias f4 [64]
00000000: 0000 0000 0000 0000 0000 0000 0000 0000
00000010: 0000 0000 0000 0000 0000 0000 0000 0000
00000020: 0000 0000 0000 0000 0000 0000 0000 0000
00000030: 0000 0000 0000 0000 0000 0000 0000 0000
00000040: 0000 0000 0000 0000 0000 0000 0000 0000
00000050: 0000 0000 0000 0000 0000 0000 0000 0000
00000060: 0000 0000 0000 0000 0000 0000 0000 0000
00000070: 0000 0000 0000 0000 0000 0000 0000 0000
00000080: 0000 0000 0000 0000 0000 0000 0000 0000
00000090: 0000 0000 0000 0000 0000 0000 0000 0000
000000a0: 0000 0000 0000 0000 0000 0000 0000 0000
000000b0: 0000 0000 0000 0000 0000 0000 0000 0000
000000c0: 0000 0000 0000 0000 0000 0000 0000 0000
000000d0: 0000 0000 0000 0000 0000 0000 0000 0000
000000e0: 0000 0000 0000 0000 0000 0000 0000 0000
000000f0: 0000 0000 0000 0000 0000 0000 0000 0000
0.0 0.0 0.0 0.0 0.0 0.0 0.0 0.0
0.0 0.0 0.0 0.0 0.0 0.0 0.0 0.0
0.0 0.0 0.0 0.0 0.0 0.0 0.0 0.0
0.0 0.0 0.0 0.0 0.0 0.0 0.0 0.0
0.0 0.0 0.0 0.0 0.0 0.0 0.0 0.0
0.0 0.0 0.0 0.0 0.0 0.0 0.0 0.0
0.0 0.0 0.0 0.0 0.0 0.0 0.0 0.0
0.0 0.0 0.0 0.0 0.0 0.0 0.0 0.0
