scripts/outputs/training_20250522_003625/final_model.pt (torch, 194898 bytes, 20 tensors)

adaptive_adj f4 [80, 80]
00000000: 23c2 8cbd fc56 11be 3947 dabb a701 f0bd
00000010: 6395 a2bd d275 013e 6ff9 b83c e80e 263e
00000020: 34e2 d2bd 90fe 8d3d 957a 1bbd 0484 1ebe
00000030: 07b4 f4bd e85d e2bb 35bc d13d 2f58 023e
00000040: 5257 25be 4774 803d 2a6e 9e3d 2bd2 afbd
00000050: 48b1 8fbd 67a8 cdbd b1cd 2dbe ad01 2c3e
00000060: bb35 1bbe 20e4 9c3d be7a 79bd 3d63 38be
00000070: 137a c83d f830 383b ba30 64bc 678e c2bd
00000080: 7ea5 25b9 04d5 9f3d 9335 1e3d 6264 36be
00000090: dbd8 1dbe 3367 00be 59dc 053e 94de 5dbc
000000a0: 87d6 92bd 3aba e33c 30a1 ffbc fa97 133d
000000b0: 4507 21be d9fc f8bc 39b6 3e3e 5e64 e63b
000000c0: 7ca2 3c3e d682 083e 8396 faba c8d7 243e
000000d0: 6783 52bd c70e 093e 54ef 6c3c 76db 3cbe
000000e0: 9f87 883d 46f4 c13c 1e08 02be ee5e ea3d
000000f0: 2a87 11be e29d 2fbe ceb9 a0bc 1900 f93c
00000100: 4569 213e a110 bbbd 4ac2 d2bd fb1b 0d3d
00000110: 7fac 363e 0803 353e 6b48 19bd 9a5d 58bc
00000120: 09ef 17bd 3528 3e3e be24 f33c 957a 5b3c
00000130: 4503 463d 5b39 15be 8fe9 6ebc b828 1dbe
00000140: c214 683d 5cf8 d03d 6997 f13c 03fb 64bd
00000150: 7155 073e 670a d03c c879 0ebe 4c4b 1abe
00000160: 527d 9f3d 0dcc 113e 0ce0 1a3e 88f9 223d
00000170: 707e eebd f7c6 f0bd 6150 913c ee50 c83d
00000180: af77 17bd ba60 813d 8003 cd3d bce6 9a3d
00000190: cbe7 39bd 2cc5 10bd 3e18 e2bd e9c9 093b
000001a0: ca13 15be 4db6 fd3d 6640 143d 009b 8b3d
000001b0: 527b 0e3e bde2 43bd eb42 7e3c 8cdf 84bd
000001c0: efc6 b23d 44c6 8f3d dfcf d13d 4676 e3bb
000001d0: da64 983d 9a99 cdbd 112e dabd 5572 09be
000001e0: e1b8 c33d 47d7 27be 210c 88bd 7865 a9bc
000001f0: 7a87 1fbc 3133 0d3e 3417 253e 52ac 9cbd
00000200: a4cd c9bc be55 17be c1af b1bd 9951 76bd
00000210: 40d8 d5bc 81fe fc3d 0927 f9bc d46c 3b3d
00000220: da50 09be 1281 8abd 53fc 743c 22fb 4ebd
00000230: 911e f03d fe71 a2bc 4df4 1f3e b294 a93d
00000240: d303 873d 5a11 27be 12ac b53d 937c f9bd
00000250: 6e8a 393e fa01 053e 4dbc 9ebd 185a f63c
00000260: 315a 613d 20d7 16be 1895 063d d044 e9bb
00000270: e31c 093d f0f7 023e 0e1a b8bd 05bd 0bbe
00000280: 7ede 07be c9eb 4a3c c1ec f9bc e013 dcbd
00000290: 8e1f 12bd 9280 243d 5252 d7bd e66e f93d
000002a0: 671e be3d fcf5 5ebd a6de f8bc d53c 283d
000002b0: 40e4 8f3d b29c 2abc 1c57 ccbd 724e 113e
000002c0: aaf5 0fbd bce7 353d 58fe 253e 8f2d 163d
000002d0: 5260 e23d deb4 1abd c277 b9bd ffb7 b83d
000002e0: d4eb 283e e46c 3a3e a942 263e 5382 393d
000002f0: 4e0f 25be 3bf4 143e b6de 113e 29fe 29be
00000300: b82c 19b7 39ae 6939 073a 43bc 0916 873d
00000310: 6552 b1bd 2691 95bd 4487 b2bd b096 00bd
00000320: f2b5 c5bd 70b4 aebd 4792 de3d 6a01 aebc
00000330: 98cb ccbd 3876 5fbd ba95 583d 3553 a9bd
00000340: d007 103e 63b5 893d ee33 c8bd 3ccc f1bd
00000350: 7d9b 73bd c73d 0ebe 6f0b f73d 4b38 abbd
00000360: a4ed 713d e7ad c7bd 1d81 733d fb3e 0e3d
00000370: 1d3d a83d 7bda 673d acbd ae3d 0118 c73d
00000380: 88d0 273e 9f0d 28bd 2772 94bd 95b2 b8bc
00000390: d6ac 70bd 08ab 3cbc 9693 81bd aa69 0ebe
000003a0: b351 d8bc fab1 353e e7f1 b73d 7259 37bd
000003b0: 5804 083e 440c a5bc da07 e9bc 987d 26be
000003c0: f2bf 233e 26a5 30be 68b2 453d ffe9 23be
000003d0: fd0c 143e 0a63 11be 1fd7 9b3d f5f2 37be
000003e0: d76f 1a3c 77a8 9b3d ffc0 293e 6160 9eb9
000003f0: b6d8 153e 746d e83d 7a13 0c3e 03f9 f93d
-0.06872966 -0.14193338 -0.0066613224 -0.11719065 -0.079386495 0.12642601 0.022579877 0.16216624
-0.10297051 0.069333196 -0.0379587 -0.15480047 -0.119484 -0.006908167 0.10240976 0.12728952
-0.16146591 0.06272178 0.07735856 -0.08585008 -0.070162356 -0.10041886 -0.16972996 0.16797514
-0.15157215 0.07660699 -0.06090807 -0.18006606 0.09788909 0.002810536 -0.013927633 -0.09499817
-0.00015797277 0.078043014 0.03862531 -0.1781173 -0.15414755 -0.12539367 0.13072337 -0.013541836
-0.07169824 0.02779876 -0.03120479 0.036033608 -0.1572543 -0.030394005 0.186242 0.0070310077
0.18421358 0.1333116 -0.0019118342 0.16097939 -0.051394846 0.13384543 0.014461357 -0.18443093
0.06666493 0.023676049 -0.12698409 0.11443888 -0.14211717 -0.17150071 -0.019619849 0.030395554
0.15762813 -0.09134031 -0.10290964 0.034450512 0.1783924 0.17676938 -0.03742258 -0.01320591
-0.037093196 0.18570025 0.029680606 0.013395925 0.04834296 -0.1457266 -0.014582052 -0.15347564
0.05666042 0.10203621 0.029491143 -0.055903446 0.13216187 0.025395585 -0.13913643 -0.15067786
0.07787575 0.14237995 0.1512453 0.039788753 -0.1164521 -0.117566995 0.017738523 0.09781061
-0.036979374 0.06317277 0.10010433 0.0756354 -0.04538707 -0.035344288 -0.1103978 0.002102489
-0.1455833 0.12388287 0.036194228 0.06816673 0.1391423 -0.047823656 0.015518884 -0.06487951
0.0872935 0.07020238 0.102447264 -0.0069415895 0.07441111 -0.10039063 -0.10653318 -0.1342252
0.09556747 -0.16390716 -0.066429384 -0.020678267 -0.00973689 0.13789059 0.16122133 -0.07650055
-0.02463419 -0.14778802 -0.086761005 -0.06013641 -0.026104093 0.1235323 -0.030414121 0.045758083
-0.13409749 -0.067628995 0.014952737 -0.050532468 0.1172458 -0.019829746 0.15620537 0.082803145
0.06592526 -0.16315213 0.088707104 -0.12181964 0.18119213 0.12989035 -0.07750759 0.030072257
0.055017654 -0.14730501 0.03285703 -0.007118799 0.033474814 0.12789893 -0.089893445 -0.13646324
-0.13268468 0.012385317 -0.0305084 -0.10745978 -0.035674624 0.040161677 -0.10513748 0.12179355
0.092831425 -0.054433808 -0.030379605 0.04107364 0.07025957 -0.010413336 -0.09977552 0.14190081
-0.035146393 0.044410452 0.16210306 0.03666454 0.11053528 -0.037770145 -0.09056045 0.090194695
0.16496211 0.18205601 0.16236366 0.045290302 -0.1611912 0.14546292 0.14245114 -0.1660086
-9.129923e-06 0.00022285515 -0.01191569 0.06596 -0.08658294 -0.073030755 -0.08717206 -0.031393707
-0.09653844 -0.085305095 0.10867744 -0.021240909 -0.0999977 -0.0545561 0.052877165 -0.082678236
0.1406548 0.0672405 -0.0977553 -0.11806533 -0.059474457 -0.13890754 0.12062728 -0.083603464
0.059064522 -0.09749966 0.059449304 0.03472803 0.082147814 0.056604844 0.08532271 0.09721375
0.16388142 -0.041028615 -0.07248335 -0.022546092 -0.05875858 -0.011515386 -0.06326978 -0.13907495
-0.026406145 0.17743674 0.08981686 -0.044763036 0.13282907 -0.02014745 -0.028446127 -0.16258848
0.1599119 -0.17250499 0.048265845 -0.16007231 0.1445808 -0.14197937 0.076093905 -0.17963775
0.009426079 0.076004915 0.16577528 -0.00030207916 0.1463345 0.113490015 0.13679305 0.12205698

adj_matrix f4 [80, 80]
00000000: e238 0e3f 0000 0000 388e 633d 0000 0000
00000010: 368e 633d 0000 0000 0000 0000 0000 0000
00000020: 0000 0000 0000 0000 0000 0000 0000 0000
00000030: 0000 0000 0000 0000 0000 0000 0000 0000
00000040: 0000 0000 0000 0000 0000 0000 0000 0000
00000050: 0000 0000 0000 0000 0000 0000 388e 633d
00000060: 0000 0000 0000 0000 0000 0000 0000 0000
00000070: 0000 0000 0000 0000 0000 0000 0000 0000
00000080: 0000 0000 0000 0000 0000 0000 0000 0000
00000090: 0000 0000 0000 0000 0000 0000 0000 0000
000000a0: 388e 633d 0000 0000 0000 0000 0000 0000
000000b0: 0000 0000 0000 0000 0000 0000 0000 0000
000000c0: 0000 0000 0000 0000 0000 0000 0000 0000
000000d0: 0000 0000 0000 0000 368e 633d 0000 0000
000000e0: 0000 0000 388e 633d 0000 0000 0000 0000
000000f0: 0000 0000 0000 0000 388e 633d 0000 0000
00000100: 0000 0000 0000 0000 0000 0000 0000 0000
00000110: 0000 0000 0000 0000 368e 633d 0000 0000
00000120: 0000 0000 0000 0000 0000 0000 0000 0000
00000130: 0000 0000 0000 0000 0000 0000 0000 0000
00000140: 0000 0000 0000 803f 0000 0000 0000 0000
00000150: 0000 0000 0000 0000 0000 0000 0000 0000
00000160: 0000 0000 0000 0000 0000 0000 0000 0000
00000170: 0000 0000 0000 0000 0000 0000 0000 0000
00000180: 0000 0000 0000 0000 0000 0000 0000 0000
00000190: 0000 0000 0000 0000 0000 0000 0000 0000
000001a0: 0000 0000 0000 0000 0000 0000 0000 0000
000001b0: 0000 0000 0000 0000 0000 0000 0000 0000
000001c0: 0000 0000 0000 0000 0000 0000 0000 0000
000001d0: 0000 0000 0000 0000 0000 0000 0000 0000
000001e0: 0000 0000 0000 0000 0000 0000 0000 0000
000001f0: 0000 0000 0000 0000 0000 0000 0000 0000
00000200: 0000 0000 0000 0000 0000 0000 0000 0000
00000210: 0000 0000 0000 0000 0000 0000 0000 0000
00000220: 0000 0000 0000 0000 0000 0000 0000 0000
00000230: 0000 0000 0000 0000 0000 0000 0000 0000
00000240: 0000 0000 0000 0000 0000 0000 0000 0000
00000250: 0000 0000 0000 0000 0000 0000 0000 0000
00000260: 0000 0000 0000 0000 0000 0000 0000 0000
00000270: 0000 0000 0000 0000 0000 0000 0000 0000
00000280: 388e 633d 0000 0000 e438 0e3f 0000 0000
00000290: 388e 633d 0000 0000 0000 0000 0000 0000
000002a0: 0000 0000 0000 0000 0000 0000 0000 0000
000002b0: 0000 0000 0000 0000 0000 0000 0000 0000
000002c0: 0000 0000 0000 0000 0000 0000 0000 0000
000002d0: 0000 0000 0000 0000 0000 0000 398e 633d
000002e0: 0000 0000 0000 0000 0000 0000 0000 0000
000002f0: 0000 0000 0000 0000 0000 0000 0000 0000
00000300: 0000 0000 0000 0000 0000 0000 0000 0000
00000310: 0000 0000 0000 0000 0000 0000 0000 0000
00000320: 398e 633d 0000 0000 0000 0000 0000 0000
00000330: 0000 0000 0000 0000 0000 0000 0000 0000
00000340: 0000 0000 0000 0000 0000 0000 0000 0000
00000350: 0000 0000 0000 0000 388e 633d 0000 0000
00000360: 0000 0000 398e 633d 0000 0000 0000 0000
00000370: 0000 0000 0000 0000 398e 633d 0000 0000
00000380: 0000 0000 0000 0000 0000 0000 0000 0000
00000390: 0000 0000 0000 0000 388e 633d 0000 0000
000003a0: 0000 0000 0000 0000 0000 0000 0000 0000
000003b0: 0000 0000 0000 0000 0000 0000 0000 0000
000003c0: 0000 0000 0000 0000 0000 0000 0000 803f
000003d0: 0000 0000 0000 0000 0000 0000 0000 0000
000003e0: 0000 0000 0000 0000 0000 0000 0000 0000
000003f0: 0000 0000 0000 0000 0000 0000 0000 0000
0.55555546 0.0 0.055555552 0.0 0.055555545 0.0 0.0 0.0
0.0 0.0 0.0 0.0 0.0 0.0 0.0 0.0
0.0 0.0 0.0 0.0 0.0 0.0 0.0 0.055555552
0.0 0.0 0.0 0.0 0.0 0.0 0.0 0.0
0.0 0.0 0.0 0.0 0.0 0.0 0.0 0.0
0.055555552 0.0 0.0 0.0 0.0 0.0 0.0 0.0
0.0 0.0 0.0 0.0 0.0 0.0 0.055555545 0.0
0.0 0.055555552 0.0 0.0 0.0 0.0 0.055555552 0.0
0.0 0.0 0.0 0.0 0.0 0.0 0.055555545 0.0
0.0 0.0 0.0 0.0 0.0 0.0 0.0 0.0
0.0 1.0 0.0 0.0 0.0 0.0 0.0 0.0
0.0 0.0 0.0 0.0 0.0 0.0 0.0 0.0
0.0 0.0 0.0 0.0 0.0 0.0 0.0 0.0
0.0 0.0 0.0 0.0 0.0 0.0 0.0 0.0
0.0 0.0 0.0 0.0 0.0 0.0 0.0 0.0
0.0 0.0 0.0 0.0 0.0 0.0 0.0 0.0
0.0 0.0 0.0 0.0 0.0 0.0 0.0 0.0
0.0 0.0 0.0 0.0 0.0 0.0 0.0 0.0
0.0 0.0 0.0 0.0 0.0 0.0 0.0 0.0
0.0 0.0 0.0 0.0 0.0 0.0 0.0 0.0
0.055555552 0.0 0.5555556 0.0 0.055555552 0.0 0.0 0.0
0.0 0.0 0.0 0.0 0.0 0.0 0.0 0.0
0.0 0.0 0.0 0.0 0.0 0.0 0.0 0.055555556
0.0 0.0 0.0 0.0 0.0 0.0 0.0 0.0
0.0 0.0 0.0 0.0 0.0 0.0 0.0 0.0
0.055555556 0.0 0.0 0.0 0.0 0.0 0.0 0.0
0.0 0.0 0.0 0.0 0.0 0.0 0.055555552 0.0
0.0 0.055555556 0.0 0.0 0.0 0.0 0.055555556 0.0
0.0 0.0 0.0 0.0 0.0 0.0 0.055555552 0.0
0.0 0.0 0.0 0.0 0.0 0.0 0.0 0.0
0.0 0.0 0.0 1.0 0.0 0.0 0.0 0.0
0.0 0.0 0.0 0.0 0.0 0.0 0.0 0.0

feature_extractor.0.weight f4 [64, 4]
00000000: 6393 933e 1814 a43e 43ed 1ebd da9d eb3e
00000010: b19e 06bd bee3 d83c 3cc0 1cbe 4a72 963e
00000020: fd1b b13e 14ca 8bbe 67fb ad3e 905b bd3d
00000030: ee18 8d3e c9b1 dd3b 1f79 1a3e 91d9 03bc
00000040: eb2c 953e 5c2c 1e3c 23f6 12be 6078 033e
00000050: ecfe 0fbe c0e0 61bb f632 ebbd 3201 aa3e
00000060: c6d3 99be 4321 10be 17c4 70bd 0b54 55be
00000070: 7f88 753a baf9 cbbe ff8d b63e 2ffe a8be
00000080: d474 953e bfb6 713c bf8d 9ebd 7cb2 9d3e
00000090: 6b74 403c f383 9e3e c277 1a3b 0101 96bd
000000a0: 67d7 583d be1f 5dbd f35b f93d 218b e43e
000000b0: 81cb 493e d590 04be c563 493e 4b22 b53d
000000c0: 040f 273e 046e 59be 708a ccbe 774a d8bd
000000d0: 2735 94be faaf a13e 6fbf 7a3d 47c0 523e
000000e0: 50d0 963d 09d9 ae19 801f 983e cefc 85be
000000f0: edd8 9e37 b1f0 7dbe 0b9f 8f3d 80bf b0bd
00000100: 54de 8d3d 2d65 ecbc 40ec a33e e10f 51be
00000110: 50e8 52be 72e9 52be d4a0 b53e 5089 293e
00000120: c987 c53e 4ee2 a2be 270a cdbe b70f 98be
00000130: a0fb 78be 4b22 ea3d b591 bd3d 6b7d d43e
00000140: 8049 2bbe 5d86 7dbe 2a44 323e f554 e9bd
00000150: bb24 583e dfe1 23bd f9cb 463e afb3 96be
00000160: 097e 25be 077a 8c3d d5b4 f53c 5f50 41bd
00000170: e6bc 523e 3f92 7c3e 72ab 89be 16e4 33be
00000180: 3fbb b93e 684a aabd c136 babd 70e2 c6be
00000190: 481b 47be 3f9e 383d 6945 c6bb 4cd9 89be
000001a0: 3b48 331e 2636 7ebe d9b8 a8be 3132 3cbe
000001b0: 3f80 afbe 250a 67be afff ce3e 72f8 c13d
000001c0: 6e72 8f3d 6e0a bebe 3d09 71be 190e a6bd
000001d0: bac7 423c 81b0 b0be 8a80 01be 1f08 54be
000001e0: d87c a292 58c4 cabd 18d5 7db8 ae7a 7bbe
000001f0: 69df 7fbe f66f 4cbe e2ce aebd ffcd 99be
00000200: 7a37 a63e 6dcf cebc fdc1 ab3e 1996 1e3e
00000210: 5d51 a8be c259 813e d212 64bd c267 d5bd
00000220: 1818 a4be 729e cdbe 875e 773d 52b6 05bd
00000230: a31c db3d 47b8 a1be ff01 8e3e d6e6 8bbe
00000240: 0f6f 88bc ce07 ee3c b133 2b3e fa6b d13e
00000250: 868a b83e f9b8 9abe a9c0 3b3d 1b24 01be
00000260: ab98 1cbb 5388 8fbe 0684 b83e 34e0 8bbe
00000270: d22d 343e 8255 b73d 7fc6 9e3d 883d 37be
00000280: 7b08 b83e 1dc1 073d dda6 b03b db06 b1be
00000290: 9350 f83d 62d7 26bc ceb8 0ebe 2d7a db3e
000002a0: 14c9 0c3d 817d 3dbe 7939 26be 8b44 36b4
000002b0: 5e02 403e de49 42bd 0a11 46be a1f1 aebd
000002c0: 2b2d 8fbe 8232 bc3d e2f6 953e 1d42 c0be
000002d0: c7a9 1b3d 795e 2b3e aa1a 9f3c 90b8 bbbd
000002e0: 7a01 2e3e 57c4 2f3e 037e cc3d 994e 90bc
000002f0: 0121 52bd a86c 083b cabb 92bc 5349 86bd
00000300: 7f40 683e 8580 ab3e 1640 a9ba 1349 0ebd
00000310: 4907 dbb5 2d72 60b7 edfa 283d b777 0f3e
00000320: 1adc b7be 74dc c7bd 3924 a73e 3a54 473e
00000330: 044a d7b4 4424 56be 4a93 5abe 7fb2 b4be
00000340: a4ae 9fbd 2e97 aa3d 0c78 673e 9bac 6a3e
00000350: dab4 b1be 1d5f 55be bc2f 49bc 4cce f73e
00000360: e548 113c ac22 48bd 1776 f23d 5c15 d3bd
00000370: 3e46 6cbe bcda 8a3e f70e 0dbe 20f1 d4bc
00000380: 54c7 cdbe ad4a 773e b1d5 913e be15 3b3e
00000390: 66ac 82be 5dca cbbe cf94 9fbe 242a bf3e
000003a0: f072 193e 52fd a63e 44f9 2e3e f98a 023e
000003b0: a7e7 3316 718e 92be 91d6 aabe 29b7 bebe
000003c0: 6047 ee3d 53c6 1ebe 7740 d7bc a983 48be
000003d0: cb7c a1bc 2d4f 84be 305a 6fbe 2459 2b3e
000003e0: 8f90 85bd 4f56 5d3e 9ff8 9abd 8cc7 8bbe
000003f0: 442c 92bc dfb9 1bbe 7170 8dbd 99ee c2be
0.28823385 0.3204658 -0.03880049 0.4601887 -0.032866184 0.026475783 -0.15307707 0.2938407
0.34591666 -0.2730261 0.33980867 0.0924598 0.27558082 0.0067655784 0.15085267 -0.008047477
0.29135832 0.009654131 -0.14351706 0.12838888 -0.14062089 -0.0034466237 -0.114843294 0.33204037
-0.30044383 -0.14075188 -0.058780756 -0.20832841 0.0009366348 -0.39838964 0.3565521 -0.33006427
0.29190695 0.014753043 -0.0774188 0.30800235 0.011746506 0.30960044 0.0023569916 -0.0732441
0.0529398 -0.05398535 0.12175741 0.44637397 0.19706537 -0.12945874 0.19666965 0.088444315
0.16314322 -0.21233374 -0.3994937 -0.10561078 -0.28946802 0.31579572 0.06121772 0.2058116
0.07363951 1.8078838e-23 0.29711533 -0.26169437 1.8936082e-05 -0.24798848 0.07012757 -0.08630276
0.06927171 -0.028856838 0.32016182 -0.20416214 -0.20596433 -0.20596865 0.35474265 0.16556287
0.38580158 -0.31813282 -0.40046808 -0.2969949 -0.24314737 0.11432322 0.09256307 0.41501936
-0.16727257 -0.24758287 0.17408815 -0.113931574 0.21107762 -0.04001033 0.19413747 -0.29433963
-0.1616136 0.06859212 0.029993454 -0.04719579 0.20579872 0.24665163 -0.26888615 -0.17567477
0.3627567 -0.08314973 -0.09092475 -0.38844633 -0.19444 0.04507279 -0.006050755 -0.26923597
9.491118e-21 -0.24825343 -0.32953528 -0.18378522 -0.34277532 -0.22562464 0.40429446 0.09471215
0.070042476 -0.37117332 -0.2353868 -0.08108158 0.011888439 -0.34509662 -0.1264669 -0.20706223
-1.0254414e-27 -0.09900731 -6.051836e-05 -0.24558517 -0.24987568 -0.19964585 -0.085355535 -0.30039975
0.324642 -0.025245393 0.3354644 0.15486945 -0.32874575 0.25263792 -0.05568201 -0.10420181
-0.32049632 -0.40159947 0.060392883 -0.032644577 0.106988214 -0.31585905 0.27735898 -0.2732455
-0.01665452 0.029056456 0.16718937 0.40902692 0.36043185 -0.30219248 0.045838032 -0.1261143
-0.0023894708 -0.28033695 0.36038226 -0.2731949 0.17595604 0.08951856 0.07752704 -0.17894566
0.3594397 0.03314315 0.0053909854 -0.34575543 0.12124743 -0.010183187 -0.13937685 0.4286665
0.03437145 -0.18504907 -0.16232862 -1.6975007e-07 0.18750903 -0.047433726 -0.19342437 -0.08542181
-0.27964148 0.09189321 0.2928992 -0.3755044 0.03800371 0.16735257 0.019421894 -0.09166062
0.16992751 0.17164741 0.09984972 -0.017615603 -0.051301006 0.0020816717 -0.01791181 -0.06556954
0.22680853 0.3349649 -0.0012912776 -0.034737658 -1.6318892e-06 -1.3378024e-05 0.041254926 0.14010511
-0.35910112 -0.09758845 0.32644823 0.19465724 -4.0100724e-07 -0.20912272 -0.21345249 -0.35292432
-0.07796982 0.083296165 0.22604388 0.22917406 -0.3470829 -0.20837064 -0.012279447 0.4839958
0.008867477 -0.04886119 0.1183893 -0.10306808 -0.2307367 0.27120006 -0.1377524 -0.025993884
-0.40191138 0.2414958 0.28483346 0.18270013 -0.25522155 -0.39802828 -0.3116822 0.37336838
0.14985251 0.32615143 0.17087275 0.12748326 1.4532601e-25 -0.286243 -0.33366826 -0.37249115
0.116347075 -0.15505342 -0.026275856 -0.19581474 -0.019712826 -0.25841656 -0.23374248 0.16733223
-0.06521713 0.21614955 -0.07566952 -0.2730068 -0.017843373 -0.15207623 -0.06906212 -0.3807266

feature_extractor.0.bias f4 [64]
00000000: 3493 403e 7164 82be f383 243e b09c 0c3e
00000010: e1f9 863e 3134 94be 0f2b 883e badb 15be
00000020: 58c8 c93d 5cab bf3e cf1c 03bc be6b f9b6
00000030: 0c67 18bd cd56 a5be cc5a 193e cc40 cdbe
00000040: d70f 5f3e 5d77 8f3e c556 c13e 1779 21bd
00000050: 71f7 a1be 01c4 0f3d db11 3d3e fae8 cdbe
00000060: f931 13bd 5f6c 54be 3b2a 0cba b765 1fbe
00000070: 4cb5 edbd 31e8 97bd e380 c2be 30ae a13e
00000080: 2c2f a63e 2804 45bc d573 41bb 2516 edbd
00000090: ef8a b6be 884a c8be bc58 ca3d 4f65 3bbe
000000a0: 0416 6abe b19d 55b9 d532 a6bd 2275 9dbd
000000b0: 7f71 38a8 31dc f7bc e5ae b0bd 72d1 18be
000000c0: abfe 9fbe c438 a63e f97a e5bd 8d6f 523d
000000d0: 0c20 b3bd de7f 9a39 98f1 bd3e 56fd 0f3e
000000e0: d751 adbe de4f e23d d43c c23e bd2c 4f3d
000000f0: 94de 773e bf85 cb3e 64e9 34bc 6005 ea3c
0.18806154 -0.25467256 0.1606596 0.13731647 0.26362517 -0.2894607 0.2659535 -0.146346
0.09852666 0.37435424 -0.008002474 -7.433321e-06 -0.03720765 -0.32292786 0.14976043 -0.400885
0.21783386 0.28020754 0.37761512 -0.03942212 -0.31634095 0.035099033 0.18463843 -0.4021681
-0.03593633 -0.20744465 -0.0005346869 -0.15566145 -0.11606845 -0.07417334 -0.37988958 0.31578207
0.32457864 -0.012024917 -0.0029518504 -0.11576489 -0.35652873 -0.39119363 0.09880206 -0.18300365
-0.22859961 -0.00020372008 -0.08115164 -0.07688357 -1.0238662e-14 -0.030256363 -0.086271085 -0.14923647
-0.31248984 0.32465184 -0.11205096 0.051375914 -0.08746347 0.00029468437 0.37098384 0.14061484
-0.338515 0.1105039 0.37937033 0.050579775 0.24206 0.39750478 -0.011041973 0.028567016

temporal_module.conv.0.weight f4 [64, 64, 3]
00000000: 1891 49bd 8a7f 73bc df17 5a3d c385 1a3d
00000010: 5c1c 37bd 227e 68bd cb12 48bd 6d2c 8fbd
00000020: e36f 67bd 6684 64ad 942f 983a e2de c21e
00000030: 32b6 5cbd 78e2 6dbd 66cf 0e3d 4731 57bd
00000040: e77d ffbb 33a4 0a3d 2f52 26b8 2438 1718
00000050: 8e63 3517 58b9 8aab b5b2 e3b8 b7d3 b0bb
00000060: 1ff6 69bd de45 1ebd 6b74 8d3d 2bc7 87b8
00000070: e036 93ba e7f9 9b2c fd68 ac3c f1cd 223d
00000080: b566 5d3d 3a62 253d 086e 93bd e286 bd3b
00000090: e7c7 0b3a 4661 e316 a686 e0b9 35e6 8e3d
000000a0: d00f e3bc 00ac 2bbd 4b18 babb 26c4 1b95
000000b0: d9b3 c237 93a3 32a8 72bf 5422 729f 1bbb
000000c0: d544 d9bb 1437 8e94 65c0 c33b f9f2 283d
000000d0: 05bc 2cbd 6007 23bc 6a2b 04bb 38f2 85b8
000000e0: a2ac 4e21 85b8 243d 08d3 733d 7c6e 89bd
000000f0: 02fa 8e3a 5735 caba 26e8 fe35 df5a 8a3b
00000100: fa4e f313 7ed4 c13b 6106 8fbb ce41 32b6
00000110: 7a6b ce39 49cc c927 f5e6 4fa5 d07a 2ab7
00000120: d3cf ae3a 6eaa a038 a4cb af33 d097 96b9
00000130: 3a9a 60bb b8ee 6f17 9b89 3932 c7ab 21b8
00000140: 07e4 01b1 0d67 4c3d 9c19 d53b 2bea 2a3b
00000150: 9efe 31ad 35db bdbb 65af dfbb 1ec1 71b8
00000160: 9faf e9b8 ab1d 3133 c61c dfb1 e499 83b6
00000170: d93a ed3b 3199 0535 af1f d83a d03a 8bb8
00000180: d303 efbc 3755 e03c 7311 48bd 0402 75ba
00000190: 30ad 8d94 1754 a8b5 e9b1 11bb 42bf ec39
000001a0: cfed 553b 1cdd 0e1e 3d32 2e20 a8b7 d1bb
000001b0: 1f7c cebc 87c6 963c 31c5 093d 2cb5 309a
000001c0: 084a 9bb6 1fce 8b39 964d 4bbb 1693 403a
000001d0: 8317 66b6 c3f5 3b14 2a2b e7a1 785e ac99
000001e0: 7032 a0b2 40a9 f33a efdf 0895 1513 6b3d
000001f0: 8512 8d3d 9187 12bd 0e78 f8ba c55a 533b
00000200: 7275 3a3b a0ab 21bb 08f3 ba96 1438 08bc
00000210: b97b 6abb ef85 46a3 779b ae2f 1501 1fa6
00000220: 7305 4ab0 2e19 ce3b 2ff0 089c 2a07 e3b9
00000230: 20b6 0e96 50b5 342c 047d 1435 b76d cdba
00000240: 6e5b 0136 a9ec f5b8 21df 7cbb 7bdb 1fbd
00000250: bda4 8d3d 3418 7d3d f27c 833d 88d4 333d
00000260: e334 5c3d fc94 e919 87ca 79b9 bf9c c338
00000270: e111 15bd d87c 49bd e5e4 c5bc 61ab 933c
00000280: 5688 153d 16da eabc 4954 deb9 7043 541a
00000290: ab00 e1b9 802c 6eba e436 1639 c2d9 809e
000002a0: 34e9 8a3d f54b 903d 62b9 ac3c 11f0 d23c
000002b0: 869f 8d3c ba4b c73a cee0 98bb 3116 993a
000002c0: 4f85 d63c c52b d53b 83a6 f5ae 1bd2 4fb7
000002d0: b2c8 93ac d31e 88b8 c1b4 169f 49f9 5d3d
000002e0: ade9 663d 5d19 043d e4da 02bb 80be 46b9
000002f0: 7d17 1228 cd3a 9da1 7e92 af16 6ca1 c9bb
00000300: 1ba8 be3c f4c5 5fbd 45c0 3abd 6687 73bd
00000310: 5bb5 7d3d ad94 8bbd 3aa4 623d fad8 69bb
00000320: aac1 fabb ba5c 323a 3e71 e416 b4ef 353a
00000330: c88f 583d 76a2 7cbd c610 e83c bde5 6c3c
00000340: 3f30 853c 80b8 3e3c e810 7130 93d0 81b8
00000350: 763a 9899 9aca e93b 03b0 933a fab7 8a94
00000360: 4f41 89bd 65f6 813b 51f0 45bd c7a9 623b
00000370: 7731 0eba 95f6 da95 c84a 7bbc 9474 653c
00000380: 6558 8c3d 029a fa3b 3034 2d3d 09e4 673d
00000390: be52 5a3b 0d18 e1b4 5020 2428 becc 113d
000003a0: 7115 9cbc e39c 0d3d 3807 e727 514d 9dba
000003b0: 77df f136 8c97 bd1b a66e d237 6b55 0c3c
000003c0: 6e42 a43a 0195 e73b d696 1f15 8cb2 7bbd
000003d0: 5bb0 4cbd ebbd 33bd 2dbb a7bb bb39 cab8
000003e0: 9c24 ccbb 07a9 86bd 68a3 2dbd 3390 92bd
000003f0: 3bc8 1aba ff44 2d36 39d0 803b 1a93 4fb2
-0.049210638 -0.014861951 0.05324542 0.03772522 -0.04470478 -0.056760915 -0.048846047 -0.069908954
-0.056503188 -1.2989698e-11 0.0011610859 2.0632731e-20 -0.053884692 -0.058077306 0.03486576 -0.05253723
-0.007796991 0.033848 -3.9654024e-05 1.9544636e-24 5.860991e-25 -9.856933e-13 -0.0001085749 -0.005396332
-0.057119485 -0.03864085 0.069069706 -6.4743996e-05 -0.0011231564 4.4331097e-12 0.021046156 0.039747182
0.054053027 0.04037688 -0.07198721 0.0057839015 0.0005332217 3.6735216e-25 -0.0004282493 0.06977502
-0.0277175 -0.04191208 -0.0056791655 -3.1456735e-26 2.321035e-05 -9.9164544e-15 2.8832708e-18 -0.002374616
-0.00663052 -1.436006e-26 0.005973863 0.04124734 -0.042171497 -0.009950489 -0.0020167478 -6.387051e-05
7.002399e-19 0.040215034 0.059527427 -0.06710526 0.0010908248 -0.0015427273 1.8992039e-06 0.0042222585
6.14197e-27 0.0059152236 -0.004364774 -2.656237e-06 0.00039371458 5.6010193e-15 -1.8032639e-16 -1.0161384e-05
0.0013337083 7.6611395e-05 8.1861145e-08 -0.0002872334 -0.0034271614 7.752637e-25 1.0799705e-08 -3.854537e-05
-1.890159e-09 0.049902964 0.006503297 0.0026079516 -1.01178215e-11 -0.005793954 -0.0068263286 -5.7638732e-05
-0.00011143018 4.1238007e-08 -6.4934254e-09 -3.9220195e-06 0.007239681 4.9769284e-07 0.0016488935 -6.638991e-05
-0.029176628 0.027384384 -0.048844766 -0.00093463087 -1.4305672e-26 -1.2541449e-06 -0.0022231287 0.00045155926
0.0032642966 7.563142e-21 1.4754996e-19 -0.0064000674 -0.02520567 0.018405212 0.033635322 -3.6542296e-23
-4.6279783e-06 0.00026665718 -0.0031021587 0.0007346136 -3.4286356e-06 9.489555e-27 -1.5664594e-18 -1.7822539e-23
-1.8649388e-08 0.0018589869 -2.7641634e-26 0.057391245 0.06888298 -0.035773817 -0.0018956678 0.0032250148
0.002845135 -0.0024668947 -3.0203295e-25 -0.008314151 -0.003577931 -1.0761963e-17 3.176088e-10 -5.5165673e-16
-7.3494916e-10 0.0062896227 -4.5309055e-22 -0.00043302152 -1.1528137e-25 2.5680187e-12 5.531622e-07 -0.0015672956
1.9275717e-06 -0.00011726592 -0.0038585144 -0.039027672 0.06916187 0.06179066 0.06420316 0.043903857
0.053761374 2.415181e-23 -0.00023821938 9.327521e-05 -0.036394004 -0.049191326 -0.024156997 0.018026056
0.036506973 -0.028668445 -0.00042405937 4.3895048e-23 -0.00042915842 -0.00090856105 0.00014325563 -1.364259e-20
0.06782761 0.07045738 0.021084491 0.025749238 0.01728798 0.0015205063 -0.0046654707 0.0011679587
0.026186613 0.006505462 -1.11708885e-10 -1.23870805e-05 -4.200273e-12 -6.490727e-05 -3.1913252e-20 0.054192815
0.056375194 0.03225075 -0.0019966895 -0.00018953718 8.109721e-15 -1.0654298e-18 2.8365224e-25 -0.006153276
0.023273518 -0.054632142 -0.04559352 -0.059455298 0.061940532 -0.06815467 0.0553324 -0.0035682307
-0.007652481 0.00068039785 3.6906853e-25 0.00069403206 0.052871495 -0.061678372 0.02832831 0.014459071
0.016258357 0.011640668 8.7699314e-10 -6.190049e-05 -1.5740044e-23 0.0071347477 0.0011267666 -1.4007005e-26
-0.0670191 0.00396614 -0.048324887 0.0034586058 -0.0005424241 -8.8438537e-26 -0.015337653 0.014004845
0.068527974 0.0076477537 0.042286098 0.056613956 0.0033313478 -4.1927015e-07 9.1108355e-15 0.035595648
-0.019053193 0.034573447 6.4123206e-15 -0.0012001191 7.2083744e-06 3.1365362e-22 2.5085475e-05 0.008565287
0.0012532005 0.007067323 3.2228783e-26 -0.061449572 -0.049972873 -0.04388229 -0.0051187486 -9.642864e-05
-0.00622995 -0.06575208 -0.042392164 -0.0715641 -0.00059044705 2.581917e-06 0.003931072 -1.2082433e-08

temporal_module.conv.0.bias f4 [64]
00000000: 3873 293b 47ae df39 8045 782d 600d 0ebc
00000010: aa52 7fb6 e165 97ad 9233 cdbb bc39 3f3b
00000020: a880 6031 20f5 1b3b e7c6 b3bb 5852 01b9
00000030: cde5 03ad 00b2 99ae 8296 c9b9 e8e1 fb3a
00000040: 3267 1237 cdc4 ab2a 8dc7 ec3b 373e 02bc
00000050: 4a6d c0bb b6c5 8c2d 16ac bf3b 3c96 9e39
00000060: 0613 7ab9 0aad e03a 5c8b 1139 800b 16ad
00000070: 0808 423a 8c8a 862c ed1a c5ad 11c8 b7b0
00000080: 4193 34b9 d3e5 3cba ffbe c42d 3013 a6ba
00000090: 3f91 5737 edbf 2e31 961a 02bc 8179 02bb
000000a0: 955f db3a 76d9 1eb9 31ae c62d 571f 54ba
000000b0: fffa 4c2c 3d65 aa38 5b92 832e d7d3 a138
000000c0: a6cb 082b 7249 4dbb ca1d 532e bcc6 eb39
000000d0: 803d ed2c a71d 952c b74a 18ad d03f 6d3b
000000e0: 1122 d838 6ee1 ffad 55ba 5bb9 426e 633b
000000f0: 6e5e 13b9 1fcd 8eba ac38 3d33 508e 4fba
0.002585603 0.0004266372 1.41126e-11 -0.008670181 -3.8046078e-06 -1.7211956e-11 -0.006262251 0.00291787
3.2669423e-09 0.002379723 -0.0054863575 -0.00012333074 -7.497514e-12 -6.9892536e-11 -0.00038449845 0.0019217106
8.726305e-06 3.051226e-13 0.0072259367 -0.0079494035 -0.0058724033 1.6003959e-11 0.0058493717 0.00030248042
-0.00023848945 0.0017141413 0.00013880193 -8.529066e-12 0.00074017094 3.823891e-12 -2.2408264e-11 -1.3371865e-09
-0.00017220994 -0.00072058773 2.236744e-11 -0.0012670513 1.2848816e-05 2.542943e-09 -0.007940909 -0.0019908848
0.001673686 -0.00015149065 2.258735e-11 -0.0008091828 2.9129474e-12 8.125089e-05 5.983188e-11 7.7165365e-05
4.8599525e-13 -0.0031324294 4.8002304e-11 0.00044970762 6.742773e-12 4.2381268e-12 -8.65679e-12 0.0036201365
0.00010306028 -2.9090255e-11 -0.00020954882 0.003470317 -0.0001405419 -0.0010894871 4.4056534e-08 -0.00079176296

temporal_module.conv.1.weight f4 [64]
00000000: a7fe 7f3f 0b1b 803f ec2d 803f 452c 803f
00000010: a64e 803f 61be 7f3f b0b5 7f3f 4921 803f
00000020: ba64 803f fc18 803f 4f4b 803f f99c 7f3f
00000030: a2d7 7f3f bf9e 7f3f 5a1e 7f3f ad7c 7f3f
00000040: 8728 803f 567d 7f3f 6008 803f 57f0 7f3f
00000050: 5a2a 803f 9549 803f 79ff 7f3f 3cd9 7f3f
00000060: 2502 803f 1622 803f 84c9 7f3f be01 803f
00000070: 80a5 7f3f 9342 803f d7a9 7f3f 1701 803f
00000080: 2b05 803f 890c 803f 73e0 7f3f 0b28 803f
00000090: ade0 7f3f b335 803f a235 803f 4552 803f
000000a0: 9ecc 7f3f 72c7 7f3f 4f09 803f 3f74 7f3f
000000b0: b708 803f f22d 803f c22a 803f cd0f 803f
000000c0: 2d09 803f a64b 803f 736c 7f3f 4a6e 7f3f
000000d0: 2540 803f 15af 7f3f 6526 803f 2c06 803f
000000e0: b8d6 7f3f ec47 803f 4312 803f 0fb2 7f3f
000000f0: a610 803f 8257 7f3f 2429 803f 790d 803f
0.99997944 1.0008253 1.0014014 1.001351 1.0024002 0.9989987 0.9988661 1.0010158
1.0030739 1.0007625 1.0022982 0.99848896 0.99938405 0.998516 0.9965569 0.99799615
1.0012368 0.9980062 1.0002556 0.99976104 1.0012925 1.0022455 0.99999195 0.9994085
1.0000654 1.0010402 0.99916863 1.0000532 0.9986191 1.0020317 0.9986853 1.0000333
1.0001577 1.0003825 0.9995186 1.001222 0.99952203 1.0016388 1.0016367 1.0025107
0.99921596 0.99913704 1.0002841 0.9978675 1.000266 1.0014021 1.0013049 1.0004822
1.00028 1.0023086 0.99774855 0.9977766 1.0019575 0.9987653 1.0011717 1.0001884
0.9993701 1.0021949 1.0005573 0.9988107 1.0005081 0.997429 1.0012555 1.0004112

temporal_module.conv.1.bias f4 [64]
00000000: c840 9c3a 4bfb 053a 5991 cc3a 683e 003b
00000010: e6b4 1c3b a3de 01ba 56e3 10bb 032f b13a
00000020: 3e98 fc3b fb66 c339 bca4 803c 1fe0 06bb
00000030: 84c0 cbb9 4a97 ceba d6f7 17bb 2be7 feba
00000040: 05c3 883a c4ff 16bb b384 db3a 7a9c c5ba
00000050: abaf a639 4ccb 383b 4df9 f939 c394 24b9
00000060: 1437 a039 4acf d33a fb99 81b9 c52b df3a
00000070: 1c93 ebba 1521 053b 26e1 a4ba 4c55 f9b9
00000080: 7bc5 f939 bc93 0dbb 8dcb 93ba ec2f bf3a
00000090: dc99 7d39 d27e 813b 54d3 143b 63cb 143b
000000a0: 3bdf 0bb9 ebc3 1c3b 8c11 043b af09 2ebb
000000b0: 295c fcb9 4ce0 153b e3a1 ea3a 154f 993a
000000c0: 7489 aeb8 52c8 283b afe4 21bb 1a26 48ba
000000d0: dd0a 013b 161b c4ba 49c3 763b 70fc 26ba
000000e0: 8cb9 13ba cb4e 153b d57b 97b9 2160 1abb
000000f0: d251 d23a 23ad 39bb a096 853b f2c9 d63a
0.0011921162 0.0005110993 0.0015607282 0.0019568447 0.0023911535 -0.0004954135 -0.002210816 0.0013518039
0.0077085784 0.00037270025 0.015703551 -0.0020580364 -0.00038862613 -0.001576164 -0.0023188493 -0.0019447556
0.0010434097 -0.0023040632 0.0016747921 -0.0015076541 0.0003179287 0.0028197346 0.00047678725 -0.00015695677
0.00030558615 0.0016159799 -0.00024719522 0.0017026594 -0.0017972919 0.0020313908 -0.0012579306 -0.00047556532
0.00047640115 -0.002160295 -0.0011275873 0.0014586425 0.00024185277 0.0039518857 0.002270897 0.0022704236
-0.00013339233 0.0023920487 0.002015206 -0.0026556065 -0.0004813385 0.0022869287 0.0017901029 0.0011696542
-8.322569e-05 0.0025754166 -0.0024702956 -0.0007635072 0.0019690313 -0.0014961686 0.003765302 -0.00063700136
-0.00056352536 0.002278256 -0.00028893226 -0.0023555832 0.0016046113 -0.0028331957 0.004076794 0.0016387089

temporal_module.conv.1.running_mean f4 [64]
00000000: bdf5 744b 7ded 10cb d0c9 0ec9 c1b6 fdc9
00000010: 48a3 eaca 10f0 42ca a29c 4548 d8df 9dcb
00000020: b074 88cb e614 484b 04c3 8dcb b88c b44b
00000030: 07f0 cb49 75ee a3ca eb30 8eca f509 afca
00000040: 5cd8 7ecb 2f8c dacb 0ea6 1e4b 4dd8 6d49
00000050: b103 ad4b b50f bbcb 694e 1e4b e1db ff4a
00000060: 5c8e b94a 0d79 29cb b8ee 9d4a 14fe be4a
00000070: 4602 384b f49d dcca 223c 1ccb 1d73 0e4b
00000080: 5f76 e54b 335c 714b eb7d 734a ef8f c2ca
00000090: 5b66 6a4a 12be 4b4b bbd6 9eca 9990 1bcb
000000a0: 8141 4449 b697 9fca 30db 654a 838c 50ca
000000b0: 64aa 6049 8dd1 16cb 8c05 154b da94 224b
000000c0: f2b9 614b 50e5 65cb 302d 9ecb 74dc 80ca
000000d0: 9bbe 05cb 55c0 d84a 0432 d34a ed98 094b
000000e0: 2657 31cb 1749 aeca 2cb3 104b ec1a afca
000000f0: ad8f fcc8 bf3c 4acb 10fc a54a eaee 15ca
1.6053693e+07 -9.497981e+06 -584861.0 -2.0784241e+06 -7.688612e+06 -3.19386e+06 202354.53 -2.0692912e+07
-1.7885536e+07 1.311255e+07 -1.8581e+07 2.3665008e+07 1.6706569e+06 -5.3717065e+06 -4.6593175e+06 -5.7356745e+06
-1.6701532e+07 -2.864547e+07 1.0397198e+07 974212.8 2.2677346e+07 -2.4518506e+07 1.0374761e+07 8.3839845e+06
6.080302e+06 -1.1106573e+07 5.175132e+06 6.258442e+06 1.2059206e+07 -7.229178e+06 -1.023901e+07 9.335581e+06
3.0076094e+07 1.5817779e+07 3.9893708e+06 -6.3754155e+06 3.8404068e+06 1.3352466e+07 -5.2048295e+06 -1.0195097e+07
803864.06 -5.229531e+06 3.765964e+06 -3.4168648e+06 920230.25 -9.884045e+06 9.766284e+06 1.0654938e+07
1.4793202e+07 -1.5066448e+07 -2.0732512e+07 -4.222522e+06 -8.765083e+06 7.1025065e+06 6.92045e+06 9.017581e+06
-1.1622182e+07 -5.7109875e+06 9.483052e+06 -5.737846e+06 -517245.4 -1.3253823e+07 5.438984e+06 -2.4565065e+06

temporal_module.conv.1.running_var f4 [64]
00000000: 9476 6759 34be b858 5875 0658 866e 9257
00000010: 95cc 8b58 05af ca57 2f5a 5a57 fae1 b759
00000020: 1909 8d59 edf5 4959 551a 9859 8974 f359
00000030: 15c4 b957 932f 5c58 3f76 2458 aabd 4158
00000040: 23cc 7759 23b6 315a 982e f358 0a68 d857
00000050: 6618 0b5a 3b34 005a 50a4 de58 46d0 8a58
00000060: b4d0 8058 c101 1559 d351 af58 8e30 8a58
00000070: d377 0959 a052 6c58 18bd eb58 1a80 ba58
00000080: 7882 465a c027 7459 6a3d 2858 e246 3e58
00000090: 487a f557 70c7 2859 fc00 6858 0d8e f958
000000a0: 9f86 f557 0cc6 5f58 70d2 ba57 2f4e d357
000000b0: 3ffd c457 eb4d fb58 81e6 c358 0e31 d558
000000c0: 0333 4359 16d4 5559 7ec5 bd59 6b82 1558
000000d0: 4f96 be58 3370 5e58 204b 7758 de28 d158
000000e0: c4cc 0a59 a566 2e58 c644 d658 8739 4358
000000f0: 7b4e 9357 1c91 3759 1fa3 1f58 c8e6 a257
4.0719436e+15 1.6250164e+15 5.913542e+14 3.220068e+14 1.2296863e+15 4.457061e+14 2.4008087e+14 6.469798e+15
4.962247e+15 3.5529293e+15 5.3516436e+15 8.565819e+15 4.0850363e+14 9.6838755e+14 7.233111e+14 8.520814e+14
4.359298e+15 1.2505333e+16 2.1390516e+15 4.758827e+14 9.787962e+15 9.021556e+15 1.9583784e+15 1.221017e+15
1.1330709e+15 2.6213562e+15 1.5421277e+15 1.2155292e+15 2.4183637e+15 1.03935846e+15 2.0735791e+15 1.6404748e+15
1.3968874e+16 4.295225e+15 7.399269e+14 8.368466e+14 5.398111e+14 2.9691925e+15 1.0203637e+15 2.195108e+15
5.399171e+14 9.841668e+14 4.1082597e+14 4.646655e+14 4.3318393e+14 2.2104966e+15 1.7231582e+15 1.8752533e+15
3.4339818e+15 3.76171e+15 6.6769894e+15 6.575495e+14 1.6764222e+15 9.782939e+14 1.0876081e+15 1.8397876e+15
2.441793e+15 7.670235e+14 1.884727e+15 8.586074e+14 3.2393056e+14 3.229342e+15 7.020918e+14 3.5822416e+14

spatial_attention.attention.0.weight f4 [64, 128]
00000000: 3f1f 9bbd 3faf 92bd 6da7 b53c 7b77 54bd
00000010: a1d5 a03d 479a 80bb 3655 12bd bd10 5ebd
00000020: 1092 e1bc 0f5f a03d b856 6abd 747f a6bd
00000030: 98ee e33c 3e6f f33c 37cf 9cbd edc7 1fbd
00000040: 8f86 993d 501c 2cbd 0c84 193d 951a 29bd
00000050: 02af 9dbd 3a33 afbd 40fa 8a3d b85f e93c
00000060: 8371 d13c 7787 fa3c 9d88 0d3d 5b1c 713d
00000070: 2d70 8c3d d04c 8a3d e2b9 ea3c 0e12 833c
00000080: 9905 a43c 3d0a 91bd 3db6 223d 0885 aa3c
00000090: 9faf 223d 0892 a9bc 84f9 993d 3aa0 343c
000000a0: 1168 a3bc 6d92 cbba 8e50 19bd 1430 5ebc
000000b0: 4b3e 993d 2fe2 f53c 23b8 06bc 643a 8d3b
000000c0: 2d36 a93c c87c 50bd 5a2f 49bd a0ab 9a3d
000000d0: 64ee 8cba d905 db3c deef 20bd b5c1 83bd
000000e0: 9e0a 843c d23c 423d 7b5f a8bd a5fd b3bd
000000f0: 0e49 eabc d9d5 6a3d e6a8 9ebd cf96 913d
00000100: 4d8b a43d 3123 a6bc 5d27 b53b 6d1e 91bb
00000110: b57b af3d 2a2f 1a3c 57f4 b93c 6e94 fdbc
00000120: 0c57 1cba 03b4 3bbd f195 843b 86a5 45bc
00000130: 8593 983c 3e66 963c d36e 94bd f920 703d
00000140: caf7 403d 6309 7b3d f9fa 853d f91c ca3c
00000150: 20dd 493d c584 2e3d 6cd3 5b3d aa30 55bd
00000160: a49b 2a3d d239 dabb 9a84 0d3d 3f6a 063d
00000170: e922 84bd 4799 28bd edb0 7dbd 78fb c8bc
00000180: 4435 ee3c c73c b53c 9829 913d 349f 80bd
00000190: 1b0e e83c ad06 933d 3585 89bd 4dcc 84bd
000001a0: 7c91 b53c 13bd 0dbd 5af5 b73c af3d 33bd
000001b0: fc9b 483c 9186 97bd a73a 923d 28a6 64bd
000001c0: 1a46 a5bd 6faa 3bbd ac7e 493b 6407 a83d
000001d0: c4ac 593c 4c8c 93bc bf1a 7cbd 3b0b 2a3d
000001e0: 01a7 bf3b c28b d1bc 276b c1bc ba98 4d3c
000001f0: f256 563d 9262 5bbd f3f9 aabc ad5b 2e3d
00000200: 4ab9 77bd 0eb4 39bb ab59 933d 34e5 823d
00000210: 6040 92bd b321 2abd 936f 743c 7833 623d
00000220: 9afa 13bd 0bc5 a5bd 9f4c 7ebb a297 653d
00000230: a35e 3abd d33c a9bd b8d5 983b f898 953d
00000240: 78fc 93bd c3a6 963c 5665 643d 5aa9 463b
00000250: 2ec4 40bd 1e5f 05bd 0006 6ebd 8f25 c33b
00000260: 56bc 25bd adcd 603b 95bf 9bbc 9606 7dbd
00000270: 742a b03d 7151 a73c a0d4 303d 42d6 573d
00000280: 6230 143d d41a b5bc f7fc dcbc 2687 4cbd
00000290: 6cc3 9cbd b223 8abd 9915 0abd 2798 a93d
000002a0: 59ba abbd 3b9f 63bd 9b60 8cbd 1110 89bd
000002b0: 0323 943d 9120 90bd b236 7dbd f69f 52bd
000002c0: 2a67 c43c 2ec1 e6bc 61cc 73bd 5590 923d
000002d0: c430 143c 8527 84bd 05b4 09bd 3e73 5e3d
000002e0: 0acc fe3c 1b4f 69bd 1d34 37bd 6bd5 11bd
000002f0: d104 0d3d b847 92bd caae aa3d 03ae e63b
00000300: fec1 103d fd4a de3c 137d 8d3d 1be0 f3bc
00000310: 8eb9 06bd 0ada 72bd 0710 963d 9599 f5bb
00000320: 532d efba b1e8 a03d 5847 b7bc beaa f3bc
00000330: aedf 0bbd 9e0c 533d 4ac7 2b3c b64f 45bd
00000340: 3fc2 6c3d 2b10 0c3d 2b15 a4bc 971e b23c
00000350: 43d2 a2bd 8088 81bd 1e27 03bd a93f 333d
00000360: 90ac 9ebc 1fd9 883d 2487 a8bd a9a4 843d
00000370: 67d1 acbd 1b22 02bd 2202 a63d 4ce1 fbbc
00000380: 4b23 1cbd 29cf 493d a56b 40bd d55e 9d3c
00000390: efbe 01bd 1ca2 0b3d dc79 5abd 9829 41bd
000003a0: 85ce 6cbd 285e 6bbc 2028 b33d 0ee3 4b3d
000003b0: 0628 99bd 1e6a 3b3d eec2 a63d fd3b b43d
000003c0: 2874 153c 10a2 be3c 0d36 833d d5fa a93d
000003d0: a8d1 1dbc dfdd 7bbc 31ee 953d e1c2 bcbc
000003e0: 20ea 8e3d a2a3 993d f0c4 cd3c a3c5 92bd
000003f0: 1df1 8d3d bff5 2b3d b94a ab3c 5c8f 9f3c
-0.07574319 -0.07162332 0.022174561 -0.051871758 0.078532465 -0.0039246413 -0.035725795 -0.05421518
-0.027535468 0.07830631 -0.057211608 -0.081297785 0.027823731 0.02971613 -0.076567106 -0.039009023
0.07496368 -0.04201919 0.037479445 -0.041285116 -0.07699396 -0.085546926 0.06786013 0.028488025
0.025566822 0.030582173 0.034554113 0.058864933 0.06857333 0.06752932 0.028653089 0.01599982
0.0200222 -0.07082031 0.039724577 0.020815387 0.039718267 -0.020699516 0.075182945 0.011024529
-0.019947084 -0.0015531309 -0.03743034 -0.013561267 0.074825846 0.03001508 -0.008222613 0.004309939
0.020655716 -0.05090025 -0.049117424 0.07552266 -0.0010752198 0.026736187 -0.039291255 -0.06433431
0.016118344 0.047421284 -0.082213365 -0.08788613 -0.028599288 0.057332847 -0.077470586 0.071088426
0.08034382 -0.020280452 0.005528374 -0.004428676 0.08568517 0.009410659 0.022699518 -0.030954566
-0.0005963899 -0.04582597 0.0040461947 -0.01206339 0.01862503 0.0183593 -0.072477005 0.058625195
0.04711131 0.06128825 0.0654201 0.024672018 0.049283147 0.042607088 0.053668424 -0.052048363
0.041652337 -0.0066597247 0.034550287 0.032816168 -0.06451971 -0.0411618 -0.061936308 -0.024533972
0.029078133 0.022123707 0.070880115 -0.062803656 0.028327039 0.07179008 -0.0671486 -0.0648428
0.022164099 -0.034604143 0.02245586 -0.043759998 0.012244221 -0.073987134 0.07140093 -0.05582252
-0.080700114 -0.045816835 0.0030745668 0.08204535 0.013285819 -0.018011235 -0.061548945 0.041514616
0.005848766 -0.025579337 -0.023610665 0.01254862 0.05232901 -0.0535608 -0.020871138 0.042567898
-0.06047944 -0.002833608 0.07194837 0.06391373 -0.07141185 -0.041536044 0.0149191795 0.055224866
-0.036127664 -0.080942236 -0.0038802994 0.05605281 -0.04550041 -0.082635544 0.004664149 0.07304567
-0.07225889 0.018390065 0.055760704 0.0030313344 -0.04706209 -0.032561414 -0.05811119 0.005955405
-0.040462814 0.003430228 -0.019012252 -0.06177386 0.08601847 0.020424576 0.043171525 0.052694567
0.036178954 -0.02210752 -0.026976092 -0.049933575 -0.07654461 -0.067450896 -0.033712003 0.08280974
-0.08385152 -0.055571776 -0.068543635 -0.066925175 0.072332405 -0.070374615 -0.06181974 -0.051422082
0.023974974 -0.028168287 -0.059521083 0.071564354 0.00904483 -0.0645285 -0.033618946 0.054309122
0.031103153 -0.056960206 -0.044727433 -0.03560392 0.03442842 -0.071425855 0.083341196 0.007039787
0.035341255 0.027135367 0.06908622 -0.029769948 -0.032891802 -0.05928997 0.07327276 -0.007495115
-0.0018247761 0.07856882 -0.022372887 -0.029744502 -0.034148864 0.051525705 0.010484526 -0.04817172
0.057802435 0.034195106 -0.020029625 0.021743102 -0.079502605 -0.063248634 -0.032019727 0.043761883
-0.019369394 0.066820376 -0.08228901 0.06476719 -0.08438378 -0.031770807 0.081058756 -0.030747078
-0.038119595 0.04926983 -0.046977658 0.019210258 -0.03167623 0.034090146 -0.05333887 -0.047158808
-0.05781414 -0.01436571 0.087478876 0.049777083 -0.07478337 0.045755498 0.08142649 0.08800504
0.009121932 0.023270637 0.06406794 0.082997955 -0.0096325055 -0.015372722 0.07320822 -0.023042144
0.069782495 0.075019136 0.025118321 -0.071666025 0.06930754 0.04198241 0.020909654 0.019477539

spatial_attention.attention.0.bias f4 [64]
00000000: 16b0 12bd cb15 9d3c a790 623d 4584 3dbc
00000010: d196 62bc 3d82 a43d b483 ac3d 0785 453d
00000020: cba3 1f3b 47f2 0aba 6131 61bd 9886 7a3d
00000030: a1bf 1c3d fb26 8f3d 9809 72bd 860c b33c
00000040: a434 973c 40dd ccbc e231 0dbc d52b 803c
00000050: 924c c3bc 8d04 ab3d fbe3 a1bd dca7 52bc
00000060: ea19 28bd 658c 8a3d 1e9c 01bd 9d43 a3bc
00000070: aa4f 9d3d c458 a5bd d5e2 eabc 1567 993d
00000080: e67a 7b3d ddd3 a4bc ac0e 89bc 0aba 2cbd
00000090: b57e 923c 639c d03c 895c 713d 5a6b 203d
000000a0: 432e 353d d96e 71bc 7177 83bd 2f40 493d
000000b0: 3eaa 6bba fafc 6cbd ed20 ec3b ed8b b23d
000000c0: e14a d1bb cfe2 95bd 209f 5a3d fc5f 853d
000000d0: 2cf3 62bd d847 a0bd 0eb5 80bd 0ae7 173d
000000e0: 52bf 12bd 872f b2bd c1c8 b9bb 3f65 34bd
000000f0: 7fd5 dabc 535c 0ebd 00ab f2bc 4ff2 71bd
-0.03581246 0.01917543 0.055313732 -0.01156718 -0.013829903 0.080326535 0.08423558 0.048222568
0.0024359103 -0.00053003844 -0.054978732 0.061163515 0.03826869 0.06989857 -0.05909118 0.021856558
0.018457718 -0.025007844 -0.00861785 0.0156459 -0.023840223 0.08350477 -0.07904812 -0.012857404
-0.04104034 0.067650594 -0.031643026 -0.019929701 0.0768121 -0.08073571 -0.028672615 0.074903645
0.061396502 -0.020120556 -0.016730629 -0.04216961 0.017882684 0.025465196 0.05892614 0.03916488
0.04423357 -0.014735901 -0.06419266 0.049133476 -0.00089899066 -0.057858445 0.0072060735 0.08718095
-0.0063871 -0.07318651 0.05337441 0.06512448 -0.055407688 -0.07826203 -0.062845334 0.03708557
-0.03582699 -0.08700471 -0.0056696837 -0.04404187 -0.026713131 -0.034756016 -0.029622555 -0.059068974

spatial_attention.attention.2.weight f4 [1, 64]
00000000: 5160 d3bc 172e a1bd b9f9 89bc 1184 a3bd
00000010: 4f49 fd3b be28 b43d d449 4ebd 1263 91bc
00000020: a16b bfbc 0abc 2bbd 11c7 adbd 91a3 ff3c
00000030: f57c 18bc 1366 c13b 24a8 ffbc ddd5 a5bd
00000040: a246 3fbd 7fa1 823d 7ccc ae3d c043 1bbd
00000050: a463 833d 2b62 92bd 1c5b 02bc 3105 e5bd
00000060: f1ff 9bbc 346f 173d baa1 9d3d 8256 2d3d
00000070: ac72 703d ba90 debc d47f ff3d ff51 cbbd
00000080: 50fe edbc 97b7 9fbc 000b a93d 2f7d c43c
00000090: b430 fb3d a7f1 acbd e6e3 263d d924 ddbd
000000a0: 453c 1f3d 5387 67bd 9122 64bd 32a5 653c
000000b0: c2f4 873c 0b37 fc3d 469e cd3d 040d 3f3b
000000c0: 815f 313d f730 d43c 9482 c5bc 8436 b6bd
000000d0: 86f5 cdbd 7dd6 343c dbe2 49bd 26ae ed3d
000000e0: 32a0 61bd c759 083d 8c70 7abd f4a9 fb3d
000000f0: b7e1 573d dc8a 8a3d 367b 013d 09d9 8cbc
-0.025802763 -0.07870119 -0.01684271 -0.07984174 0.0077296863 0.087968335 -0.050363377 -0.017747436
-0.023366751 -0.041927375 -0.084852345 0.031205924 -0.009307136 0.005902061 -0.031208105 -0.08097432
-0.04669822 0.06378459 0.08535096 -0.03790641 0.06415489 -0.0714763 -0.0079562925 -0.11182631
-0.01904294 0.036971286 0.076968625 0.04231883 0.05870311 -0.02716862 0.12475553 -0.09927749
-0.02905193 -0.019496722 0.08254051 0.023985473 0.12265149 -0.08444529 0.040744685 -0.10798044
0.038875837 -0.05652554 -0.055697028 0.014016436 0.016596202 0.12315186 0.10039954 0.0029152045
0.04330397 0.025902255 -0.024110116 -0.08897117 -0.100565955 0.011037466 -0.04928861 0.11605482
-0.055084415 0.033288743 -0.06114249 0.12288275 0.052705493 0.067647666 0.031611644 -0.017193334

gcn.weight f4 [64, 64]
00000000: 26c8 d2bd 2617 8e3d 8341 3ebd 4fb2 bbbd
00000010: 5b41 eb3b 0d89 263e 5b51 48be 04cb b8bd
00000020: b845 283e b024 d5bd 5fe5 4c3d 16c3 a63d
00000030: eeba 923c 5348 8e3c 4254 14be fb13 0bbd
00000040: 45cc 2abd fca8 33bc 28ae c3bc 066d 4fbd
00000050: a7d6 03be 43f5 1d3e e7ad 803d 36e5 933d
00000060: eb09 dc3d 8780 923b 3807 103e 28e4 893d
00000070: 20fb 85bd 59bd 453b 4d3a 41be 92bd e5bd
00000080: c849 4e3e 4c79 5b3e 2a8a 1ebe e511 c1bd
00000090: ebf3 f33d da2e 46be dbb1 c4bc 3330 4bbe
000000a0: cccb d1bd 7c86 e8bd 2931 28bc 3dca 6bbd
000000b0: 756a f4bd 9cb4 e73d e542 c4bd 0f10 5abe
000000c0: d2e3 d73d b7a6 113e 56b7 3fbd e763 cf3b
000000d0: 81ca e23c 302b debc f828 34bd d682 34be
000000e0: 2e19 c23d c3cc 64ba 4c2b eb3d b01a 6a3c
000000f0: 8c06 b0bd f0e8 dabd e3be e63c 1bda e23d
00000100: 5688 5c3e e2ae 463e c6d6 353e 37ed 27be
00000110: 0bc5 203d a2fa 493e 0601 c93d b7b2 133e
00000120: e467 523e 3dd6 85bd 100c ed3d f65a 033e
00000130: c7a2 7c3b 834c 02be 43c0 743d 138d 383e
00000140: f6b6 dc3c a528 8b3d 7c5b f33c 7b8f 1c3e
00000150: 4b11 ec3d 62b4 46bd 2b59 103d bf85 cfbd
00000160: 3ee3 0a3d 862d 3fbe 5c00 983d 2155 063e
00000170: 3b07 3abe 8adc 713d 5d66 f3bc ebcd afbd
00000180: 6b4b c63d 56c0 203c fdb7 e9bd 0f12 183e
00000190: 09b4 663d ce4c 19be 574b 10bd c57c f0bd
000001a0: 6084 0bbe 508f 533e a9e8 babc 781d 51bc
000001b0: eef6 d3bc 594f 47bd b027 3cbe abf5 e9bc
000001c0: 5ce4 b8bd 0fb8 b83d 5a11 c6bb 7d45 59be
000001d0: 058c 03be 6b72 26be 6059 593c 36f2 083e
000001e0: f1e1 cb3d 2af3 573c 767c fd3d ee6c c0bc
000001f0: 6172 4c3e b5c1 38be e863 6cbd b265 f2bc
00000200: 7aa4 27be 5ce7 8b3d 53e9 173e 00a5 133d
00000210: e647 9a3c 0f17 403e 5121 9ebd ca25 0bbd
00000220: 37a8 a43d 7198 f2bd a38a 27be 669a 33bd
00000230: db98 103e 512c e4bd b0d1 7e3d 736a 813b
00000240: 517f 4b3e 56d3 e93d 3528 eabd f355 55be
00000250: 62eb 033e f9e2 4bbe e6f7 01be de42 573e
00000260: 0dc4 823d acfc 3fbb ea7c 28be 6adc 25bd
00000270: 9cf8 ed3c 215b 033e 033d adbd 3407 1cbd
00000280: 4476 303d bd05 5abe 331e 89bd 21a1 4abe
00000290: d36a 9fbd 111d 03be d858 d93d fc38 19be
000002a0: 1dc1 50be 1e85 cbbc 7beb d0bd 44f7 e7bd
000002b0: 6605 4fbd b33b a53d 2832 44be 46bb 20be
000002c0: 2a49 813c 799d c63d b767 0b3c ab2d 5c3e
000002d0: b675 dc3d 25cc 15be 41b7 fa3d 7e65 e5bd
000002e0: d565 233e d766 61bd 7a99 383e 4cfd 4fbd
000002f0: b6f2 80bd 5dff 21be 3265 5b3e 7222 fdbd
00000300: d86c c1bd 5f6a f3bd e62c 5bbe 19cb dabd
00000310: 7ec6 363e 2f80 0d3e 3fee 633d c73e 82bd
00000320: 3061 f43c cd2e 25bd f59c 35be 5490 163e
00000330: 4798 e83d 5470 3f3e 9b17 4fbe 5f31 0b3d
00000340: 802e fa3d 6766 f5bc bbb3 cd3d 061c dc3d
00000350: c88a dabd e503 233e 1e7a 603d 7af0 c1bc
00000360: cf66 a03d 9182 273e f7f3 243d 5b81 d63d
00000370: 0e71 16be 4699 cdbd 2ee4 18bd 2b6d fd3d
00000380: 83dd fb3d 9a41 71bd 0366 0bbd f26f f3bc
00000390: 8077 cdbd 7b67 3a3e eecf df3d f9c7 103e
000003a0: a2ff 95bd 1a04 55bd af9c 38be d6de 243e
000003b0: cac7 a7bd 1d3c 92bc a93d 13be b49d 363d
000003c0: 66a3 f23d 6562 5cbe a122 2a3e 78df 223d
000003d0: 39c1 d33d 81bc 41be c132 633d 1e26 593e
000003e0: 021a 123e dc12 c7bd 99f3 403c bda8 17be
000003f0: 24bf b13d fb56 d23d f40d c03d 0e2d 40be
-0.102920815 0.06938009 -0.046449196 -0.09164869 0.007179422 0.16263218 -0.19562285 -0.09023097
0.16432846 -0.10407388 0.050023433 0.081426784 0.0179114 0.017368471 -0.14485267 -0.0339546
-0.041698713 -0.010965582 -0.023886755 -0.050641082 -0.12874852 0.15425591 0.06283169 0.07221453
0.10744079 0.004470888 0.14065254 0.067329705 -0.06542039 0.0030172674 -0.18869896 -0.11217798
0.20145333 0.2143299 -0.15482393 -0.09427241 0.11911758 -0.1935381 -0.02401059 -0.19842605
-0.10243949 -0.11353776 -0.010265627 -0.057565916 -0.119343676 0.113137454 -0.095830716 -0.21295188
0.105415 0.14223753 -0.046805702 0.006329048 0.027684452 -0.027120203 -0.043984383 -0.17628035
0.09477459 -0.00087280216 0.114828676 0.014288589 -0.08594999 -0.106889606 0.028167194 0.110767566
0.21536383 0.1940265 0.17757711 -0.16399084 0.039250415 0.19724515 0.09814648 0.14423643
0.20547444 -0.06535003 0.11574566 0.12827668 0.0038549171 -0.127245 0.059753668 0.18022566
0.026942711 0.06794862 0.02970671 0.15289108 0.11526736 -0.04851187 0.035241287 -0.10132932
0.03390812 -0.1866971 0.074219435 0.13118412 -0.1816682 0.059048213 -0.029711897 -0.085841976
0.096823536 0.009811481 -0.11412046 0.14850639 0.05632404 -0.14970705 -0.0352281 -0.11742548
-0.13624716 0.20660138 -0.02281602 -0.012763374 -0.025874581 -0.048659656 -0.18374515 -0.028559526
-0.09027931 0.090194814 -0.006044549 -0.21217914 -0.12846382 -0.16254584 0.013265938 0.13373646
0.09955204 0.013180533 0.12377255 -0.023489442 0.19965507 -0.18042643 -0.057712466 -0.029589508
-0.16371337 0.06831238 0.148351 0.036046028 0.018833112 0.18758796 -0.07721198 -0.033971585
0.08039897 -0.11845482 -0.1636148 -0.043848418 0.1412081 -0.11141265 0.062211692 0.0039494573
0.19872786 0.11417262 -0.1143345 -0.20833568 0.1288276 -0.19910802 -0.12692222 0.21021602
0.0638505 -0.0029294891 -0.16453901 -0.040493406 0.02904921 0.12827732 -0.08458903 -0.038092807
0.043081537 -0.21291251 -0.06695213 -0.19788028 -0.07784047 -0.12804057 0.10612649 -0.14963144
-0.20386167 -0.024843749 -0.10201164 -0.11326459 -0.050542258 0.08068027 -0.19159758 -0.15696439
0.015781958 0.09698004 0.008508614 0.21501796 0.10764639 -0.14628656 0.12241984 -0.11200999
0.15956815 -0.055029716 0.18027297 -0.050778672 -0.062962934 -0.1582007 0.21425322 -0.123600855
-0.094445884 -0.11885523 -0.21403846 -0.10683269 0.17849156 0.1381843 0.05564713 -0.0635963
0.029831499 -0.040327836 -0.17735656 0.14703494 0.113571696 0.18695194 -0.20223849 0.03398263
0.122159004 -0.029956056 0.100440465 0.107475325 -0.10671002 0.15919454 0.05480396 -0.023674238
0.07832109 0.16358401 0.040271726 0.10473891 -0.14691564 -0.10039 -0.037326984 0.12374338
0.122981094 -0.058900453 -0.034032833 -0.029716466 -0.100325584 0.18203537 0.10928331 0.14138784
-0.07324149 -0.052005865 -0.1802852 0.1610063 -0.081924036 -0.01785093 -0.1437899 0.04458399
0.11847572 -0.2152191 0.16614772 0.039763898 0.10339589 -0.18919565 0.055468325 0.21205947
0.14267734 -0.09720394 0.011776828 -0.14810462 0.08679035 0.102704965 0.09377661 -0.18767187

gcn.bias f4 [64]
00000000: 0000 0000 0000 0000 0000 0000 0000 0000
00000010: 0000 0000 0000 0000 0000 0000 0000 0000
00000020: 0000 0000 0000 0000 0000 0000 0000 0000
00000030: 0000 0000 0000 0000 0000 0000 0000 0000
00000040: 0000 0000 0000 0000 0000 0000 0000 0000
00000050: 0000 0000 0000 0000 0000 0000 0000 0000
00000060: 0000 0000 0000 0000 0000 0000 0000 0000
00000070: 0000 0000 0000 0000 0000 0000 0000 0000
00000080: 0000 0000 0000 0000 0000 0000 0000 0000
00000090: 0000 0000 0000 0000 0000 0000 0000 0000
000000a0: 0000 0000 0000 0000 0000 0000 0000 0000
000000b0: 0000 0000 0000 0000 0000 0000 0000 0000
000000c0: 0000 0000 0000 0000 0000 0000 0000 0000
000000d0: 0000 0000 0000 0000 0000 0000 0000 0000
000000e0: 0000 0000 0000 0000 0000 0000 0000 0000
000000f0: 0000 0000 0000 0000 0000 0000 0000 0000
0.0 0.0 0.0 0.0 0.0 0.0 0.0 0.0
0.0 0.0 0.0 0.0 0.0 0.0 0.0 0.0
0.0 0.0 0.0 0.0 0.0 0.0 0.0 0.0
0.0 0.0 0.0 0.0 0.0 0.0 0.0 0.0
0.0 0.0 0.0 0.0 0.0 0.0 0.0 0.0
0.0 0.0 0.0 0.0 0.0 0.0 0.0 0.0
0.0 0.0 0.0 0.0 0.0 0.0 0.0 0.0
0.0 0.0 0.0 0.0 0.0 0.0 0.0 0.0
