scripts/outputs/training_20250522_004248/best_model.pt (torch, 194869 bytes, 20 tensors)

adaptive_adj f4 [80, 80]
00000000: 4237 64bd 767e 01be ef06 b13b 5300 cfbd
00000010: ce0a 73bd 3c7e de3d 317e 453c 62e9 143e
00000020: 9127 acbd e1dd 543d 1d52 9ebc 5ac8 0ebe
00000030: 006e d4bd 02a1 0fbc cf2c b53d 365c e13d
00000040: 6ee2 11be 13dd 433d 690a 793d 8384 8fbd
00000050: 3833 53bd 1a18 aabd fa16 25be 2235 1c3e
00000060: f8fe 09be bf2f 723d 3e76 3fbd c9ea 30be
00000070: a4b5 a73d ad20 c0ba 44bf d5bb 2bb8 9dbd
00000080: 9753 9ab9 37b0 843d 08b4 fc3c 97cb 27be
00000090: 43cc 0abe 80f6 debd 2de3 f23d 3fdc a6ba
000000a0: d5eb 5ebd 4e2b 2d3c f0a7 95bc 8862 db3c
000000b0: 9002 11be 595a a1bc e90c 333e 8d13 77ba
000000c0: d345 2d3e b0b1 ec3d a213 873b ed86 133e
000000d0: 15f9 01bd f998 fa3d 4352 0a3c c192 32be
000000e0: 60cb 4d3d 1071 283c 5c52 e3bd dcbb ca3d
000000f0: d73f 02be 522e 22be 281f e7bb b37f 893c
00000100: a1d3 113e b7d9 a9bd d0ea b3bd c5b7 983c
00000110: 456e 273e 6727 273e 2ece 9ebc 839d 8cba
00000120: fc6f d0bc 747a 2d3e 2551 893c 0c2e 613a
00000130: f4c2 083d d0fc 02be a186 1ebc 795c 0dbe
00000140: f6ca 263d 8f23 f03d e315 843c c67c 2abd
00000150: c21a 003e 658d 683c 3e90 11be 579f 16be
00000160: 0b66 893d 18fc 073e bfb4 213e 9ed2 033d
00000170: 20af e0bd 6f62 e2bd c2cc bf3b eb94 c23d
00000180: b726 c2bc 44b6 5a3d 02fe ce3d 3662 843d
00000190: 7857 00bd 12ea babc 9c39 d5bd 5bdd 32ba
000001a0: 4488 19be 5c1f f13d af39 c73c 2aaf 833d
000001b0: 4ab8 0f3e d26d 0ebd b3bd 9a3b 5b75 4dbd
000001c0: f6eb 983d 4c36 6e3d bc8b bc3d eb9d e53a
000001d0: 4215 7f3d af38 b9bd 149e c4bd 8a4a 13be
000001e0: d073 b83d efd5 25be 5b69 74bd 92ec 24bc
000001f0: 703c a6bb f429 063e 5fe4 233e 2e14 87bd
00000200: 6fe3 2ebc e4ed 10be 9c61 bdbd 3c6d 4abd
00000210: 2010 bcbc eb6c ea3d 8d8c d9bc 1950 143d
00000220: 47da 0bbe c85d 5ebd 6201 fe3b 02b7 31bd
00000230: d0b6 1e3e 68f7 efbb 14f3 223e 2d47 943d
00000240: 554b 843d 0bba 23be 0749 9d3d f9c6 fcbd
00000250: 1744 313e 98de fa3d 6e3d 91bd df11 a13c
00000260: 486e 343d a3fa 15be 7334 a23c 2a37 c439
00000270: 2a39 ed3c d004 f73d 7474 a5bd 4795 24be
00000280: 3287 e8bd 7281 023b b8a5 a8bc dcd2 d2bd
00000290: 09fe 65bd ece8 9b3d fc51 dabd f024 e83d
000002a0: 0638 aa3d b09b 30bd de21 80bc c091 e43c
000002b0: 702e cb3d 65dc 88ba d5a2 babd 4029 163e
000002c0: 6863 afbc 5cb1 403d dd83 213e 67ea b93c
000002d0: f4a7 1f3e 5510 f0bc a2fb acbd d4d8 a33d
000002e0: 5b0f 243e d16b 323e 48f5 303e 7ae7 143d
000002f0: a202 2abe 2b6e 143e 758a 263e f30b 1ebe
00000300: 0dfb 5aba 0287 64ba e2d1 87bb 27b2 b03d
00000310: ce7d 97bd a619 86bd e65b 0fbe c92b 04bd
00000320: 52c0 aebd 2a02 a7bd f7c8 e33d acbe 18bc
00000330: 061f 00be 92e2 c1bd 58e8 2c3d 9be9 94bd
00000340: 063b 173e cf8f 763d 4cc4 c3bd 035c f1bd
00000350: c17a 6ebd 2419 0dbe 49c2 df3d 6dba 0abe
00000360: ca47 aa3d 26eb a4bd bc7a 3d3d fa0b c93c
00000370: 82fd 903d 787b 8f3d 210b f83d 877c fc3d
00000380: 618a 1e3e 8321 28bd 7d9c e3bd 244d 34bc
00000390: 7fa4 46bd ce13 3bbb e13b 8bbd 1e51 08be
000003a0: 249b f5bc bed3 2b3e 0eb5 113e b59f 61bd
000003b0: 5e94 fa3d 149c 66bc 6a35 76bc 108d 27be
000003c0: 358a 1e3e bff6 25be 489a 123d d564 18be
000003d0: 75bd 103e acf9 22be 1cba 923d 0799 27be
000003e0: 76aa 643c 3e8f c73d b5db 183e a46d 42bb
000003f0: 52e4 133e dbd6 df3d 3cb6 003e c920 f93d
-0.05571676 -0.12645897 0.005402438 -0.10107484 -0.059336476 0.10863921 0.012054012 0.14542153
-0.08405984 0.051969413 -0.019326264 -0.13943616 -0.10372543 -0.008766415 0.08846437 0.11003916
-0.14246532 0.047818255 0.060800944 -0.070076965 -0.051562518 -0.08305378 -0.16122046 0.15254644
-0.13476169 0.059127565 -0.046743624 -0.17277063 0.08188942 -0.0014658176 -0.006523045 -0.07701143
-0.00029435448 0.06478923 0.030847564 -0.16386257 -0.13554482 -0.1088686 0.118597366 -0.0012730433
-0.054424126 0.010569407 -0.018268555 0.026780382 -0.14161134 -0.019696401 0.17485394 -0.00094252155
0.16921167 0.11557329 0.0041222135 0.14406939 -0.031731684 0.122362085 0.008442464 -0.17438795
0.05024278 0.010280862 -0.11099693 0.098991126 -0.12719665 -0.15837982 -0.0070532747 0.016784525
0.14240886 -0.08293479 -0.08785021 0.018642316 0.16350658 0.16323625 -0.019385424 -0.0010728094
-0.025444023 0.16941243 0.016762326 0.00085899304 0.033389047 -0.12791753 -0.009675653 -0.13804807
0.040720902 0.11725532 0.016123718 -0.0416229 0.12510207 0.014193867 -0.1421518 -0.14709221
0.06708916 0.1327976 0.15791605 0.032183282 -0.109709024 -0.11053931 0.0058532665 0.0950106
-0.023700101 0.05339648 0.10107042 0.06464045 -0.031333417 -0.022816692 -0.10411379 -0.00068231457
-0.14993387 0.117735595 0.024319498 0.06429894 0.14035144 -0.0347727 0.004722321 -0.050160747
0.07466881 0.05815725 0.0920634 0.0017518377 0.062276132 -0.09044015 -0.096004635 -0.14383903
0.090064645 -0.1619489 -0.059670787 -0.010066168 -0.0050731227 0.13101941 0.16005085 -0.06595646
-0.010674342 -0.14153248 -0.09247133 -0.04942058 -0.022956908 0.11446556 -0.026556278 0.0362092
-0.13657485 -0.054288656 0.0077516297 -0.04338742 0.15499425 -0.0073231943 0.1591304 0.07240138
0.06459681 -0.15988939 0.076799445 -0.123426385 0.1731113 0.12249488 -0.07091795 0.019661842
0.044050485 -0.14646392 0.0198004 0.00037425134 0.028957922 0.12061465 -0.08078852 -0.1607257
-0.113539115 0.0019913581 -0.020586833 -0.102941245 -0.05615047 0.07612786 -0.106601685 0.1133517
0.08311467 -0.043117225 -0.01564115 0.02790153 0.099209666 -0.0010441659 -0.09113089 0.14664173
-0.021409705 0.047044143 0.15772958 0.02269478 0.15591413 -0.029304663 -0.08446433 0.08000341
0.16021483 0.17423941 0.17281067 0.036353566 -0.16602567 0.1449515 0.16263755 -0.15434246
-0.00083534495 -0.00087176275 -0.004144893 0.0862773 -0.07397042 -0.06547861 -0.139999 -0.03226832
-0.08532776 -0.0815471 0.111223154 -0.0093228035 -0.12511835 -0.09467043 0.042213768 -0.07271119
0.1476861 0.06019574 -0.09558925 -0.11785128 -0.058222536 -0.13779122 0.10925729 -0.13547678
0.08314474 -0.080526635 0.046259627 0.024541844 0.07079603 0.07005972 0.12111498 0.12328439
0.15482475 -0.041047584 -0.11113832 -0.01100472 -0.04849672 -0.002854574 -0.0679853 -0.13312194
-0.029981203 0.16779992 0.14229223 -0.05508395 0.1223533 -0.014075298 -0.015027383 -0.16362405
0.1548241 -0.16207407 0.035791665 -0.14882214 0.14134772 -0.15915555 0.07164404 -0.16366969
0.013956657 0.09744118 0.14927562 -0.0029667402 0.14442566 0.10929652 0.12569517 0.121644564

adj_matrix f4 [80, 80]
00000000: e238 0e3f 0000 0000 388e 633d 0000 0000
00000010: 368e 633d 0000 0000 0000 0000 0000 0000
00000020: 0000 0000 0000 0000 0000 0000 0000 0000
00000030: 0000 0000 0000 0000 0000 0000 0000 0000
00000040: 0000 0000 0000 0000 0000 0000 0000 0000
00000050: 0000 0000 0000 0000 0000 0000 388e 633d
00000060: 0000 0000 0000 0000 0000 0000 0000 0000
00000070: 0000 0000 0000 0000 0000 0000 0000 0000
00000080: 0000 0000 0000 0000 0000 0000 0000 0000
00000090: 0000 0000 0000 0000 0000 0000 0000 0000
000000a0: 388e 633d 0000 0000 0000 0000 0000 0000
000000b0: 0000 0000 0000 0000 0000 0000 0000 0000
000000c0: 0000 0000 0000 0000 0000 0000 0000 0000
000000d0: 0000 0000 0000 0000 368e 633d 0000 0000
000000e0: 0000 0000 388e 633d 0000 0000 0000 0000
000000f0: 0000 0000 0000 0000 388e 633d 0000 0000
00000100: 0000 0000 0000 0000 0000 0000 0000 0000
00000110: 0000 0000 0000 0000 368e 633d 0000 0000
00000120: 0000 0000 0000 0000 0000 0000 0000 0000
00000130: 0000 0000 0000 0000 0000 0000 0000 0000
00000140: 0000 0000 0000 803f 0000 0000 0000 0000
00000150: 0000 0000 0000 0000 0000 0000 0000 0000
00000160: 0000 0000 0000 0000 0000 0000 0000 0000
00000170: 0000 0000 0000 0000 0000 0000 0000 0000
00000180: 0000 0000 0000 0000 0000 0000 0000 0000
00000190: 0000 0000 0000 0000 0000 0000 0000 0000
000001a0: 0000 0000 0000 0000 0000 0000 0000 0000
000001b0: 0000 0000 0000 0000 0000 0000 0000 0000
000001c0: 0000 0000 0000 0000 0000 0000 0000 0000
000001d0: 0000 0000 0000 0000 0000 0000 0000 0000
000001e0: 0000 0000 0000 0000 0000 0000 0000 0000
000001f0: 0000 0000 0000 0000 0000 0000 0000 0000
00000200: 0000 0000 0000 0000 0000 0000 0000 0000
00000210: 0000 0000 0000 0000 0000 0000 0000 0000
00000220: 0000 0000 0000 0000 0000 0000 0000 0000
00000230: 0000 0000 0000 0000 0000 0000 0000 0000
00000240: 0000 0000 0000 0000 0000 0000 0000 0000
00000250: 0000 0000 0000 0000 0000 0000 0000 0000
00000260: 0000 0000 0000 0000 0000 0000 0000 0000
00000270: 0000 0000 0000 0000 0000 0000 0000 0000
00000280: 388e 633d 0000 0000 e438 0e3f 0000 0000
00000290: 388e 633d 0000 0000 0000 0000 0000 0000
000002a0: 0000 0000 0000 0000 0000 0000 0000 0000
000002b0: 0000 0000 0000 0000 0000 0000 0000 0000
000002c0: 0000 0000 0000 0000 0000 0000 0000 0000
000002d0: 0000 0000 0000 0000 0000 0000 398e 633d
000002e0: 0000 0000 0000 0000 0000 0000 0000 0000
000002f0: 0000 0000 0000 0000 0000 0000 0000 0000
00000300: 0000 0000 0000 0000 0000 0000 0000 0000
00000310: 0000 0000 0000 0000 0000 0000 0000 0000
00000320: 398e 633d 0000 0000 0000 0000 0000 0000
00000330: 0000 0000 0000 0000 0000 0000 0000 0000
00000340: 0000 0000 0000 0000 0000 0000 0000 0000
00000350: 0000 0000 0000 0000 388e 633d 0000 0000
00000360: 0000 0000 398e 633d 0000 0000 0000 0000
00000370: 0000 0000 0000 0000 398e 633d 0000 0000
00000380: 0000 0000 0000 0000 0000 0000 0000 0000
00000390: 0000 0000 0000 0000 388e 633d 0000 0000
000003a0: 0000 0000 0000 0000 0000 0000 0000 0000
000003b0: 0000 0000 0000 0000 0000 0000 0000 0000
000003c0: 0000 0000 0000 0000 0000 0000 0000 803f
000003d0: 0000 0000 0000 0000 0000 0000 0000 0000
000003e0: 0000 0000 0000 0000 0000 0000 0000 0000
000003f0: 0000 0000 0000 0000 0000 0000 0000 0000
0.55555546 0.0 0.055555552 0.0 0.055555545 0.0 0.0 0.0
0.0 0.0 0.0 0.0 0.0 0.0 0.0 0.0
0.0 0.0 0.0 0.0 0.0 0.0 0.0 0.055555552
0.0 0.0 0.0 0.0 0.0 0.0 0.0 0.0
0.0 0.0 0.0 0.0 0.0 0.0 0.0 0.0
0.055555552 0.0 0.0 0.0 0.0 0.0 0.0 0.0
0.0 0.0 0.0 0.0 0.0 0.0 0.055555545 0.0
0.0 0.055555552 0.0 0.0 0.0 0.0 0.055555552 0.0
0.0 0.0 0.0 0.0 0.0 0.0 0.055555545 0.0
0.0 0.0 0.0 0.0 0.0 0.0 0.0 0.0
0.0 1.0 0.0 0.0 0.0 0.0 0.0 0.0
0.0 0.0 0.0 0.0 0.0 0.0 0.0 0.0
0.0 0.0 0.0 0.0 0.0 0.0 0.0 0.0
0.0 0.0 0.0 0.0 0.0 0.0 0.0 0.0
0.0 0.0 0.0 0.0 0.0 0.0 0.0 0.0
0.0 0.0 0.0 0.0 0.0 0.0 0.0 0.0
0.0 0.0 0.0 0.0 0.0 0.0 0.0 0.0
0.0 0.0 0.0 0.0 0.0 0.0 0.0 0.0
0.0 0.0 0.0 0.0 0.0 0.0 0.0 0.0
0.0 0.0 0.0 0.0 0.0 0.0 0.0 0.0
0.055555552 0.0 0.5555556 0.0 0.055555552 0.0 0.0 0.0
0.0 0.0 0.0 0.0 0.0 0.0 0.0 0.0
0.0 0.0 0.0 0.0 0.0 0.0 0.0 0.055555556
0.0 0.0 0.0 0.0 0.0 0.0 0.0 0.0
0.0 0.0 0.0 0.0 0.0 0.0 0.0 0.0
0.055555556 0.0 0.0 0.0 0.0 0.0 0.0 0.0
0.0 0.0 0.0 0.0 0.0 0.0 0.055555552 0.0
0.0 0.055555556 0.0 0.0 0.0 0.0 0.055555556 0.0
0.0 0.0 0.0 0.0 0.0 0.0 0.055555552 0.0
0.0 0.0 0.0 0.0 0.0 0.0 0.0 0.0
0.0 0.0 0.0 1.0 0.0 0.0 0.0 0.0
0.0 0.0 0.0 0.0 0.0 0.0 0.0 0.0

feature_extractor.0.weight f4 [64, 4]
00000000: fd31 ba3e daf2 ca3e 6fa4 cabd fae6 e93e
00000010: 8f32 bbbd 3296 a93d 7552 66be ec0e 973e
00000020: ed22 d83e 4949 b2be 01fa d43e bc72 c43d
00000030: 959c b33e 49c5 4c3d 89ef 633e 9c60 58bd
00000040: ccd1 bb3e 48bb 653d 4516 5cbe 6c75 023e
00000050: 5bf7 58be 4951 28bd 4110 3dbe 3a0d aa3e
00000060: a68c c0be 2f1b 59be 3eaf fbbd c16c 90be
00000070: f59e f53c a24c f3be e8a7 dd3e a9ed cfbe
00000080: 971c bc3e feaf 853d b972 13be 52e8 9c3e
00000090: aafb 753d a34e c53e 516f 183d 05af 0ebe
000000a0: cbb7 ed3d 8043 f0bd c193 443e 8d71 e33e
000000b0: 897c 8a3e 00eb 4cbe 7e48 8a3e 93fa b53d
000000c0: 3f0d 713e d687 92be b6de f3be f5f1 32be
000000d0: bad4 babe 8186 c83e 74ba 003e 11e2 543e
000000e0: 0b23 0f3e a771 c4b8 b1d1 be3e 5f5f acbe
000000f0: bade 783c 3937 a5be 5b19 0b3e 607f 1dbe
00000100: 711c 0a3e 6e3f b0bd 7eca ca3e 623b 8ebe
00000110: 782d 8fbe d42f 8fbe b7b7 dc3e 1d8b 2a3e
00000120: aaca ec3e debc c9be a25f f4be adc1 bebe
00000130: fdb1 a2be f17d 3c3e 1c7e 243e 29e2 d43e
00000140: fe71 75be f700 a5be 32af 7c3e 9710 3cbe
00000150: cede 913e 1fba cdbd c6f2 883e 3f60 bdbe
00000160: 346c 6fbe 3353 093e d25d b33d 02b9 dfbd
00000170: f117 8f3e 5d84 a43e 921f b0be fe5d 7ebe
00000180: 55de e03e b5f2 19be 96ac 22be c628 eebe
00000190: a51b 89be b677 da3d 63da 45bd 3f4e b0be
000001a0: f86a 3c3a ae5a a5be 79a7 cfbe 9f7a 83be
000001b0: 2484 d6be 677f 99be 3e5a f63e b707 c03d
000001c0: 3300 0b3e 8339 e5be 899f 9ebe 4d9c 17be
000001d0: 1709 773d acb8 d7be 7cb2 49be 32c2 8fbe
000001e0: 9c1d a52c eba8 2bbe a43d 94bc a0f5 a3be
000001f0: b333 a6be 49da 8bbe c96e 1cbe cc86 c0be
00000200: 331d cd3e 8b34 a6bd 83b9 d23e 2df9 1e3e
00000210: af3e cfbe 13a5 a73e f94e f4bd fd64 31be
00000220: f3f6 cabe 53f5 f4be 397f ff3d b286 babd
00000230: 8975 343e aa8e c8be a489 b43e 2b65 b2be
00000240: 5b06 8cbd f7c8 b03d 455b 753e 62d9 ce3e
00000250: 41aa df3e 4d75 c1be 065e dc3d bb50 49be
00000260: a1f6 18bd ac16 b6be a9a3 df3e 675e b2be
00000270: 5caa 7e3e 311a 213e 8f93 133e daea 80be
00000280: b626 df3e 18db bb3d a61c 3f3d 0c10 d8be
00000290: d807 443e de32 6abd 63a1 57be 1045 db3e
000002a0: 8e1c bf3d bc25 84be 2d2f 70be 25df 0bbc
000002b0: a872 853e 114f e0bd 7b92 88be cb81 1cbe
000002c0: f8b9 b5be 4cc1 233e 71a0 bc3e 2777 e7be
000002d0: 4e95 c83d c887 753e cccd 943d dc7e 23be
000002e0: 5f44 783e 0518 7a3e 7297 2c3e 7c1d 8fbd
000002f0: 21c2 e9bd e4c6 133d a10f 90bd e5d0 05be
00000300: 1921 9a3e 3378 d23e 88ed 03bd 9d13 c0bd
00000310: f856 6837 7eca 60bc 61e5 d03d b7d3 0e3e
00000320: 30f9 debe ea17 2abe ed0c ce3e 4582 483e
00000330: cb76 19bc b5d7 90be 741e 93be dec6 dbbe
00000340: 1f17 14be 3816 1a3e 46b9 993e 8a23 6e3e
00000350: 3ec0 d8be a472 90be b9f5 79bd 00b6 f53e
00000360: af5e 5f3d 23d0 e3bd 17ed 403e 2b25 30be
00000370: 2b30 9cbe 4954 b13e 6ee1 55be a83d a8bd
00000380: 7d1f f5be 12d2 a13e b76d b83e f6f8 3a3e
00000390: 2afc a8be 341c f3be cf62 c6be 1a72 bd3e
000003a0: e9de 623e fce3 cd3e d240 793e c0b5 013e
000003b0: 798f f132 d329 b9be 1dcc d1be 08e8 e5be
000003c0: 68b3 3e3e e66c 68be 350a a9bd 4ad5 89be
000003d0: 1fb6 95bd e8a9 aabe 8dc3 9dbe 237b 293e
000003e0: bd67 05be 1689 943e 7375 11be 4d45 b2be
000003f0: c7d7 8fbd 953e 65be 67de 09be c02a eabe
0.36366263 0.39638406 -0.098946445 0.45684034 -0.09140503 0.082806006 -0.22492392 0.29503572
0.42214146 -0.34821537 0.41596988 0.09592196 0.350804 0.049992833 0.22259344 -0.05282651
0.366835 0.05608681 -0.2149287 0.12740105 -0.21188109 -0.041093145 -0.18463232 0.33213216
-0.37607306 -0.21201776 -0.12289284 -0.28207973 0.029983023 -0.47519404 0.43292165 -0.40611008
0.36740562 0.065277085 -0.14399232 0.30645996 0.06005446 0.38536558 0.037215535 -0.13933952
0.11607321 -0.117316246 0.19196989 0.4442257 0.27048138 -0.2001152 0.27008432 0.08885684
0.23540209 -0.2861926 -0.47630852 -0.17475112 -0.36490422 0.39165118 0.12571126 0.20789362
0.13978212 -9.367178e-05 0.37269357 -0.33666512 0.015189821 -0.32268694 0.13583891 -0.15380621
0.13487412 -0.08605848 0.39607614 -0.2777968 -0.27964377 -0.27966177 0.43108913 0.1665463
0.4624837 -0.39401907 -0.47729212 -0.37257138 -0.3177642 0.18407418 0.16063732 0.41578797
-0.23969266 -0.322273 0.24676207 -0.18365704 0.284903 -0.100452654 0.2674772 -0.36987492
-0.2338112 0.13410644 0.08758129 -0.10923959 0.27947953 0.32132235 -0.34399086 -0.24840543
0.43919626 -0.15033992 -0.15886149 -0.46515483 -0.26778904 0.10667364 -0.048303973 -0.34434697
0.00071875704 -0.32295746 -0.4055746 -0.2567949 -0.4189769 -0.29980013 0.48115724 0.093764715
0.13574295 -0.4477044 -0.3098109 -0.14805718 0.060311403 -0.4213308 -0.19696993 -0.28077847
4.6928694e-12 -0.16763656 -0.018095799 -0.32023335 -0.32461318 -0.27314976 -0.15276636 -0.37602842
0.4006134 -0.081154905 0.4115716 0.1552474 -0.4047751 0.3274313 -0.11929125 -0.1732368
-0.39641532 -0.47843418 0.12475438 -0.09107722 0.17622961 -0.39171344 0.3526126 -0.3484281
-0.0683715 0.08632081 0.23960598 0.40400225 0.4368458 -0.37784806 0.10760121 -0.19659702
-0.03734458 -0.35564172 0.4367955 -0.34837648 0.24869674 0.15732647 0.14411758 -0.25179178
0.43584222 0.09172648 0.04665818 -0.42199743 0.19143617 -0.057177417 -0.21057658 0.42826128
0.09331618 -0.2581004 -0.23455496 -0.0085370885 0.26064038 -0.10952581 -0.26674256 -0.15283887
-0.35493445 0.15991706 0.36841157 -0.45208094 0.097941026 0.23977578 0.07265815 -0.15966362
0.24244832 0.24423225 0.16854647 -0.069880456 -0.1141398 0.03607835 -0.07034231 -0.13067968
0.30103377 0.4110733 -0.03220895 -0.09378741 1.3848527e-05 -0.013720153 0.102000006 0.1394795
-0.4354949 -0.16610685 0.40244237 0.19580944 -0.009366701 -0.2828957 -0.2873417 -0.4292516
-0.14461945 0.15047538 0.30024165 0.23255745 -0.4233417 -0.28212464 -0.061025355 0.47990417
0.054533657 -0.11123683 0.18840443 -0.17201678 -0.305055 0.34634617 -0.20886776 -0.08214885
-0.47875586 0.31605583 0.36021206 0.18259034 -0.33004886 -0.47482455 -0.3874726 0.37001115
0.22155346 0.40213 0.24341133 0.12666988 2.8121336e-08 -0.36164722 -0.4097604 -0.44903588
0.18623126 -0.22697791 -0.082539 -0.2692054 -0.073101275 -0.33332753 -0.30813256 0.16550879
-0.13027854 0.29010838 -0.1420496 -0.34818497 -0.07023578 -0.22387154 -0.13463746 -0.4573574

feature_extractor.0.bias f4 [64]
00000000: a0bc 853e 1ab6 a8be 2562 6e3e 4a69 553e
00000010: 1060 ad3e a3d6 babe 1c98 ae3e 2d1c 5fbe
00000020: a821 2b3e c8de e63e 710e 58bd 14a1 c131
00000030: 9786 c6bd de38 ccbe 59c4 623e cc96 f4be
00000040: 7f6b 953e 5005 b63e ab8e e83e 7d47 ccbd
00000050: bece c8be e806 c13d 26ee 833e 8940 f5be
00000060: 2e38 c3bd bdf5 8fbe 0c6c dabc fd0f 69be
00000070: 9e65 3ebe a0bf 0fbe edbb e9be 7484 c83e
00000080: 1e14 cd3e f90a 78bd dd89 21bd dc10 3ebe
00000090: e0a4 ddbe 6094 efbe bc6e 2b3e cb10 83be
000000a0: 6d11 9bbe 0aae b5bc 9eb0 17be 00d8 12be
000000b0: a61f 363b 6615 b4bd 4076 1dbe be34 62be
000000c0: cdce c6be a51f cd3e ee02 3abe aef0 e93d
000000d0: 37d1 1ebe ed39 c23c 5c20 e53e 87f5 583e
000000e0: e64f d4be 4655 383e 6276 e93e 9f01 e83d
000000f0: ac1d a23e 3fd7 f23e b1ae 70bd 8872 af3d
0.26120472 -0.32951432 0.23279627 0.20840946 0.33862352 -0.3649188 0.34100425 -0.21788092
0.16712058 0.45091844 -0.052748147 5.6353517e-09 -0.0969364 -0.39887136 0.22145213 -0.477713
0.29183576 0.35550928 0.45421347 -0.09974573 -0.39220232 0.094251454 0.2576763 -0.479008
-0.095322 -0.2811717 -0.026662849 -0.22760005 -0.18593451 -0.14037943 -0.45651188 0.39163554
0.4005441 -0.06055734 -0.039438117 -0.18561119 -0.43289852 -0.4679289 0.1674146 -0.2559875
-0.30286732 -0.022177715 -0.14813468 -0.1434021 0.002778986 -0.08793144 -0.1537714 -0.22090432
-0.3882965 0.40063205 -0.1816518 0.11422859 -0.15509497 0.023709262 0.4475125 0.21187411
-0.41467208 0.18001279 0.4559813 0.11328434 0.31663263 0.47429845 -0.05876035 0.08566767

temporal_module.conv.0.weight f4 [64, 64, 3]
00000000: 9d85 43bd d60b 6fbc ef0b 563d a6a9 103d
00000010: cad5 35bd c3df 6ebd 81c2 40bd c265 8ebd
00000020: e1ca 5ebd eb93 80bb afc9 003d eb96 5b3a
00000030: 69e0 50bd 00e5 65bd 1474 113d 39db 50bd
00000040: 0be2 1abc f1fa 0e3d e8ce 8abc dda2 12b8
00000050: 4df3 33b5 9e81 5fbb d90f a3bc 082b 3fbd
00000060: c66f 69bd 594d 24bd 7ec3 8c3d 35d7 95bc
00000070: 0eaa ffbc 5c90 713b de74 b13c 7b72 1a3d
00000080: 323e 603d 9058 253d 30a8 93bd 8788 f63b
00000090: 254d da3c 2d65 56b6 b700 d1bc a4e8 8e3d
000000a0: aee3 d5bc 9348 21bd 5b1a 42bd bbf2 c62f
000000b0: e726 803c 6e93 323b 1393 e93a deb8 18bd
000000c0: b17d 4bbd 3eaa 1e2b 1816 453d 3bd5 303d
000000d0: cc50 24bd 21ae 01bc a2a0 12bd 3684 95bc
000000e0: 3d40 a03a 4e45 2b3d 4fa8 7b3d e011 83bd
000000f0: ad00 fe3c 747b 09bd 91c8 373c 5713 323d
00000100: ff17 e42b 977f 443d 81c1 33bd 3a86 3fbc
00000110: c89b cd3c 05c9 28bb 99dd 05bb a91a 64bc
00000120: a3e8 043d 86f3 993c 33bc 013c eaa5 c1bc
00000130: 8d1a 28bd c2fb 0538 d8b8 d53b b835 8abc
00000140: 30c8 b7bb fa91 443d 1ca4 aa3b 3eaa 073b
00000150: f551 7dbb 1046 43bd 9957 4dbd 2f1a 93bc
00000160: 37c6 a3bc 7c67 f23b 9b36 ccbb 5229 49bc
00000170: e02b 513d 8c32 1d3c 79a9 0b3d 5e71 96bc
00000180: bb0f debc a6d7 cf3c fa3b 3ebd 9181 f5bc
00000190: 3850 d330 4fda 2ebc 3036 16bd bc30 d33c
000001a0: dee9 253d fba4 3a3a 3c5f 85ba 6947 49bd
000001b0: 14b5 c1bc 3f94 973c 14f8 0a3d 27c4 12b9
000001c0: 497b 4dbc 7dfe be3c 64ac 23bd cf2d e93c
000001d0: 0ac1 45bc 5d0c 062b b4ef e8ba fae8 ce38
000001e0: 2cbd e0bb 9cbd 0f3d 38b7 da2c c464 683d
000001f0: c8d4 8d3d 39ac 0cbd 966c 10bd 5760 253d
00000200: 80fc 1f3d f134 1abd 5cfb 8334 39af 5abd
00000210: fd14 2abd d60b d43a 3fb7 9f3b 10c7 183b
00000220: 1452 aabb af34 483d a812 b239 0575 d1bc
00000230: f39b 1731 1585 6a3b 2113 1f3c 8efe 09bd
00000240: 981d 383c b830 a5bc 1da6 2dbd 899d 15bd
00000250: 54aa 8c3d 62c9 763d ab95 863d 9519 323d
00000260: 098c 663d bcd0 62b9 1414 bbbc 90fd 9e3c
00000270: 8624 10bd ef2b 3fbd e927 aabc a90c 8b3c
00000280: 583b 1b3d bb04 cbbc dd99 d0bc 43d4 6f39
00000290: f216 d1bc 8200 f4bc d1ef aa3c 8f9e 5fba
000002a0: 649d 8a3d 4a53 923d ca32 ac3c 5dc6 dc3c
000002b0: ff04 813c c7d9 be3a 1f37 39bb 329c ff3a
000002c0: 7d7d e23c 8c4b 4a3d 500e 94bb 0369 6abc
000002d0: add7 70bb a3e6 95bc 9fa4 6d3a e3f8 593d
000002e0: fe63 683d 497e 023d 8f44 12bd bb87 b3bc
000002f0: 72ec 2dbb bf76 adba 7c1e 0ab4 43de 46bd
00000300: 7877 993c 9354 59bd 06b2 3dbd af9f 6fbd
00000310: a1b5 693d b147 86bd 72fe 353d 9377 46bb
00000320: 7250 1bbc 2178 e53c d27e 56b6 656b e63c
00000330: da65 343d 96f1 5dbd c9b1 a93c a941 2d3c
00000340: bb91 553c 121c e73b beb5 ac3b e8c5 94bc
00000350: d668 21b9 7e35 503d 07d9 ff3c 5a66 2f2f
00000360: c462 85bd f55b 483a 8803 43bd 1d85 283d
00000370: 460e dbbc 21b6 0334 b090 91bc 0013 303c
00000380: a768 7e3d aa94 603b 1452 053d 77f8 343d
00000390: 7bd2 263d f538 1abc e31c 39bb 09f0 f13c
000003a0: 8f91 9ebc 819d df3c 6673 2abb 4cc0 01bd
000003b0: fec6 593c 7b7a 083a d59d 813c cbd3 5c3d
000003c0: d607 033d 5a96 4f3d 42c4 aeb1 5410 6cbd
000003d0: 24d4 38bd 2096 2bbd ab36 3cbd 1dde 9fbc
000003e0: 349f 47bd bee8 85bd 8904 2ebd 0bf2 8dbd
000003f0: 40dc debc a0d9 3e3c 748c 2e3d 38ea d7bb
-0.047734845 -0.014590224 0.052257475 0.03531804 -0.04439334 -0.058318865 -0.047060493 -0.069530025
-0.0543927 -0.003923883 0.03144234 0.00083766755 -0.050995264 -0.056126595 0.03551109 -0.050990317
-0.009453307 0.034907285 -0.016944364 -3.496079e-05 -6.7036746e-07 -0.0034104357 -0.019905018 -0.046671897
-0.05699136 -0.040112827 0.06873225 -0.018291095 -0.031209018 0.0036859727 0.021662172 0.037706833
0.054746814 0.040367663 -0.072098136 0.0075235995 0.026648114 -3.1947377e-06 -0.025513036 0.069779664
-0.026109543 -0.039375853 -0.047388416 3.618846e-10 0.01564355 0.002724852 0.0017820321 -0.037285678
-0.049680416 5.6369135e-13 0.048116773 0.043172102 -0.040116116 -0.007915051 -0.035797723 -0.01825152
0.0012226176 0.04181414 0.06143981 -0.06399894 0.031006182 -0.033565 0.011217252 0.043475475
1.6207035e-12 0.04797324 -0.04388571 -0.011689717 0.025098696 -0.0025754583 -0.0020426272 -0.013922372
0.032448422 0.018792879 0.007918405 -0.023638684 -0.041040946 3.194414e-05 0.006522279 -0.016871318
-0.005608581 0.047990777 0.0052075516 0.0020700837 -0.0038653587 -0.04767424 -0.050132368 -0.017956821
-0.019991977 0.00739759 -0.0062320954 -0.012277918 0.051067233 0.009594571 0.03409717 -0.018364605
-0.02710711 0.025371384 -0.046443917 -0.029969009 1.537507e-09 -0.010672166 -0.03667277 0.025780074
0.040506236 0.0007119921 -0.0010175477 -0.049140368 -0.023645915 0.018503306 0.033927992 -0.00013996717
-0.0125416005 0.023314709 -0.039959326 0.028464226 -0.01206995 4.762352e-13 -0.0017771632 9.866241e-05
-0.0068584885 0.035092935 6.216274e-12 0.056736723 0.069253504 -0.03434393 -0.035259806 0.04037508
0.039059162 -0.037648145 2.458354e-07 -0.05338976 -0.041523922 0.0016177844 0.0048741396 0.002331201
-0.0051977728 0.048878368 0.00033964706 -0.025568495 2.2062039e-09 0.003578489 0.0097091505 -0.033690028
0.011237524 -0.020164832 -0.042394746 -0.03652719 0.06868425 0.060250647 0.06571516 0.04348143
0.05628589 -0.00021630799 -0.022836722 0.019408017 -0.03519108 -0.046672758 -0.020770984 0.01697381
0.03789839 -0.02478253 -0.025463993 0.0002287189 -0.025523636 -0.029785398 0.020866306 -0.0008530402
0.06768301 0.071447924 0.021020312 0.026950056 0.015749453 0.0014560752 -0.0028261614 0.0019501506
0.027647728 0.049388453 -0.0045183077 -0.014307263 -0.0036749647 -0.018298453 0.0009065363 0.053215872
0.056735985 0.031858716 -0.035709914 -0.021915307 -0.0026538637 -0.0013234242 -1.2863342e-07 -0.04855181
0.018733725 -0.053059172 -0.046312355 -0.058501896 0.05705798 -0.06556643 0.04443211 -0.0030283674
-0.009479629 0.028011383 -3.1962304e-06 0.028127382 0.044042446 -0.054185472 0.020714657 0.010574737
0.013035233 0.007052907 0.005270689 -0.018160775 -0.00015393211 0.050832264 0.031231416 1.595252e-10
-0.06512979 0.0007643097 -0.04761079 0.04114257 -0.026740205 1.2266584e-07 -0.017769188 0.010746717
0.062111523 0.0034268298 0.03254898 0.044182267 0.040728074 -0.009412994 -0.0028245978 0.029533403
-0.019356517 0.027296783 -0.0026008724 -0.03167753 0.013292072 0.00052062393 0.01582233 0.05391292
0.031989895 0.050680496 -5.0863784e-09 -0.05763276 -0.045124188 -0.041891217 -0.045950573 -0.019515092
-0.048735812 -0.06538533 -0.042484794 -0.06930932 -0.027204633 0.0116485655 0.042614415 -0.0065892003

temporal_module.conv.0.bias f4 [64]
00000000: 3a12 1c3d 3bd9 d03c 57af acb8 d5b6 5dbd
00000010: 3262 48bc 0365 5934 2bf0 47bd 450c 213d
00000020: c879 c03b 26ce 183d 3a1c 40bd ad9b a6bc
00000030: 9310 3e3b abaf 31ab 28ab ccbc 9ee7 103d
00000040: fa6e 5f3c d6b5 8d30 a60b 513d 3385 57bd
00000050: 3e11 44bd 2eae f13a c1d5 433d e387 c33c
00000060: 061e bbbc c6f5 0c3d 4c02 aa3c 199b f5b0
00000070: 838c e93c e949 ea3a 77fd bda8 249d b2bb
00000080: a282 b0bc 913c e8bc 4aa1 46b9 df5b 03bd
00000090: d59a 6b3c 4d66 bc3b 2772 57bd d429 12bd
000000a0: 9e28 0c3d 4699 acbc a727 2caa 6900 eebc
000000b0: 541d 2bbb 0f6e 9b3c 41c4 8b3b a421 9a3c
000000c0: 7c31 99b0 a518 24bd 7b4c 022b f604 d33c
000000d0: 3f5a 573b a03f 0b3b ca89 e53a aca0 2a3d
000000e0: 5aa5 a13c bce0 42ba 5cc8 b6bc bbac 283d
000000f0: c05f aabc faee fdbc 1cf8 f33b d9e6 ecbc
0.03810332 0.025494209 -8.234259e-05 -0.05412944 -0.012230443 2.0246448e-07 -0.048813026 0.03931834
0.0058738925 0.037305973 -0.04690192 -0.020337904 0.0029001578 -6.312682e-13 -0.024983957 0.035377137
0.013637299 1.0310781e-09 0.0510365 -0.052617263 -0.047868006 0.001843875 0.047811273 0.023868507
-0.022841465 0.034414075 0.020753048 -1.7870178e-09 0.028509384 0.001787481 -2.1093138e-14 -0.0054508615
-0.021546666 -0.028349193 -0.00018942836 -0.032070037 0.014380177 0.0057495 -0.0525991 -0.03568442
0.034218423 -0.02106918 -1.5290426e-13 -0.02905293 -0.002611001 0.018973378 0.0042653386 0.01881487
-1.114628e-09 -0.040062565 4.6291416e-13 0.025759201 0.0032860187 0.002124764 0.0017512378 0.041657135
0.019732166 -0.0007434001 -0.022312336 0.041180354 -0.02079761 -0.030997742 0.0074453484 -0.02891867

temporal_module.conv.1.weight f4 [64]
00000000: 4172 7f3f cc3a 7c3f 480b 7d3f 6500 7d3f
00000010: 910e 7c3f 49fc 7b3f 61e4 7d3f 4425 7c3f
00000020: 8c22 7c3f dfbf 7e3f f16b 7c3f 1788 7e3f
00000030: 6408 7d3f e4ef 7b3f a40f 7c3f f4c2 7c3f
00000040: c113 7c3f d51e 7c3f 101d 7f3f 4fac 7c3f
00000050: 0947 7e3f 0a76 7c3f 1d58 7f3f e409 7f3f
00000060: 61b5 7e3f c8a8 7c3f 2c65 7d3f 3b8f 7d3f
00000070: f4f9 7d3f 8ac3 7c3f 314d 7c3f a019 7d3f
00000080: f75a 7e3f af45 7d3f 22a6 7d3f 929a 7c3f
00000090: ec3e 7f3f fd62 7e3f 530b 7d3f be30 7c3f
000000a0: 5234 7d3f 97dd 7c3f 4613 7d3f a286 7c3f
000000b0: dab9 7c3f 6981 7c3f b8c5 7d3f c8e2 7e3f
000000c0: d917 7d3f f216 7c3f 7877 7c3f 17d3 7c3f
000000d0: 0425 7c3f 0dd9 7d3f d42f 7e3f 904b 7d3f
000000e0: 56b5 7b3f 0954 7c3f b99a 7c3f e1f9 7c3f
000000f0: 3da7 7d3f be26 7c3f 4055 7d3f fa89 7c3f
0.9978371 0.98527217 0.9884534 0.98828727 0.98459727 0.9843183 0.99176604 0.9849436
0.98490214 0.9951152 0.98602206 0.99426407 0.9884093 0.9841292 0.98461366 0.98734975
0.9846764 0.98484546 0.9965372 0.9870042 0.9932714 0.98617613 0.99743825 0.99624467
0.9949551 0.9869504 0.989825 0.9904668 0.99209523 0.9873587 0.98555285 0.98867226
0.9935755 0.98934454 0.99081624 0.98673356 0.99705386 0.99369794 0.98845404 0.98511875
0.9890796 0.9877562 0.98857534 0.98642933 0.98721087 0.98634964 0.9912982 0.9956479
0.98864514 0.9847251 0.98619795 0.987596 0.9849398 0.9915932 0.9929173 0.98943424
0.9832357 0.9856573 0.9867359 0.98818785 0.9908331 0.98496616 0.98958206 0.98648036

temporal_module.conv.1.bias f4 [64]
00000000: 953f 063b 6710 303b c81f e83a ca13 b6b8
00000010: 36ca a53a fad5 0239 22bb 38ba 0775 66ba
00000020: 4c2a e83a 6156 2c3b e63b 593b 66b9 e339
00000030: f877 823a 86f5 263a 5240 86ba 7e00 c0b7
00000040: 9e6b 2dbb 0d55 17b9 dfe7 dd3a efbb 9fb9
00000050: 4113 aa3a 9f2f e539 869f d83a 8efa 21b9
00000060: 4fee 813b 382e 303a 5806 95ba ea83 20bb
00000070: fce0 12ba fb78 e93a 467a 5039 acc5 c139
00000080: a192 f9b6 1ae4 0cbb a4ea 48ba aa1f 7fba
00000090: 1893 443b 693d b03a 7b78 9e3a 524b 95b9
000000a0: dff8 c839 5312 433a a08e d13a 2350 683a
000000b0: dce8 47ba f081 8aba 1de2 ed3a 3ccc 463b
000000c0: 768f 32ba 5dea 30ba 90a7 9739 ae4b a5ba
000000d0: cfd6 43ba 4dd5 e2ba 2440 7639 cd67 26ba
000000e0: 6947 da39 1a15 c63a cb63 8eb9 f90c 3dba
000000f0: d56a 02bb d3d9 f6b9 4c4d a5b8 4c13 12ba
0.0020484675 0.0026865245 0.0017709667 -8.682122e-05 0.0012648765 0.00012477479 -0.0007046928 -0.0008791242
0.0017712801 0.0026296603 0.0033147275 0.00043434947 0.0009953966 0.00063689833 -0.0010242558 -2.2888413e-05
-0.002646185 -0.00014432166 0.0016930065 -0.00030466865 0.0012975709 0.00043713764 0.0016527034 -0.00015447495
0.003965176 0.00067207543 -0.0011369688 -0.002449269 -0.00056029833 0.0017812544 0.00019881976 0.00036959106
-7.437848e-06 -0.0021498264 -0.0007664359 -0.00097321963 0.0029994901 0.0013446036 0.0012090349 -0.00028475613
0.00038332396 0.000744139 0.001598794 0.0008862039 -0.00076259463 -0.0010567289 0.0018149052 0.0030334136
-0.00068115385 -0.000674879 0.00028925808 -0.0012611055 -0.00074706686 -0.0017306 0.00023484282 -0.0006347865
0.00041633405 0.001511249 -0.00027158702 -0.0007211711 -0.0019900103 -0.00047083068 -7.882211e-05 -0.00055723335

temporal_module.conv.1.running_mean f4 [64]
00000000: 1f8e 7e4b 3253 54cb 5be2 014a 722d 19ca
00000010: dd3a 0bcb 6487 98ca 3221 794a 38e4 54cb
00000020: e912 64cb 69c9 494b 5415 72cb 6e5c b54b
00000030: 8ee0 514a 0792 e7ca 9d0d aeca dab9 f9ca
00000040: b8e4 3bcb 484f b4cb 9569 634b 2928 af48
00000050: f5d8 c94b e294 8ecb 4444 334b 5d7c 114b
00000060: 7062 404b 79a1 30ca 7370 a44a 30ed 854a
00000070: f110 2e4b 89e4 15cb e265 2ccb bfd4 8d4a
00000080: 7468 da4b ea63 494b 3657 774a e642 92ca
00000090: 49d2 d44a 7beb 444b 19fd da49 0d01 16cb
000000a0: 81db 294a df2b adc8 cf36 284a ef38 3dca
000000b0: 318b 2cca ab51 ca49 92e6 3c4b 0215 044b
000000c0: 0c4e 524b 3faf 1ecb 94ea 81cb a981 4eca
000000d0: 2384 abca 7251 8e4a 21c2 d64a fdd2 924a
000000e0: 021a 25cb 65cc 00cb 8ecd ed4a 81a5 83ca
000000f0: 75d2 9b4a 7031 64cb 7cf8 514a b8c4 c8c9
1.6682527e+07 -1.391493e+07 2.1280228e+06 -2.5096605e+06 -9.124573e+06 -4.998066e+06 4.0817405e+06 -1.3952056e+07
-1.4947049e+07 1.3224297e+07 -1.5865172e+07 2.3771356e+07 3.4386275e+06 -7.5880995e+06 -5.7033745e+06 -8.183021e+06
-1.2313784e+07 -2.3633552e+07 1.4903701e+07 358721.28 2.6456554e+07 -1.8688452e+07 1.174842e+07 9.534557e+06
1.2608112e+07 -2.8939182e+06 5.3883455e+06 4.388504e+06 1.1407601e+07 -9.823369e+06 -1.1298274e+07 4.6475195e+06
2.8627176e+07 1.3198314e+07 4.0524295e+06 -4.792691e+06 6.9737325e+06 1.2905339e+07 1.7939551e+06 -9.830669e+06
2.7829442e+06 -354654.97 2.7560198e+06 -3.1002198e+06 -2.8269562e+06 1.6573974e+06 1.2379794e+07 8.65613e+06
1.378254e+07 -1.0399551e+07 -1.7028392e+07 -3.3834022e+06 -5.6202415e+06 4.663481e+06 7.0372005e+06 4.8111345e+06
-1.0820098e+07 -8.440933e+06 7.792327e+06 -4.3137925e+06 5.1059785e+06 -1.4954864e+07 3.440159e+06 -1.644695e+06

temporal_module.conv.1.running_var f4 [64]
00000000: c85f 8159 9f20 3859 7422 0e58 a716 9b57
00000010: 4e7f b758 dd93 1958 4f2b e857 aff4 3159
00000020: 79a6 4c59 27a6 5059 5472 6359 8974 ff59
00000030: 3c67 f757 ffe9 9c58 e8da 4b58 a1df 9b58
00000040: bf7d 0f59 9505 f759 ca04 5c59 a272 d557
00000050: 8d4b 355a 0cf1 9a59 ff24 0a59 7376 b158
00000060: a304 2a59 af74 5058 05e7 b058 44e2 4e58
00000070: 798d 0359 b82a c158 7e7f 0a59 fda6 2358
00000080: 28e5 395a 2013 3a59 13fb 2458 e0df 0458
00000090: 2fa1 6a58 e92b 2359 88c6 0b58 6bbc f358
000000a0: f423 0e58 31a8 f557 c600 9757 b707 c957
000000b0: 0748 db57 3886 3958 5f77 1a59 b1f8 9a58
000000c0: 07b8 3259 de7a eb58 345e 8359 12ff 0258
000000d0: 9565 6d58 0f0a 0558 8443 7458 9e48 6f58
000000e0: d985 ef58 ed47 9d58 11ad ac58 d03e 1358
000000f0: c8d7 2958 0fa4 6059 3e23 dc57 ae6c 9257
4.551948e+15 3.239204e+15 6.251145e+14 3.410432e+14 1.6140592e+15 6.754414e+14 5.105454e+14 3.1306315e+15
3.600246e+15 3.6705926e+15 4.0012828e+15 8.9880314e+15 5.4404552e+14 1.3802306e+15 8.965642e+14 1.3710782e+15
2.5243238e+15 8.691307e+15 3.87061e+15 4.6937664e+14 1.275751e+16 5.4515225e+15 2.430264e+15 1.5609783e+15
2.9909903e+15 9.167983e+14 1.5560501e+15 9.098848e+14 2.3142983e+15 1.6991138e+15 2.436483e+15 7.197504e+14
1.3081208e+16 3.2734609e+15 7.2559305e+14 5.843883e+14 1.031912e+15 2.8705438e+15 6.147392e+14 2.1439246e+15
6.251403e+14 5.4020545e+14 3.3205916e+14 4.4206994e+14 4.822048e+14 8.1594447e+14 2.7173998e+15 1.3631433e+15
3.1440554e+15 2.0713035e+15 4.6221e+15 5.761281e+14 1.0440822e+15 5.85113e+14 1.07428326e+15 1.0523807e+15
2.1068652e+15 1.383458e+15 1.5188745e+15 6.4759195e+14 7.4697695e+14 3.9519237e+15 4.8408784e+14 3.2199095e+14

spatial_attention.attention.0.weight f4 [64, 128]
00000000: 2c6c a4bd 30e5 5ebd dc1f 733c d351 40bd
00000010: 35a8 813d a663 98bb ec64 2abd 509d 1abd
00000020: fec2 52bc 1465 8b3d 9aa1 22bd 22fb acbd
00000030: 3731 a03c 53c8 af3c 70b7 86bd 4913 c4bc
00000040: a458 7c3d a57e d4bc 17e7 e83c fbf0 24bd
00000050: 8552 a6bd 4e24 8bbd bddf 673d 8155 993c
00000060: b293 873c cd18 a23c 2cb9 d63c 8d97 4f3d
00000070: 94fa 6d3d 9b24 5d3d d6c1 a73c 8155 e93b
00000080: 5d40 373c 26ed 99bd 94da fb3c 3282 693c
00000090: 175e f43c f450 e3bc ffb0 813d f70e f13b
000000a0: a77c cebc 5e8b adbb e416 1cbd 818c 4cbc
000000b0: 40b3 853d 280c 9f3c 5fcb 87bc 7663 2abb
000000c0: a019 513c 4638 0ebd ea9a 03bd e3b8 873d
000000d0: b6db 9139 44d6 983c 21a1 35bd af0b 88bd
000000e0: fe5b 5d3c 2ecd 143d 085b afbd 5168 9abd
000000f0: f6b7 06bd 52d2 343d e0ea a2bd c4b1 733d
00000100: 09ee 9d3d cdc5 e0bb c32d 903b 5c66 70bb
00000110: af2e 9b3d 4d06 193c 8890 a33c c200 6fbc
00000120: 55d9 c339 cab3 48bd 9683 013a 37ff 58bc
00000130: c87f 803c aa33 443c 4b58 8abd ff8f 473d
00000140: a219 013d 2730 373d 74b2 7f3d 3b45 a03c
00000150: 441d 3f3d d9e1 da3c 5a7d 4d3d 445e 61bd
00000160: bf4b 243d 250a 36bc dcc3 043d d1c2 f23c
00000170: d279 89bd 5cb2 eebc 394b 3abd ae62 d8bc
00000180: ede3 d43c dff1 8d3c 859e 8d3d 79bb 6dbd
00000190: 9509 ca3c 7307 8e3d 2594 8cbd bdaf 68bd
000001a0: b97e 943c 4df7 14bd b16d a23c a8c9 20bd
000001b0: 821a 2e3c 1f2b 8ebd 3fe6 883d 8a2c 70bd
000001c0: 7086 a5bd 4914 09bd cf67 f139 41ca a33d
000001d0: 97d5 833c 8197 97bc 8b6a 83bd 3c8d 1c3d
000001e0: 6aae 8239 41cb b6bc c33d d5bc 2b4c 303c
000001f0: a6c6 503d 5f45 13bd f9e2 c7bc 3abb 213d
00000200: 7b41 80bd bbbd 1ebb 80ae 853d 98a4 5f3d
00000210: 7e40 66bd 0d94 18bd 19a0 1d3c 342b 333d
00000220: cffd c8bc 6891 a9bd 2d9f 10bb 654d 4d3d
00000230: feb5 3fbd c4ef 8cbd 7dce 763a 5a83 743d
00000240: 9b19 67bd d4fa 563c 97f5 513d 0841 5338
00000250: b660 4dbd 6bf6 b8bc 5fad 79bd ae0b 1d3b
00000260: 6e69 2dbd 438d 8aba d70e b0bc 54e6 81bd
00000270: 25b3 a33d 095b 5a3c 77c9 033d 1c29 413d
00000280: 2f19 fc3c 6e76 c6bc 6e26 ecbc d705 26bd
00000290: f9be a3bd 4832 8fbd 9bf5 0abd 6ab8 923d
000002a0: 7af8 acbd 0c94 4fbd d6cd 8cbd dd3b 6ebd
000002b0: 56e2 893d 01a9 81bd c8ef 86bd 91c0 58bd
000002c0: 0324 a43c 74cd 9bbc 27cf 37bd 8fd9 8a3d
000002d0: d308 ea3b a063 82bd 5784 0ebd 2822 4c3d
000002e0: 1dfe c13c 789d 37bd 38da 3fbd 85e9 f9bc
000002f0: 385a ee3c 5432 63bd 50c8 a13d ee0e 983b
00000300: 15bd 0f3d 922a 853c 85a9 893d bf38 edbc
00000310: 8a11 fabc 7da3 6dbd abe9 953d 41d3 2fbc
00000320: 8aa1 d5bb ea03 9e3d b8a9 b6bc 145f eebc
00000330: 3dd7 11bd 419b 363d c208 2a3c a2d5 30bd
00000340: 7f1b 323d a8fb b73c 0320 acbc c8bd 9a3c
00000350: d752 a2bd a3eb 60bd b524 04bd dcce 293d
00000360: fd52 a0bc 4390 6f3d f3f8 a7bd 447f 7c3d
00000370: ad20 aebd 6926 00bd 97c7 843d 0078 fcbc
00000380: 8254 1ebd d43a 3e3d eb6b 3abd 6352 823c
00000390: 0158 05bd c5cf 0b3d a7b4 5cbd 79e5 39bd
000003a0: 8adf 77bd a2b0 7dbc 7084 b13d 87cd 503d
000003b0: 0656 8ebd fac2 303d 38c8 a33d 59a8 b03d
000003c0: f57a 1b3c 9113 833c 5ddb 493d 7ae5 ab3d
000003d0: 174c 8a39 2753 67bc 7229 8f3d a82a c0bc
000003e0: 0bf8 613d ae01 913d 196a c73c 13bb 8dbd
000003f0: 6cf6 8d3d 54ca ec3c ae7c 963c 88be 943c
-0.08028445 -0.05441779 0.014839139 -0.046953034 0.06330911 -0.004650551 -0.041600153 -0.03774768
-0.012863873 0.068063885 -0.039704897 -0.08446337 0.019554717 0.021457827 -0.06577957 -0.023934977
0.06160797 -0.025939295 0.028430505 -0.04026888 -0.08121208 -0.06794034 0.056609858 0.01871753
0.016549919 0.019787217 0.026211344 0.05068164 0.058100298 0.053989988 0.02047817 0.0071207886
0.011184779 -0.075159356 0.030743875 0.014252232 0.029830022 -0.027748562 0.063325875 0.0073565203
-0.025205923 -0.005296155 -0.038107768 -0.012484671 0.0652833 0.019414976 -0.016576467 -0.0025999225
0.012762457 -0.034721635 -0.03213016 0.06627061 0.00027820253 0.018656857 -0.044343118 -0.066428535
0.013510702 0.036328487 -0.08562285 -0.07539428 -0.032890283 0.04414589 -0.07954955 0.059495702
0.07711417 -0.006859517 0.0043999865 -0.0036682105 0.075772636 0.009339881 0.019966379 -0.014587583
0.00037355223 -0.048999585 0.00049405673 -0.013244442 0.01568593 0.011975208 -0.06755122 0.04872131
0.031518586 0.044723656 0.062426046 0.019564262 0.04665877 0.02671902 0.050168373 -0.05502154
0.0401113 -0.011110817 0.03241335 0.029633911 -0.067126885 -0.029137783 -0.045481894 -0.026414242
0.02598759 0.017327247 0.06915001 -0.058040116 0.024662772 0.069350146 -0.06864194 -0.056808222
0.018126832 -0.036368657 0.019827696 -0.039254814 0.010626437 -0.069418184 0.06684541 -0.058636226
-0.080822825 -0.03346661 0.00046044445 0.07997561 0.016093059 -0.01850486 -0.06416806 0.03822063
0.0002492548 -0.022313716 -0.026030427 0.010760347 0.050970696 -0.03595483 -0.024400221 0.039485194
-0.062624894 -0.0024221975 0.06527424 0.05460033 -0.05621385 -0.037250567 0.00962069 0.043742374
-0.024535088 -0.08279687 -0.0022067532 0.050122637 -0.04680442 -0.06881669 0.00094149244 0.05969558
-0.056420904 0.0131213255 0.051259603 5.0366885e-05 -0.05014106 -0.022578439 -0.060956355 0.002396326
-0.042336874 -0.0010570664 -0.021491451 -0.0634276 0.079931535 0.013327369 0.032174554 0.047158346
0.030773727 -0.024226394 -0.028826918 -0.040532913 -0.079954095 -0.06992012 -0.033925634 0.071640804
-0.08445831 -0.050678298 -0.068751976 -0.05816256 0.06732623 -0.06331063 -0.065887034 -0.05291802
0.020036703 -0.019018866 -0.04487529 0.06779777 0.007142165 -0.06366658 -0.034794178 0.04983726
0.023680741 -0.04482791 -0.04683897 -0.030506859 0.029095754 -0.05546792 0.07899535 0.0046404516
0.035092432 0.01625565 0.067217864 -0.028957723 -0.030525941 -0.058017243 0.07319959 -0.010731519
-0.006519501 0.0771559 -0.022297725 -0.029098071 -0.035605658 0.044581655 0.010378065 -0.043172486
0.043483254 0.022458866 -0.021011358 0.018889323 -0.07925957 -0.05491222 -0.03226157 0.041457042
-0.019570822 0.058487188 -0.0820178 0.061644807 -0.08502326 -0.03128663 0.06483381 -0.03081894
-0.03865481 0.04644282 -0.045513075 0.015908426 -0.03255463 0.03413369 -0.05388322 -0.045384858
-0.060515918 -0.015484007 0.086678386 0.050977256 -0.069500014 0.043154694 0.07997173 0.0862586
0.009489764 0.01600054 0.049281467 0.083933786 0.00026378102 -0.014118946 0.06990327 -0.02345784
0.055168193 0.070803985 0.024342583 -0.06920447 0.06931767 0.028905071 0.018369999 0.018157259

spatial_attention.attention.0.bias f4 [64]
00000000: adad 09bd 5fcb 273c c1b4 1f3d f2bc 54bc
00000010: c93a 01bc 1220 9e3d df69 9f3d 0bbd 023d
00000020: 57c8 043c ba5c 85bb 8906 51bd 266e 6b3d
00000030: 8b2a f93c efd7 5c3d 56b7 2fbd 32f8 d23c
00000040: 1b20 cc3c c366 dfbc 71a9 ddbb 33c0 bc3c
00000050: 6d2e a0bc 6fff a33d 2c04 80bd 4454 dcbb
00000060: 7158 0fbd ca2d 763d 610b 06bd 73df 7fbc
00000070: 0030 913d 4ab1 83bd 2585 d0bc 8167 a33d
00000080: 615d 583d 1b00 c1bc f122 3fbc 1384 15bd
00000090: 2d64 943c 3e5f b63c bd8a 613d 1dbe 283d
000000a0: 8595 373d 2996 95bb dd52 76bd 3ccc 1f3d
000000b0: cc2d 73b6 9af1 59bd f968 113c 7075 8f3d
000000c0: 11a6 3bbc e97b 8bbd 3a79 2a3d 4907 853d
000000d0: 8d70 40bd 8f71 84bd 8aa5 73bd d905 113d
000000e0: dba6 12bd 4c43 a3bd d9ab 66bb 0796 4bbd
000000f0: 55e2 e3bc 6b6d 0ebd a307 e2bc 3c2e 32bd
-0.033612896 0.010241359 0.03899074 -0.012984501 -0.007887551 0.07720961 0.07783865 0.031918567
0.008104405 -0.0040698918 -0.051031623 0.057478093 0.030415794 0.053916868 -0.042899452 0.025753114
0.024917653 -0.02727068 -0.0067645838 0.023040866 -0.019553388 0.080077045 -0.06250796 -0.0067239124
-0.034996454 0.06010226 -0.032725696 -0.015617239 0.070892334 -0.064302996 -0.025454113 0.07978726
0.052823428 -0.02355962 -0.0116660455 -0.03650291 0.018114174 0.022262212 0.05506395 0.04119693
0.044820327 -0.0045650196 -0.06013762 0.039013132 -3.623648e-06 -0.053208925 0.008875125 0.07004821
-0.011453168 -0.06810743 0.041619517 0.0649553 -0.046982337 -0.06466972 -0.059484042 0.035405967
-0.035803657 -0.0797182 -0.0035197644 -0.049703624 -0.027817884 -0.034772318 -0.027591532 -0.043501124

spatial_attention.attention.2.weight f4 [1, 64]
00000000: 6b00 cebc c04f 9fbd 574a 70bc d8eb 9fbd
00000010: dc9d dc3b 1a9d ac3d c244 48bd a0b1 8ebc
00000020: 816a bebc b8d2 24bd 4405 b1bd 0522 063d
00000030: 65bc 6dbc 69f8 b73b 1d48 0dbd d32c 9dbd
00000040: d60d 56bd 703e 813d b1fc ab3d 2efc 2fbd
00000050: 3543 8d3d 6c94 99bd 482c eabb a726 e6bd
00000060: 197d 91bc de53 1f3d cc4e a03d 976d 293d
00000070: 7692 773d 2cbe dcbc 15d2 f23d 8886 e0bd
00000080: 872a e1bc 4f11 8bbc 8ffd af3d 87f4 c73c
00000090: 0f46 f03d e799 aabd 73b4 2c3d c8f7 d4bd
000000a0: 835a 2b3d 7bbc 83bd 409e 5cbd e3f7 3a3c
000000b0: 9ccf 363c 1c06 f53d c51e c83d 0189 4b3b
000000c0: ddb3 1c3d 3a4a c13c 74db e1bc 009d c8bd
000000d0: ea2c c9bd 8c67 263c 7825 53bd 2695 e03d
000000e0: 7075 61bd df39 183d 1b2e 72bd 22e3 ff3d
000000f0: 3d90 5b3d c991 903d 682a f63c 655a 88bc
-0.025146684 -0.07778883 -0.0146661615 -0.078086555 0.0067326855 0.08428402 -0.048893698 -0.017418683
-0.023244144 -0.04024002 -0.086435825 0.032747287 -0.014510249 0.0056143296 -0.0344926 -0.07674565
-0.05225929 0.06310737 0.083978064 -0.042965107 0.06897584 -0.07499012 -0.007146392 -0.11237841
-0.017759847 0.03889834 0.07827529 0.04136428 0.06044241 -0.02694615 0.11856476 -0.1096316
-0.027486099 -0.016976027 0.08593284 0.024408592 0.117321126 -0.08330136 0.042164277 -0.10398823
0.041834366 -0.06432434 -0.053861856 0.01141164 0.011157896 0.11964056 0.09771494 0.0031057002
0.03825747 0.023594964 -0.027570464 -0.097955704 -0.0982302 0.010156523 -0.051549405 0.10965948
-0.055043638 0.037164565 -0.059126 0.12494494 0.053604353 0.07059056 0.030049518 -0.016644666

gcn.weight f4 [64, 64]
00000000: 26c8 d2bd 2617 8e3d 8341 3ebd 4fb2 bbbd
00000010: 5b41 eb3b 0d89 263e 5b51 48be 04cb b8bd
00000020: b845 283e b024 d5bd 5fe5 4c3d 16c3 a63d
00000030: eeba 923c 5348 8e3c 4254 14be fb13 0bbd
00000040: 45cc 2abd fca8 33bc 28ae c3bc 066d 4fbd
00000050: a7d6 03be 43f5 1d3e e7ad 803d 36e5 933d
00000060: eb09 dc3d 8780 923b 3807 103e 28e4 893d
00000070: 20fb 85bd 59bd 453b 4d3a 41be 92bd e5bd
00000080: c849 4e3e 4c79 5b3e 2a8a 1ebe e511 c1bd
00000090: ebf3 f33d da2e 46be dbb1 c4bc 3330 4bbe
000000a0: cccb d1bd 7c86 e8bd 2931 28bc 3dca 6bbd
000000b0: 756a f4bd 9cb4 e73d e542 c4bd 0f10 5abe
000000c0: d2e3 d73d b7a6 113e 56b7 3fbd e763 cf3b
000000d0: 81ca e23c 302b debc f828 34bd d682 34be
000000e0: 2e19 c23d c3cc 64ba 4c2b eb3d b01a 6a3c
000000f0: 8c06 b0bd f0e8 dabd e3be e63c 1bda e23d
00000100: 5688 5c3e e2ae 463e c6d6 353e 37ed 27be
00000110: 0bc5 203d a2fa 493e 0601 c93d b7b2 133e
00000120: e467 523e 3dd6 85bd 100c ed3d f65a 033e
00000130: c7a2 7c3b 834c 02be 43c0 743d 138d 383e
00000140: f6b6 dc3c a528 8b3d 7c5b f33c 7b8f 1c3e
00000150: 4b11 ec3d 62b4 46bd 2b59 103d bf85 cfbd
00000160: 3ee3 0a3d 862d 3fbe 5c00 983d 2155 063e
00000170: 3b07 3abe 8adc 713d 5d66 f3bc ebcd afbd
00000180: 6b4b c63d 56c0 203c fdb7 e9bd 0f12 183e
00000190: 09b4 663d ce4c 19be 574b 10bd c57c f0bd
000001a0: 6084 0bbe 508f 533e a9e8 babc 781d 51bc
000001b0: eef6 d3bc 594f 47bd b027 3cbe abf5 e9bc
000001c0: 5ce4 b8bd 0fb8 b83d 5a11 c6bb 7d45 59be
000001d0: 058c 03be 6b72 26be 6059 593c 36f2 083e
000001e0: f1e1 cb3d 2af3 573c 767c fd3d ee6c c0bc
000001f0: 6172 4c3e b5c1 38be e863 6cbd b265 f2bc
00000200: 7aa4 27be 5ce7 8b3d 53e9 173e 00a5 133d
00000210: e647 9a3c 0f17 403e 5121 9ebd ca25 0bbd
00000220: 37a8 a43d 7198 f2bd a38a 27be 669a 33bd
00000230: db98 103e 512c e4bd b0d1 7e3d 736a 813b
00000240: 517f 4b3e 56d3 e93d 3528 eabd f355 55be
00000250: 62eb 033e f9e2 4bbe e6f7 01be de42 573e
00000260: 0dc4 823d acfc 3fbb ea7c 28be 6adc 25bd
00000270: 9cf8 ed3c 215b 033e 033d adbd 3407 1cbd
00000280: 4476 303d bd05 5abe 331e 89bd 21a1 4abe
00000290: d36a 9fbd 111d 03be d858 d93d fc38 19be
000002a0: 1dc1 50be 1e85 cbbc 7beb d0bd 44f7 e7bd
000002b0: 6605 4fbd b33b a53d 2832 44be 46bb 20be
000002c0: 2a49 813c 799d c63d b767 0b3c ab2d 5c3e
000002d0: b675 dc3d 25cc 15be 41b7 fa3d 7e65 e5bd
000002e0: d565 233e d766 61bd 7a99 383e 4cfd 4fbd
000002f0: b6f2 80bd 5dff 21be 3265 5b3e 7222 fdbd
00000300: d86c c1bd 5f6a f3bd e62c 5bbe 19cb dabd
00000310: 7ec6 363e 2f80 0d3e 3fee 633d c73e 82bd
00000320: 3061 f43c cd2e 25bd f59c 35be 5490 163e
00000330: 4798 e83d 5470 3f3e 9b17 4fbe 5f31 0b3d
00000340: 802e fa3d 6766 f5bc bbb3 cd3d 061c dc3d
00000350: c88a dabd e503 233e 1e7a 603d 7af0 c1bc
00000360: cf66 a03d 9182 273e f7f3 243d 5b81 d63d
00000370: 0e71 16be 4699 cdbd 2ee4 18bd 2b6d fd3d
00000380: 83dd fb3d 9a41 71bd 0366 0bbd f26f f3bc
00000390: 8077 cdbd 7b67 3a3e eecf df3d f9c7 103e
000003a0: a2ff 95bd 1a04 55bd af9c 38be d6de 243e
000003b0: cac7 a7bd 1d3c 92bc a93d 13be b49d 363d
000003c0: 66a3 f23d 6562 5cbe a122 2a3e 78df 223d
000003d0: 39c1 d33d 81bc 41be c132 633d 1e26 593e
000003e0: 021a 123e dc12 c7bd 99f3 403c bda8 17be
000003f0: 24bf b13d fb56 d23d f40d c03d 0e2d 40be
-0.102920815 0.06938009 -0.046449196 -0.09164869 0.007179422 0.16263218 -0.19562285 -0.09023097
0.16432846 -0.10407388 0.050023433 0.081426784 0.0179114 0.017368471 -0.14485267 -0.0339546
-0.041698713 -0.010965582 -0.023886755 -0.050641082 -0.12874852 0.15425591 0.06283169 0.07221453
0.10744079 0.004470888 0.14065254 0.067329705 -0.06542039 0.0030172674 -0.18869896 -0.11217798
0.20145333 0.2143299 -0.15482393 -0.09427241 0.11911758 -0.1935381 -0.02401059 -0.19842605
-0.10243949 -0.11353776 -0.010265627 -0.057565916 -0.119343676 0.113137454 -0.095830716 -0.21295188
0.105415 0.14223753 -0.046805702 0.006329048 0.027684452 -0.027120203 -0.043984383 -0.17628035
0.09477459 -0.00087280216 0.114828676 0.014288589 -0.08594999 -0.106889606 0.028167194 0.110767566
0.21536383 0.1940265 0.17757711 -0.16399084 0.039250415 0.19724515 0.09814648 0.14423643
0.20547444 -0.06535003 0.11574566 0.12827668 0.0038549171 -0.127245 0.059753668 0.18022566
0.026942711 0.06794862 0.02970671 0.15289108 0.11526736 -0.04851187 0.035241287 -0.10132932
0.03390812 -0.1866971 0.074219435 0.13118412 -0.1816682 0.059048213 -0.029711897 -0.085841976
0.096823536 0.009811481 -0.11412046 0.14850639 0.05632404 -0.14970705 -0.0352281 -0.11742548
-0.13624716 0.20660138 -0.02281602 -0.012763374 -0.025874581 -0.048659656 -0.18374515 -0.028559526
-0.09027931 0.090194814 -0.006044549 -0.21217914 -0.12846382 -0.16254584 0.013265938 0.13373646
0.09955204 0.013180533 0.12377255 -0.023489442 0.19965507 -0.18042643 -0.057712466 -0.029589508
-0.16371337 0.06831238 0.148351 0.036046028 0.018833112 0.18758796 -0.07721198 -0.033971585
0.08039897 -0.11845482 -0.1636148 -0.043848418 0.1412081 -0.11141265 0.062211692 0.0039494573
0.19872786 0.11417262 -0.1143345 -0.20833568 0.1288276 -0.19910802 -0.12692222 0.21021602
0.0638505 -0.0029294891 -0.16453901 -0.040493406 0.02904921 0.12827732 -0.08458903 -0.038092807
0.043081537 -0.21291251 -0.06695213 -0.19788028 -0.07784047 -0.12804057 0.10612649 -0.14963144
-0.20386167 -0.024843749 -0.10201164 -0.11326459 -0.050542258 0.08068027 -0.19159758 -0.15696439
0.015781958 0.09698004 0.008508614 0.21501796 0.10764639 -0.14628656 0.12241984 -0.11200999
0.15956815 -0.055029716 0.18027297 -0.050778672 -0.062962934 -0.1582007 0.21425322 -0.123600855
-0.094445884 -0.11885523 -0.21403846 -0.10683269 0.17849156 0.1381843 0.05564713 -0.0635963
0.029831499 -0.040327836 -0.17735656 0.14703494 0.113571696 0.18695194 -0.20223849 0.03398263
0.122159004 -0.029956056 0.100440465 0.107475325 -0.10671002 0.15919454 0.05480396 -0.023674238
0.07832109 0.16358401 0.040271726 0.10473891 -0.14691564 -0.10039 -0.037326984 0.12374338
0.122981094 -0.058900453 -0.034032833 -0.029716466 -0.100325584 0.18203537 0.10928331 0.14138784
-0.07324149 -0.052005865 -0.1802852 0.1610063 -0.081924036 -0.01785093 -0.1437899 0.04458399
0.11847572 -0.2152191 0.16614772 0.039763898 0.10339589 -0.18919565 0.055468325 0.21205947
0.14267734 -0.09720394 0.011776828 -0.14810462 0.08679035 0.102704965 0.09377661 -0.18767187

gcn.bias f4 [64]
00000000: 0000 0000 0000 0000 0000 0000 0000 0000
00000010: 0000 0000 0000 0000 0000 0000 0000 0000
00000020: 0000 0000 0000 0000 0000 0000 0000 0000
00000030: 0000 0000 0000 0000 0000 0000 0000 0000
00000040: 0000 0000 0000 0000 0000 0000 0000 0000
00000050: 0000 0000 0000 0000 0000 0000 0000 0000
00000060: 0000 0000 0000 0000 0000 0000 0000 0000
00000070: 0000 0000 0000 0000 0000 0000 0000 0000
00000080: 0000 0000 0000 0000 0000 0000 0000 0000
00000090: 0000 0000 0000 0000 0000 0000 0000 0000
000000a0: 0000 0000 0000 0000 0000 0000 0000 0000
000000b0: 0000 0000 0000 0000 0000 0000 0000 0000
000000c0: 0000 0000 0000 0000 0000 0000 0000 0000
000000d0: 0000 0000 0000 0000 0000 0000 0000 0000
000000e0: 0000 0000 0000 0000 0000 0000 0000 0000
000000f0: 0000 0000 0000 0000 0000 0000 0000 0000
0.0 0.0 0.0 0.0 0.0 0.0 0.0 0.0
0.0 0.0 0.0 0.0 0.0 0.0 0.0 0.0
0.0 0.0 0.0 0.0 0.0 0.0 0.0 0.0
0.0 0.0 0.0 0.0 0.0 0.0 0.0 0.0
0.0 0.0 0.0 0.0 0.0 0.0 0.0 0.0
0.0 0.0 0.0 0.0 0.0 0.0 0.0 0.0
0.0 0.0 0.0 0.0 0.0 0.0 0.0 0.0
0.0 0.0 0.0 0.0 0.0 0.0 0.0 0.0
