scripts/outputs/training_20250522_004606/best_model.pt (torch, 194869 bytes, 20 tensors)

adaptive_adj f4 [80, 80]
000000 2a 23 93 30 ea a1 2b 31 d7 43 e8 af 46 b6 62 b1
       1.0705652e-09 2.4975813e-09 -4.2248757e-10 -3.2990939e-09
000010 1c 92 06 2f d7 5c 83 31 45 bf 2f b1 06 fe 18 31
       1.2239137e-10 3.8231565e-09 -2.5574576e-09 2.2263307e-09
000020 c0 a1 cd b0 6c 8c ba 2e 84 98 07 b1 e5 c0 7a b1
       -1.4961685e-09 8.483245e-11 -1.973178e-09 -3.6489436e-09
000030 30 da c0 b0 be 29 f6 31 4e 5b 64 30 72 38 50 31
       -1.4031851e-09 7.164288e-09 8.307567e-10 3.030007e-09
000040 14 39 b3 b0 78 03 fb 2f a2 70 76 af f6 eb d8 30
       -1.3040187e-09 4.56591e-10 -2.2413585e-10 1.5783133e-09
000050 6f af d2 b0 03 3b c8 30 d4 3d a0 b0 17 9b 64 b1
       -1.5329372e-09 1.4568687e-09 -1.1659105e-09 -3.3266525e-09
000060 64 35 94 b1 b3 f2 2b 31 98 13 c6 30 b0 2c 83 b1
       -4.3134367e-09 2.5021734e-09 1.4411965e-09 -3.817682e-09
000070 12 50 d3 b0 2a ab dd b0 dc 9f 4d 30 18 25 87 31
       -1.5375028e-09 -1.6128514e-09 7.480574e-10 3.933234e-09
000080 ca cc b0 b0 38 d5 1d 2e 88 60 99 b1 36 5b 9a b1
       -1.286389e-09 3.5887043e-11 -4.4638604e-09 -4.4923594e-09
000090 f0 ec 77 b1 8c 42 70 b1 32 45 df b0 c2 c3 6e 30
       -3.6077914e-09 -3.4962424e-09 -1.6245052e-09 8.6862084e-10
0000a0 76 69 d7 30 de e3 31 31 d3 eb 71 b0 c5 aa c4 b0
       1.5673283e-09 2.5886417e-09 -8.8010416e-10 -1.4309413e-09
0000b0 b6 5c 81 b1 44 3b a4 30 0a 91 8f 31 3c 6a 6e b0
       -3.764934e-09 1.1949415e-09 4.178337e-09 -8.6734864e-10
0000c0 97 17 89 31 86 dd 1a 30 c0 76 0b b1 c5 4f 9b 30
       3.9899066e-09 5.633968e-10 -2.0294664e-09 1.1300406e-09
0000d0 f8 f5 c5 2d 04 5b 56 b1 af 2d 09 b1 94 b4 a5 b1
       2.2505539e-11 -3.1192835e-09 -1.9962092e-09 -4.8226614e-09
0000e0 27 b2 68 30 48 aa aa 31 96 a3 81 b1 a7 ca c2 b0
       8.465428e-10 4.96701e-09 -3.7729917e-09 -1.4172955e-09
0000f0 41 30 32 31 6c 89 ae 30 80 10 8b 31 30 c3 ba 30
       2.5929838e-09 1.2699224e-09 4.0473083e-09 1.3588757e-09
000100 c4 f4 5b 31 50 c8 97 2f 5e f5 e8 b0 d0 27 30 30
       3.2007827e-09 2.760907e-10 -1.6949959e-09 6.4085004e-10
000110 2c 69 28 31 7f d3 bf 30 14 b3 7e 2f 9f ee 34 31
       2.4507e-09 1.395719e-09 2.3164787e-10 2.6329088e-09
000120 22 90 a8 30 f5 21 b9 31 52 6a 14 30 f0 8f 60 b1
       1.2264574e-09 5.388069e-09 5.3993177e-10 -3.267811e-09
000130 0f b7 9b af 72 6a 6a 30 86 da 98 b0 99 4c ab b1
       -2.8324407e-10 8.527997e-10 -1.1121564e-09 -4.985463e-09
000140 7c fa a9 30 1a 7f de b0 30 6a da 2f 6f ed 91 b0
       1.236756e-09 -1.618875e-09 3.972942e-10 -1.0617621e-09
000150 3e 85 49 b1 3c 3f a0 ae a4 44 19 b1 e5 97 b6 30
       -2.932509e-09 -7.28719e-11 -2.2303448e-09 1.3285414e-09
000160 31 16 ca b0 a2 c6 60 31 38 cb 96 b0 f2 e7 8f b0
       -1.4703742e-09 3.27092e-09 -1.0971695e-09 -1.0470542e-09
000170 d7 9f 76 b1 3c c1 85 b1 5a 56 7a 2f d8 29 19 af
       -3.588857e-09 -3.8927777e-09 2.2768046e-10 -1.3930135e-10
000180 d9 bd c1 af 77 a1 89 b0 c8 6a 5f b0 f1 7a 32 af
       -3.524139e-10 -1.0013953e-09 -8.127867e-10 -1.6232683e-10
000190 05 3d 8e 30 50 2f eb ae 58 af aa b0 f0 c6 2a ad
       1.0349203e-09 -1.0694967e-10 -1.2418964e-09 -9.707554e-12
0001a0 2e 05 45 31 22 25 09 b1 42 aa fd 2f d2 f3 f3 2e
       2.8670217e-09 -1.9957231e-09 4.6141407e-10 1.1093672e-10
0001b0 88 fc 71 31 cf 27 49 b0 2a f4 ab 2f 0d 6e b9 b0
       3.5213663e-09 -7.3179945e-10 3.1278208e-10 -1.34918e-09
0001c0 1e 5f ec 30 3a 7a 55 30 3b 04 ef 30 98 0c 28 2f
       1.7198294e-09 7.7662643e-10 1.7390741e-09 1.5283985e-10
0001d0 85 42 03 31 51 e0 19 b1 2a dd 37 30 6a 34 8f b0
       1.910082e-09 -2.239194e-09 6.6889305e-10 -1.0419516e-09
0001e0 e2 e1 1d 31 f4 24 eb b0 3c e2 12 b1 84 7f 9a 2f
       2.2974906e-09 -1.7109003e-09 -2.1374396e-09 2.8103042e-10
0001f0 75 c0 f9 af 3a 7c 0a 31 25 62 a0 2f c3 60 a3 30
       -4.5429585e-10 2.0152258e-09 2.9173566e-10 1.1887312e-09
000200 d8 64 2d b0 f4 4f 3b b1 59 a7 c8 b0 2c 42 8d b0
       -6.308034e-10 -2.725753e-09 -1.4599478e-09 -1.0277907e-09
000210 26 dd 80 af 24 b6 89 30 82 36 82 30 63 78 4e 2f
       -2.34402e-10 1.0019829e-09 9.474237e-10 1.8778361e-10
000220 3a d5 9d b1 7f f7 96 30 5e d0 59 af b7 c6 2b af
       -4.5935424e-09 1.0984279e-09 -1.9810062e-10 -1.5622957e-10
000230 0a 3e 38 b1 24 71 80 2f f5 c3 ae af 42 56 b9 30
       -2.681079e-09 2.3363456e-10 -3.1789651e-10 1.3485038e-09
000240 36 d2 82 ae 26 f1 87 af 38 5d 36 30 34 3f 7b 31
       -5.9490565e-11 -2.4727703e-10 6.6343686e-10 3.6561234e-09
000250 7b e0 97 31 f6 32 86 b1 6d 14 f9 af ff b1 21 30
       4.420199e-09 -3.905707e-09 -4.530735e-10 5.8824406e-10
000260 cc 5b ab af d0 dc 8c 30 dd 33 f8 2f 64 0d 4a af
       -3.1169944e-10 1.0249099e-09 4.5147788e-10 -1.837655e-10
000270 80 b4 80 30 7a 2a 7b b1 8a 36 cf 30 f8 98 70 b0
       9.364527e-10 -3.6549452e-09 1.5076733e-09 -8.7528873e-10
000280 df eb 39 b1 92 74 8a af 9c 90 a9 ae 8c 4f d0 af
       -2.705512e-09 -2.5184882e-10 -7.710918e-11 -3.78915e-10
000290 c0 ff ba 30 97 c1 91 30 b2 79 42 b1 2b d2 cb 30
       1.360597e-09 1.060516e-09 -2.8299891e-09 1.4829927e-09
0002a0 a9 aa 95 b0 fc 9e db af 50 a3 17 2f 75 b5 f6 2f
       -1.0889681e-09 -3.9948833e-10 1.379139e-10 4.4876072e-10
0002b0 48 96 c6 b0 5a 43 f6 2f 8f b2 08 b1 87 e1 91 b0
       -1.4449109e-09 4.4794995e-10 -1.9892104e-09 -1.0614237e-09
0002c0 6c cf 04 2f a4 3e 0c b0 db 0e af b0 08 5c 61 ae
       1.2079021e-10 -5.102072e-10 -1.2737148e-09 -5.1240817e-11
0002d0 a3 25 1a b1 88 44 4e b0 da 35 ab 2f 03 7c ac b0
       -2.2431343e-09 -7.503975e-10 3.1142983e-10 -1.2549893e-09
0002e0 36 0c fb 2f c3 72 86 31 b4 48 9d 31 ec 67 04 af
       4.566531e-10 3.91296e-09 4.5775668e-09 -1.204225e-10
0002f0 58 4e 90 b1 31 53 31 2f 4d c5 15 31 d2 5d 4f 31
       -4.1998582e-09 1.6127612e-10 2.1794506e-09 3.0175795e-09
000300 56 27 55 2e 82 f9 67 2f 56 76 90 ae 7e 3a 47 30
       4.846553e-11 2.109797e-10 -6.5693825e-11 7.24789e-10
000310 6d ef f1 b0 4d 5b 5c 30 11 6a 7f b1 54 22 9e 30
       -1.7603107e-09 8.016528e-10 -3.7167676e-09 1.150577e-09
000320 a5 bb df af dc e0 d8 30 1c 08 5b 31 69 cd a8 af
       -4.0696793e-10 1.5779977e-09 3.1873304e-09 -3.0704975e-10
000330 74 59 4c 31 34 88 c4 ae fe d7 88 30 5f 26 d5 b0
       2.9736755e-09 -8.9372426e-11 9.956691e-10 -1.5508695e-09
000340 fc 2b fc b0 9f 18 27 31 bc f0 e5 2f 8d 77 10 31
       -1.8347914e-09 2.4315694e-09 4.182591e-10 2.1022715e-09
000350 4e 76 7e b0 c0 d3 9a b1 aa b9 72 31 8e 99 99 b1
       -9.257278e-10 -4.506063e-09 3.5321173e-09 -4.470343e-09
000360 cd c7 99 b0 56 c7 13 31 25 75 71 b0 52 be dc 2e
       -1.1189002e-09 2.1504625e-09 -8.784176e-10 1.00382494e-10
000370 aa 06 e8 2f 0e 78 58 af 0b 7b 82 b1 db 0b 80 b1
       4.220529e-10 -1.9687738e-10 -3.7974863e-09 -3.726638e-09
000380 49 89 3d b1 2d 54 7f b0 4f aa 5c b1 e1 7c ab af
       -2.7581157e-09 -9.288808e-10 -3.2111023e-09 -3.119345e-10
000390 5f 40 21 b0 7d ab f6 ae e4 18 c5 30 8d 14 6e b1
       -5.8662936e-10 -1.1217247e-10 1.4340711e-09 -3.464524e-09
0003a0 60 33 c4 2d ea a5 a4 31 40 77 19 31 ff 14 e7 30
       2.2305435e-11 4.7918904e-09 2.2332216e-09 1.681343e-09
0003b0 51 3c 87 b1 25 0d 9e 2f 68 82 15 30 f8 37 49 b1
       -3.9358743e-09 2.8749372e-10 5.43912e-10 -2.9281164e-09
0003c0 b8 fa ee b1 04 a9 06 b1 aa c0 7b 2f ed 0a 53 31
       -6.955215e-09 -1.959564e-09 2.2896765e-10 3.0710752e-09
0003d0 41 bc 40 31 00 16 a2 2f f2 c9 ce 30 52 15 b7 b0
       2.8046687e-09 2.948326e-10 1.5045869e-09 -1.3321062e-09
0003e0 70 69 75 af d3 80 cf b0 27 85 41 b1 28 34 65 30
       -2.2320079e-10 -1.5097846e-09 -2.8160885e-09 8.3383833e-10
0003f0 ee c9 41 30 a2 13 7b 31 51 d4 44 b1 17 35 88 b1
       7.049995e-10 3.6536467e-09 -2.8642442e-09 -3.9641566e-09

adj_matrix f4 [80, 80]
000000 e2 38 0e 3f 00 00 00 00 38 8e 63 3d 00 00 00 00
       0.55555546 0.0 0.055555552 0.0
000010 36 8e 63 3d 00 00 00 00 00 00 00 00 00 00 00 00
       0.055555545 0.0 0.0 0.0
000020 00 00 00 00 00 00 00 00 00 00 00 00 00 00 00 00
       0.0 0.0 0.0 0.0
000030 00 00 00 00 00 00 00 00 00 00 00 00 00 00 00 00
       0.0 0.0 0.0 0.0
000040 00 00 00 00 00 00 00 00 00 00 00 00 00 00 00 00
       0.0 0.0 0.0 0.0
000050 00 00 00 00 00 00 00 00 00 00 00 00 38 8e 63 3d
       0.0 0.0 0.0 0.055555552
000060 00 00 00 00 00 00 00 00 00 00 00 00 00 00 00 00
       0.0 0.0 0.0 0.0
000070 00 00 00 00 00 00 00 00 00 00 00 00 00 00 00 00
       0.0 0.0 0.0 0.0
000080 00 00 00 00 00 00 00 00 00 00 00 00 00 00 00 00
       0.0 0.0 0.0 0.0
000090 00 00 00 00 00 00 00 00 00 00 00 00 00 00 00 00
       0.0 0.0 0.0 0.0
0000a0 38 8e 63 3d 00 00 00 00 00 00 00 00 00 00 00 00
       0.055555552 0.0 0.0 0.0
0000b0 00 00 00 00 00 00 00 00 00 00 00 00 00 00 00 00
       0.0 0.0 0.0 0.0
0000c0 00 00 00 00 00 00 00 00 00 00 00 00 00 00 00 00
       0.0 0.0 0.0 0.0
0000d0 00 00 00 00 00 00 00 00 36 8e 63 3d 00 00 00 00
       0.0 0.0 0.055555545 0.0
0000e0 00 00 00 00 38 8e 63 3d 00 00 00 00 00 00 00 00
       0.0 0.055555552 0.0 0.0
0000f0 00 00 00 00 00 00 00 00 38 8e 63 3d 00 00 00 00
       0.0 0.0 0.055555552 0.0
000100 00 00 00 00 00 00 00 00 00 00 00 00 00 00 00 00
       0.0 0.0 0.0 0.0
000110 00 00 00 00 00 00 00 00 36 8e 63 3d 00 00 00 00
       0.0 0.0 0.055555545 0.0
000120 00 00 00 00 00 00 00 00 00 00 00 00 00 00 00 00
       0.0 0.0 0.0 0.0
000130 00 00 00 00 00 00 00 00 00 00 00 00 00 00 00 00
       0.0 0.0 0.0 0.0
000140 00 00 00 00 00 00 80 3f 00 00 00 00 00 00 00 00
       0.0 1.0 0.0 0.0
000150 00 00 00 00 00 00 00 00 00 00 00 00 00 00 00 00
       0.0 0.0 0.0 0.0
000160 00 00 00 00 00 00 00 00 00 00 00 00 00 00 00 00
       0.0 0.0 0.0 0.0
000170 00 00 00 00 00 00 00 00 00 00 00 00 00 00 00 00
       0.0 0.0 0.0 0.0
000180 00 00 00 00 00 00 00 00 00 00 00 00 00 00 00 00
       0.0 0.0 0.0 0.0
000190 00 00 00 00 00 00 00 00 00 00 00 00 00 00 00 00
       0.0 0.0 0.0 0.0
0001a0 00 00 00 00 00 00 00 00 00 00 00 00 00 00 00 00
       0.0 0.0 0.0 0.0
0001b0 00 00 00 00 00 00 00 00 00 00 00 00 00 00 00 00
       0.0 0.0 0.0 0.0
0001c0 00 00 00 00 00 00 00 00 00 00 00 00 00 00 00 00
       0.0 0.0 0.0 0.0
0001d0 00 00 00 00 00 00 00 00 00 00 00 00 00 00 00 00
       0.0 0.0 0.0 0.0
0001e0 00 00 00 00 00 00 00 00 00 00 00 00 00 00 00 00
       0.0 0.0 0.0 0.0
0001f0 00 00 00 00 00 00 00 00 00 00 00 00 00 00 00 00
       0.0 0.0 0.0 0.0
000200 00 00 00 00 00 00 00 00 00 00 00 00 00 00 00 00
       0.0 0.0 0.0 0.0
000210 00 00 00 00 00 00 00 00 00 00 00 00 00 00 00 00
       0.0 0.0 0.0 0.0
000220 00 00 00 00 00 00 00 00 00 00 00 00 00 00 00 00
       0.0 0.0 0.0 0.0
000230 00 00 00 00 00 00 00 00 00 00 00 00 00 00 00 00
       0.0 0.0 0.0 0.0
000240 00 00 00 00 00 00 00 00 00 00 00 00 00 00 00 00
       0.0 0.0 0.0 0.0
000250 00 00 00 00 00 00 00 00 00 00 00 00 00 00 00 00
       0.0 0.0 0.0 0.0
000260 00 00 00 00 00 00 00 00 00 00 00 00 00 00 00 00
       0.0 0.0 0.0 0.0
000270 00 00 00 00 00 00 00 00 00 00 00 00 00 00 00 00
       0.0 0.0 0.0 0.0
000280 38 8e 63 3d 00 00 00 00 e4 38 0e 3f 00 00 00 00
       0.055555552 0.0 0.5555556 0.0
000290 38 8e 63 3d 00 00 00 00 00 00 00 00 00 00 00 00
       0.055555552 0.0 0.0 0.0
0002a0 00 00 00 00 00 00 00 00 00 00 00 00 00 00 00 00
       0.0 0.0 0.0 0.0
0002b0 00 00 00 00 00 00 00 00 00 00 00 00 00 00 00 00
       0.0 0.0 0.0 0.0
0002c0 00 00 00 00 00 00 00 00 00 00 00 00 00 00 00 00
       0.0 0.0 0.0 0.0
0002d0 00 00 00 00 00 00 00 00 00 00 00 00 39 8e 63 3d
       0.0 0.0 0.0 0.055555556
0002e0 00 00 00 00 00 00 00 00 00 00 00 00 00 00 00 00
       0.0 0.0 0.0 0.0
0002f0 00 00 00 00 00 00 00 00 00 00 00 00 00 00 00 00
       0.0 0.0 0.0 0.0
000300 00 00 00 00 00 00 00 00 00 00 00 00 00 00 00 00
       0.0 0.0 0.0 0.0
000310 00 00 00 00 00 00 00 00 00 00 00 00 00 00 00 00
       0.0 0.0 0.0 0.0
000320 39 8e 63 3d 00 00 00 00 00 00 00 00 00 00 00 00
       0.055555556 0.0 0.0 0.0
000330 00 00 00 00 00 00 00 00 00 00 00 00 00 00 00 00
       0.0 0.0 0.0 0.0
000340 00 00 00 00 00 00 00 00 00 00 00 00 00 00 00 00
       0.0 0.0 0.0 0.0
000350 00 00 00 00 00 00 00 00 38 8e 63 3d 00 00 00 00
       0.0 0.0 0.055555552 0.0
000360 00 00 00 00 39 8e 63 3d 00 00 00 00 00 00 00 00
       0.0 0.055555556 0.0 0.0
000370 00 00 00 00 00 00 00 00 39 8e 63 3d 00 00 00 00
       0.0 0.0 0.055555556 0.0
000380 00 00 00 00 00 00 00 00 00 00 00 00 00 00 00 00
       0.0 0.0 0.0 0.0
000390 00 00 00 00 00 00 00 00 38 8e 63 3d 00 00 00 00
       0.0 0.0 0.055555552 0.0
0003a0 00 00 00 00 00 00 00 00 00 00 00 00 00 00 00 00
       0.0 0.0 0.0 0.0
0003b0 00 00 00 00 00 00 00 00 00 00 00 00 00 00 00 00
       0.0 0.0 0.0 0.0
0003c0 00 00 00 00 00 00 00 00 00 00 00 00 00 00 80 3f
       0.0 0.0 0.0 1.0
0003d0 00 00 00 00 00 00 00 00 00 00 00 00 00 00 00 00
       0.0 0.0 0.0 0.0
0003e0 00 00 00 00 00 00 00 00 00 00 00 00 00 00 00 00
       0.0 0.0 0.0 0.0
0003f0 00 00 00 00 00 00 00 00 00 00 00 00 00 00 00 00
       0.0 0.0 0.0 0.0

feature_extractor.0.weight f4 [64, 4]
000000 1a 4e 70 34 1d de a5 b4 4d ac c3 30 70 26 29 ba
       2.2380155e-07 -3.0895254e-07 1.4237088e-09 -0.0006452566
000010 91 04 07 b1 9e a8 aa b0 18 86 b0 31 e6 6d f9 b2
       -1.9647681e-09 -1.2417052e-09 5.137519e-09 -2.9037391e-08
000020 1f 94 1e b5 57 38 65 b4 f6 72 20 b5 a2 3d 9f 39
       -5.907513e-07 -2.1347783e-07 -5.9771935e-07 0.00030372763
000030 88 c0 72 34 be fd 9a 30 8a 4a f1 b0 f2 dc 2e 32
       2.2608049e-07 1.1277093e-09 -1.7556243e-09 1.017837e-08
000040 be 5b 5a 34 24 b0 9f b0 b0 69 eb b1 4d 8c 77 b6
       2.0336208e-07 -1.1618835e-09 -6.8514154e-09 -3.6887534e-06
000050 3c bf 0e b2 3e ee 81 b0 0a af 27 31 ee 03 07 b4
       -8.3089695e-09 -9.453698e-10 2.4401197e-09 -1.2574284e-07
000060 2e 2b cf b3 0a 1e 0e b2 cc fc 84 31 56 a2 de 34
       -9.647043e-08 -8.272318e-09 3.8704453e-09 4.1468837e-07
000070 14 10 61 2e 2e 41 0e b6 fa 79 db b4 1a 2f ec b4
       5.1173357e-11 -2.1197588e-06 -4.0880678e-07 -4.3992696e-07
000080 a0 72 55 34 11 b8 3e b0 ac a6 77 b0 a1 6a af 3a
       1.9878871e-07 -6.938317e-10 -9.009493e-10 0.0013383218
000090 24 7f 21 31 e3 07 9a b3 88 e0 32 b0 10 ca 5b b2
       2.3500855e-09 -7.1726184e-08 -6.50751e-10 -1.2793421e-08
0000a0 6d 96 16 b0 68 a9 e3 30 da 23 33 b1 f3 0d 08 3a
       -5.478345e-10 1.6564572e-09 -2.6068308e-09 0.0005190067
0000b0 d2 6a 21 33 da 6b 58 b1 fd 7d 20 33 82 b0 fb 34
       3.7582886e-08 -3.1493443e-09 3.736749e-08 4.688082e-07
0000c0 61 9c 8e b2 cf 58 8f b2 b4 1e 13 b6 f7 a2 bc 38
       -1.6602089e-08 -1.6687776e-08 -2.1922579e-06 8.994893e-05
0000d0 7c cb 68 b4 76 28 5d b4 bf f4 34 b1 36 de b7 34
       -2.1680711e-07 -2.0596949e-07 -2.633257e-09 3.4248086e-07
0000e0 1f a6 82 31 7a 19 34 af 64 15 1a 34 7a 35 ef b5
       3.8023837e-09 -1.6379956e-10 1.435015e-07 -1.7822451e-06
0000f0 33 51 f6 af d7 1b 9b b2 5a 59 9c 31 80 d0 2f 32
       -4.4804835e-10 -1.8057035e-08 4.5503556e-09 1.0233748e-08
000100 cd 80 94 31 2e 6a 5a b0 89 52 a2 b4 f8 1c a6 37
       4.32201e-09 -7.945883e-10 -3.0234904e-07 1.9802232e-05
000110 b0 ee 08 b3 f9 cc 08 b3 a8 f2 f4 b4 f0 0f 3b 34
       -3.1882053e-08 -3.185139e-08 -4.5625097e-07 1.742153e-07
000120 e1 65 a2 35 dc 62 8a 34 fa 4a 17 b6 65 d1 55 b6
       1.2099591e-06 2.5776433e-07 -2.2544396e-06 -3.1861357e-06
000130 0f a3 05 32 d8 92 16 b1 ce 1e 56 30 81 55 00 ba
       7.778694e-09 -2.1911344e-09 7.789652e-10 -0.00048955536
000140 75 75 8f 32 4d 79 85 b2 d1 7d 1b b2 84 9d c4 31
       1.6700804e-08 -1.5538399e-08 -9.050795e-09 5.7222582e-09
000150 55 b1 ad 32 92 23 96 30 86 92 16 33 4d 76 9f 35
       2.0220492e-08 1.0924046e-09 3.505786e-08 1.1880853e-06
000160 37 fa 86 32 a8 46 8a 31 48 30 ec 30 ba f3 02 b2
       1.5713438e-08 4.0243613e-09 1.7184982e-09 -7.622413e-09
000170 d5 1f 0a 33 18 84 2b 32 86 19 48 b4 2a 4d e9 3b
       3.215958e-08 9.983545e-09 -1.8635737e-07 0.0071197944
000180 1a d0 4f b4 d1 d4 4b 31 10 1a 0e 30 63 16 53 b5
       -1.9354084e-07 2.966136e-09 5.1696336e-10 -7.86362e-07
000190 09 19 18 b3 58 d4 49 31 eb 6f 00 b0 b7 63 63 b6
       -3.5413027e-08 2.9370053e-09 -4.6725174e-10 -3.3883678e-06
0001a0 b4 d1 29 2f 62 84 a9 b2 18 aa 02 35 a7 b0 16 b3
       1.5444962e-10 -1.973439e-08 4.8676293e-07 -3.508526e-08
0001b0 96 ac 21 35 18 dc bd 32 f9 5e 26 36 d6 e0 01 32
       6.022832e-07 2.2102583e-08 2.479121e-06 7.55991e-09
0001c0 59 d3 9b 31 79 8e 70 b4 5c a6 f8 32 c8 cf 54 ba
       4.535121e-09 -2.2403573e-07 2.8946651e-08 -0.000811812
0001d0 f8 68 27 31 4d d2 1f 35 94 7f 0a b0 02 32 f8 ba
       2.4361366e-09 5.9538144e-07 -5.0385407e-10 -0.0018935802
0001e0 7b 90 33 2f f2 89 a4 b1 f1 db e1 2f dd 19 56 ba
       1.6331285e-10 -4.7887108e-09 4.108354e-10 -0.0008167306
0001f0 75 25 03 b3 8f 64 23 b3 45 7f 5c 31 60 45 06 b6
       -3.053488e-08 -3.8042852e-08 3.2086558e-09 -2.0007938e-06
000200 b7 db d4 b4 86 1b d5 30 ec 28 18 b5 6a ad 1d 3a
       -3.964794e-07 1.5505612e-09 -5.668396e-07 0.00060149154
000210 12 2c fe 34 cf 3e 5a 33 b0 45 54 31 e4 d0 30 b2
       4.7343252e-07 5.0814204e-08 3.0889673e-09 -1.02920445e-08
000220 f6 39 a6 34 db fa 1b b6 4c db 5c b1 45 cd 42 b1
       3.0962082e-07 -2.3242817e-06 -3.213887e-09 -2.8347398e-09
000230 fd b0 41 31 8d 9e 5e 34 c6 d8 79 34 66 93 35 b8
       2.8185803e-09 2.0733042e-07 2.3268794e-07 -4.329104e-05
000240 c7 7c aa 30 6b c2 85 30 d3 be 8f b2 ba 52 52 3c
       1.2404592e-09 9.73228e-10 -1.6734168e-08 0.012837106
000250 fb 54 98 b4 dc e3 92 b3 64 22 66 31 cc ec a0 33
       -2.8374038e-07 -6.840102e-08 3.3488954e-09 7.493654e-08
000260 80 ef 43 30 02 64 80 b4 08 4d 99 b4 2e 3e a9 37
       7.1280937e-10 -2.3914623e-07 -2.8554518e-07 2.0175325e-05
000270 e1 c2 ba b1 f5 8b d2 b0 6b 6b 5c 30 e5 79 1d 3c
       -5.4354676e-09 -1.5319289e-09 8.0188184e-10 0.009611581
000280 ca 23 ab b4 4a 68 fc 30 34 49 41 b0 fa 70 f8 35
       -3.1877272e-07 1.8365054e-09 -7.031702e-10 1.851032e-06
000290 e7 92 40 b1 cd 56 60 2f 10 6b 12 b2 d3 ec 08 3b
       -2.8023182e-09 2.0403519e-10 -8.522662e-09 0.0020893111
0002a0 82 58 86 30 68 f1 90 b2 7e ff 8a 32 9c 43 01 2e
       9.774939e-10 -1.6873585e-08 1.6181499e-08 2.9391253e-11
0002b0 ee 97 c4 32 4c 6c 7a b1 1f a2 12 b3 35 e8 e7 b1
       2.2886493e-08 -3.6441348e-09 -3.4140722e-08 -6.7493837e-09
0002c0 08 c0 7f b4 f1 f8 86 2f b2 12 4c 34 2d b6 60 b5
       -2.3818586e-07 2.4551342e-10 1.9005782e-07 -8.3711603e-07
0002d0 b5 cb bb b0 c1 2b 8f b2 87 60 d3 30 38 57 7e b2
       -1.3663938e-09 -1.6667288e-08 1.5379705e-09 -1.4804577e-08
0002e0 1e 36 7f b2 36 0c 5d b2 be 05 ab 31 61 e8 0e 32
       -1.4855258e-08 -1.28666695e-08 4.977408e-09 8.318325e-09
0002f0 d2 d2 a7 b0 07 dc 35 2f 7c 55 38 ae d8 26 e9 b2
       -1.2210768e-09 1.6540024e-10 -4.191268e-11 -2.7142434e-08
000300 6f de d2 b2 a3 c8 16 b5 c3 50 8f 30 e7 73 b8 32
       -2.4548369e-08 -5.617132e-07 1.0427573e-09 2.1473125e-08
000310 31 60 dd ae 86 8e ad af 0f c4 a3 af 27 23 58 36
       -1.00670035e-10 -3.1569786e-10 -2.9788835e-10 3.220697e-06
000320 56 63 b1 34 85 3a 92 b1 fd c5 e7 b4 c6 87 44 38
       3.3041096e-07 -4.255812e-09 -4.3171158e-07 4.685649e-05
000330 b4 b5 ae 2f 7e ec d8 b2 d1 ed 65 b2 b7 5e 28 35
       3.1779523e-10 -2.5253254e-08 -1.33836275e-08 6.2722705e-07
000340 e4 10 df af 00 4b 4e b1 cd b9 c5 b2 3c 63 f9 b6
       -4.0575465e-10 -3.0019578e-09 -2.301831e-08 -7.4323307e-06
000350 cf 25 1c 35 ee 01 e8 b2 42 44 2b b1 13 01 42 3a
       5.816955e-07 -2.7009232e-08 -2.4922575e-09 0.0007400673
000360 88 1a d8 b0 36 a9 5c b1 62 68 62 b1 72 55 f3 b1
       -1.5723609e-09 -3.2110399e-09 -3.2946663e-09 -7.081945e-09
000370 fd 2f ff 32 85 49 59 34 5b f6 10 b2 64 13 ad 32
       2.970773e-08 2.0236446e-07 -8.437918e-09 2.0148669e-08
000380 73 44 1d b6 13 6b 79 b2 6e 04 7e 34 f8 69 17 3a
       -2.3434666e-06 -1.4518053e-08 2.3657205e-07 0.00057759834
000390 3a 52 99 b3 73 9c 0c b6 70 66 f8 33 a6 d2 c0 3c
       -7.1395746e-08 -2.095269e-06 1.1567033e-07 0.023537945
0003a0 d1 70 a4 af 71 9e e4 b4 64 10 6e b2 db 09 e3 b6
       -2.9911587e-10 -4.258359e-07 -1.385715e-08 -6.7662745e-06
0003b0 18 45 52 ae 6f 93 79 b4 01 c6 12 35 63 bc 29 34
       -4.780984e-11 -2.3243568e-07 5.467737e-07 1.5807886e-07
0003c0 cf 6d 4d b1 1b 29 0b 32 41 21 b8 30 9b 89 03 bb
       -2.9893845e-09 8.100211e-09 1.3397213e-09 -0.0020071033
0003d0 98 a2 e7 b0 2b 19 d4 b3 21 8a 01 33 94 25 82 b8
       -1.6853674e-09 -9.876597e-08 3.016078e-08 -6.2058825e-05
0003e0 4f 64 b3 b0 4b a8 ac 31 bf 50 24 b1 f6 a5 49 b5
       -1.3052474e-09 5.0249915e-09 -2.391104e-09 -7.511984e-07
0003f0 f0 42 31 2e 8a 5d 77 31 09 b8 91 b1 d2 eb 63 b5
       4.0304593e-11 3.5996401e-09 -4.240978e-09 -8.4907253e-07

feature_extractor.0.bias f4 [64]
000000 d3 6a cf 32 8a 0e 90 b3 26 4a 80 b2 ea 69 0f 32
       2.414655e-08 -6.708167e-08 -1.493488e-08 8.347778e-09
000010 75 9d 1a 34 90 b2 68 b4 7d 9e 2f 34 78 9e 91 b1
       1.439965e-07 -2.1671644e-07 1.6355803e-07 -4.2380712e-09
000020 bc 5e 9f 31 e7 fe de 34 7a 26 16 30 59 00 91 2e
       4.638279e-09 4.1536188e-07 5.462436e-10 6.593898e-11
000030 ff 5f 96 30 56 f6 c1 34 b0 1e 30 af 70 0a 19 b6
       1.094122e-09 3.6128284e-07 -1.6018009e-10 -2.2804852e-06
000040 cc d6 aa af ea 4e 80 34 27 69 28 35 15 da b3 30
       -3.1075442e-10 2.3899275e-07 6.2737894e-07 1.3085947e-09
000050 34 1d 6a 34 bb 86 cf 2f d0 fa 87 32 11 44 1e b6
       2.1803572e-07 3.7748812e-10 1.5830125e-08 -2.3583455e-06
000060 8c 9a a2 2f 12 57 f9 b2 2d bf 48 30 6d 0f 1a 32
       2.957744e-10 -2.902701e-08 7.3031253e-10 8.967487e-09
000070 d8 c5 47 31 bd 5c 6f b1 78 42 52 b5 4c ca 5c b4
       2.9070772e-09 -3.4831793e-09 -7.832782e-07 -2.0562692e-07
000080 50 1f d4 b4 5c d7 2a b1 a9 b0 4b 2f e8 e3 40 31
       -3.951086e-07 -2.4860674e-09 1.8525505e-10 2.8069227e-09
000090 8d d2 db 34 18 0f d8 b5 df 71 a2 31 bd a8 47 b2
       4.0945125e-07 -1.6097647e-06 4.727766e-09 -1.1621691e-08
0000a0 40 09 ec 32 48 f1 24 30 d1 60 0c 31 e4 bb bb b0
       2.7478222e-08 6.0005734e-10 2.0427715e-09 -1.3659442e-09
0000b0 ca b7 60 af 63 28 01 b1 e3 62 52 31 53 8e 1f b0
       -2.0437976e-10 -1.8794928e-09 3.0615233e-09 -5.804612e-10
0000c0 12 0a 0f 34 80 0e d5 b4 2a ee 65 30 9f 26 9d 30
       1.3321576e-07 -3.9684892e-07 8.3648166e-10 1.143423e-09
0000d0 95 d4 36 31 ca e5 17 30 83 dc 64 34 1f c7 0e 32
       2.6605325e-09 5.526003e-10 2.1314376e-07 8.310763e-09
0000e0 07 c3 1e 35 69 5c 8b 2f 63 76 48 35 4a c1 04 31
       5.914339e-07 2.5349614e-10 7.467808e-07 1.93184e-09
0000f0 46 9f 54 b2 d6 3f 0a 36 1c a1 c7 b0 fe 2f 0f 30
       -1.2376239e-08 2.060076e-06 -1.4524946e-09 5.20913e-10

temporal_module.conv.0.weight f4 [64, 64, 3]
000000 40 7a 25 b3 07 28 e1 b1 53 01 3c b2 2e 27 ab b2
       -3.8528242e-08 -6.5529124e-09 -1.0943341e-08 -1.9924837e-08
000010 7e 14 8a af 7b 44 eb 30 18 32 9c 34 38 56 82 34
       -2.5116614e-10 1.7117964e-09 2.9093712e-07 2.427712e-07
000020 18 dc a2 34 55 c5 fd 31 c3 73 1e b1 a5 97 b1 b2
       3.033499e-07 7.385703e-09 -2.305783e-09 -2.0674472e-08
000030 ce 65 8c 30 d3 cc 23 b2 b0 f0 17 32 a5 79 2a b3
       1.0215275e-09 -9.53442e-09 8.844083e-09 -3.9691844e-08
000040 9f fa e4 b1 e4 32 e2 30 85 a0 1e 2f b8 4b 38 31
       -6.6641657e-09 1.6458128e-09 1.4427044e-10 2.6818565e-09
000050 16 a1 48 2f d8 9a 15 32 1e b0 a0 b1 e4 7c 32 b2
       1.8247123e-10 8.708149e-09 -4.676635e-09 -1.03893605e-08
000060 7f 09 f1 b4 6e ca db 34 d9 7b 92 35 69 f0 b0 b0
       -4.4896657e-07 4.0939216e-07 1.0913892e-06 -1.2874014e-09
000070 29 8b 13 b1 99 b2 0b 31 e4 5b 8c b4 47 d8 1f 34
       -2.1470419e-09 2.0328683e-09 -2.614389e-07 1.488671e-07
000080 f6 12 65 34 e5 cf 0e 31 bd 57 75 30 2d d1 e9 af
       2.1334185e-07 2.0781894e-09 8.9255164e-10 -4.2531081e-10
000090 38 4b 3d 34 ff 6d e2 33 aa c8 d4 32 15 92 e7 b1
       1.7629361e-07 1.0543953e-07 2.47713e-08 -6.7395924e-09
0000a0 47 c2 5d b1 b6 ac 52 b0 64 d1 1d b1 61 75 da b1
       -3.2270167e-09 -7.664299e-10 -2.2965532e-09 -6.3579795e-09
0000b0 12 4e 0a 30 8c 1c 3b 31 3a b1 e8 b1 e6 81 8b b1
       5.031505e-10 2.7228308e-09 -6.772237e-09 -4.0602e-09
0000c0 6e 1e ab 32 4e 5f aa b2 c0 72 34 33 c8 c4 92 31
       1.9920858e-08 -1.9833944e-08 4.201388e-08 4.2715307e-09
0000d0 b6 db b5 b0 27 28 e4 2f 6b ab 97 31 0d 5e 40 b1
       -1.3231929e-09 4.1501488e-10 4.4141664e-09 -2.799314e-09
0000e0 5c 67 3c b2 e5 fe 6b 33 08 91 54 b1 8f 5d 6d b0
       -1.09665415e-08 5.4947026e-08 -3.09325e-09 -8.635305e-10
0000f0 69 ce 9d b0 82 7b 0e b0 b8 83 36 ae 7c 03 f0 31
       -1.1481919e-09 -5.1834814e-10 -4.1499e-11 6.9853154e-09
000100 70 85 9f 2f 77 c1 df b1 dd 63 f2 30 26 9c 2a b1
       2.9016745e-10 -6.5121486e-09 1.76362e-09 -2.4827016e-09
000110 c8 b4 aa 31 4e cc a1 37 07 83 14 37 02 f1 f1 36
       4.9682036e-09 1.9287832e-05 8.851995e-06 7.2104167e-06
000120 83 49 eb 2f 90 df 58 30 6a a7 01 b1 d4 93 d2 2f
       4.2798484e-10 7.8898044e-10 -1.8867135e-09 3.8303816e-10
000130 a5 08 1a 32 5b 36 4f 32 b3 30 fa 30 2a 1a fd af
       8.965945e-09 1.2061345e-08 1.8203735e-09 -4.6039023e-10
000140 c6 09 9c 30 2d d7 eb 2f ec c7 03 31 64 5a b4 b1
       1.1353272e-09 4.2899143e-10 1.9176651e-09 -5.2489657e-09
000150 15 87 a8 b2 58 2f 7a 31 43 c2 9e b1 98 c9 bf 2f
       -1.9619202e-08 3.64067e-09 -4.62049e-09 3.4885939e-10
000160 74 38 32 b0 af 6b fa b0 a6 49 ad 2f ce 9d 83 2f
       -6.483625e-10 -1.82205e-09 3.1520847e-10 2.3940888e-10
000170 45 8b 2f 30 43 1a 30 b1 4c 1f db 31 4c b8 32 b0
       6.3862543e-10 -2.5626299e-09 6.377297e-09 -6.5017924e-10
000180 d5 67 2d 35 89 61 2a 35 5a 9b 3c 35 09 d8 d6 2f
       6.459862e-07 6.347187e-07 7.0261524e-07 3.9079875e-10
000190 11 56 3c b0 dd 97 81 2f 82 e6 0d b1 ff 07 06 32
       -6.851631e-10 2.357287e-10 -2.064923e-09 7.801645e-09
0001a0 90 c5 59 31 38 39 03 b1 70 c7 19 33 9d 1f ed 32
       3.1689957e-09 -1.9095534e-09 3.5804476e-08 2.7604807e-08
0001b0 e5 5e 7c b6 f2 7b b3 b5 06 1a 86 37 60 a5 c3 30
       -3.7606162e-06 -1.3372612e-06 1.5986163e-05 1.423512e-09
0001c0 86 80 7e b0 b1 20 06 b1 b1 d7 67 33 90 ea 57 33
       -9.2587304e-10 -1.951815e-09 5.398005e-08 5.027192e-08
0001d0 c4 fe c4 33 a1 09 82 37 95 92 17 37 e4 c0 fe 36
       9.173303e-08 1.5501691e-05 9.03443e-06 7.5922453e-06
0001e0 7c da a6 31 32 68 29 32 53 b2 19 31 3c 83 0d 35
       4.8560747e-09 9.860786e-09 2.2365796e-09 5.2717564e-07
0001f0 d5 68 b4 b4 a1 a2 d8 35 83 35 44 b0 00 b6 52 30
       -3.3603888e-07 1.6140585e-06 -7.138043e-10 7.665619e-10
000200 1f 33 47 2f 0a df d3 30 bc ec 24 31 7f 8a 25 31
       1.8117106e-10 1.5415662e-09 2.3999709e-09 2.4089386e-09
000210 dc 61 a5 2f e0 c9 bf 2e ae 17 a2 31 22 e7 4a 2f
       3.0082858e-10 8.7215346e-11 4.7175126e-09 1.8453908e-10
000220 87 c3 1e b1 6f bf 3c 2f bc 5e 2e 31 69 b6 2c b1
       -2.310317e-09 1.7166511e-10 2.5374183e-09 -2.5132982e-09
000230 3e 53 e3 30 1b c8 f4 b1 5e c0 42 b0 50 ed 9e 2f
       1.6540083e-09 -7.124084e-09 -7.085016e-10 2.8908653e-10
000240 3e c0 0b b0 a6 fe 03 31 00 d4 76 b0 e1 9b 98 31
       -5.08411e-10 1.920776e-09 -8.979555e-10 4.4415036e-09
000250 99 d8 0a 31 af 95 98 31 65 68 1c 32 71 7c 2e 33
       2.0204765e-09 4.4407993e-09 9.104132e-09 4.062571e-08
000260 03 f8 9a 33 01 56 22 32 13 09 13 b1 8f a0 18 32
       7.216297e-08 9.449196e-09 -2.1396473e-09 8.884071e-09
000270 45 ea f8 31 0d 5e d0 b0 23 6d dc b0 a8 3c 27 b5
       7.2443833e-09 -1.5160723e-09 -1.6038125e-09 -6.2300614e-07
000280 a7 89 52 b4 99 c0 dd 34 6a ee 92 2f 1a e9 a3 2f
       -1.9607852e-07 4.130459e-07 2.672665e-10 2.9815156e-10
000290 6e 19 dd 2f 7f fe 90 b0 b1 99 46 31 5b 9b cf b1
       4.0217735e-10 -1.0549711e-09 2.8900156e-09 -6.0421548e-09
0002a0 24 ce c6 33 da 4d 1e 35 a8 d7 04 35 c6 02 28 36
       9.25759e-08 5.8972876e-07 4.9487653e-07 2.5035565e-06
0002b0 a5 a4 84 36 1e 2e c1 36 2f 3b 0d 31 65 98 8a 2f
       3.9530737e-06 5.757217e-06 2.0551842e-09 2.5210337e-10
0002c0 c6 27 3a 30 1d 9d 88 30 1b 1e fb 30 1f 58 17 30
       6.772293e-10 9.939957e-10 1.827121e-09 5.505871e-10
0002d0 73 e0 5d 31 46 86 92 ae 10 64 9e b1 83 c3 04 33
       3.2287317e-09 -6.663163e-11 -4.609781e-09 3.0911462e-08
0002e0 00 e0 64 b3 b1 36 0a 32 b8 f2 e8 af 45 1e 25 30
       -5.3289114e-08 8.045093e-09 -4.2373016e-10 6.0069666e-10
0002f0 18 d7 2c 31 db ce 62 b1 7a 06 a7 31 31 a7 13 b1
       2.515156e-09 -3.3004912e-09 4.861076e-09 -2.1486353e-09
000300 da a1 b3 b1 cd 7d 2e 33 7d d5 c0 31 ba f3 90 b0
       -5.227986e-09 4.0626947e-08 5.6122063e-09 -1.054665e-09
000310 ee 2b 21 32 d1 87 0f b1 0b 18 61 33 37 7e 3d b5
       9.381422e-09 -2.0886441e-09 5.240876e-08 -7.0591653e-07
000320 87 f4 43 35 2e 09 bf 32 8c 11 19 32 b7 f9 ac 31
       7.2998995e-07 2.2239501e-08 8.909762e-09 5.034248e-09
000330 b9 e3 88 b2 9e e8 49 b1 8e 1d e9 30 b7 e7 1e b1
       -1.593604e-08 -2.9381577e-09 1.6961381e-09 -2.312374e-09
000340 4c fd 0e 31 06 8a d3 b0 a4 fa 80 2f 19 5a b0 30
       2.0807702e-09 -1.5391499e-09 2.3461155e-10 1.2831293e-09
000350 e2 48 37 2f 39 03 83 32 e2 c8 cf 31 10 c5 15 b0
       1.6669646e-10 1.5251873e-08 6.0473306e-09 -5.4485927e-10
000360 7f 73 9f 36 5a 01 0e b6 52 7c bb b5 f6 ef b4 31
       4.752015e-06 -2.1160436e-06 -1.3968768e-06 5.26597e-09
000370 58 c7 a8 2f f4 7d 37 b2 d0 8f 82 35 61 30 93 b3
       3.0700664e-10 -1.068064e-08 9.72761e-07 -6.854021e-08
000380 00 55 10 31 8a 5b ff b1 b2 41 1d 30 38 0f 2a 30
       2.1003075e-09 -7.4318836e-09 5.7209626e-10 6.1867267e-10
000390 88 7f 35 34 aa f5 b2 33 d1 82 82 34 45 88 f9 b0
       1.6903334e-07 8.333457e-08 2.4309568e-07 -1.8155865e-09
0003a0 fc b8 f0 b1 63 ea 54 31 1f 1a 97 b1 e1 33 f0 31
       -7.0059496e-09 3.0983294e-09 -4.397648e-09 6.9908173e-09
0003b0 88 f1 18 af 0d 89 ee 31 a6 ee d5 31 fe c6 b8 30
       -1.3910129e-10 6.9422925e-09 6.226247e-09 1.3444319e-09
0003c0 b4 32 74 33 ea 0a 60 32 15 f1 ca 33 af 4a 8e 30
       5.685679e-08 1.3040998e-08 9.4502106e-08 1.0353086e-09
0003d0 aa ae 34 31 62 e0 9c 30 47 26 0d b2 42 e3 8b b1
       2.6292732e-09 1.1414267e-09 -8.2159834e-09 -4.0712687e-09
0003e0 c2 14 3f b2 2c 3a 7c 33 7f 21 b0 30 d8 fc d3 31
       -1.1122383e-08 5.872623e-08 1.2815206e-09 6.1696532e-09
0003f0 0e b4 a9 b0 3e 20 09 31 46 a1 b8 30 ca 94 bd 32
       -1.2347543e-09 1.9954451e-09 1.3433599e-09 2.2070157e-08

temporal_module.conv.0.bias f4 [64]
000000 da e8 69 b0 00 04 56 b0 50 0b ea ae 7b 94 c8 30
       -8.509581e-10 -7.785843e-10 -1.06430975e-10 1.4594116e-09
000010 22 4f a1 2f bf 2b f3 2e da 6e 5a b0 05 9b 98 af
       2.9341957e-10 1.10581315e-10 -7.946547e-10 -2.7758787e-10
000020 1e 70 38 af b1 1e 3f b0 aa 6c 1a 30 ce 32 eb ae
       -1.6774535e-10 -6.952901e-10 5.6179295e-10 -1.06955875e-10
000030 80 6c 8c 2c 9a 15 2d 2f d2 74 b0 2f e9 02 2a 30
       3.9910852e-12 1.5741933e-10 3.209722e-10 6.1849775e-10
000040 06 e0 e2 2f da 38 f2 2d a4 44 5d 30 16 93 ee 2f
       4.126834e-10 2.7537462e-11 8.0496876e-10 4.339646e-10
000050 37 79 1b af e4 b0 fb ae 68 cc d6 2e 95 39 14 30
       -1.4140232e-10 -1.14455806e-10 9.767903e-11 5.3923915e-10
000060 ac e9 45 ae 84 a4 40 30 19 ae b8 af b8 44 93 ad
       -4.5000156e-11 7.0082984e-10 -3.359311e-10 -1.6742482e-11
000070 4e eb 7c 30 c4 8c d7 2d 91 d8 3d af cc 26 c9 af
       9.2011454e-10 2.4505183e-11 -1.726639e-10 -3.6589254e-10
000080 99 3f 68 30 bf c6 6d b0 e9 27 49 af 4b f1 98 30
       8.4491486e-10 -8.6502533e-10 -1.8295022e-10 1.1128035e-09
000090 1c 9e 10 b0 ec 89 ab 2d 1d f5 e5 2f 92 dc f5 af
       -5.261158e-10 1.9501699e-11 4.182902e-10 -4.4721965e-10
0000a0 95 aa 2a 30 90 0d 2d 30 82 c1 d4 2e 4f df 6c b0
       6.208805e-10 6.2956307e-10 9.675018e-11 -8.617364e-10
0000b0 ba e0 65 2f 22 ae 9d 2f 46 19 c4 2f 49 ed 24 2f
       2.0907268e-10 2.8681862e-10 3.567015e-10 1.5000014e-10
0000c0 1a 2b 1f ae 56 c7 ae af 9b 54 51 af 4e fa 7d b0
       -3.6190696e-11 -3.1792052e-10 -1.9038497e-10 -9.239657e-10
0000d0 b0 00 44 2e f6 fb e9 ae f8 94 e0 2e dc 73 8f 30
       4.456585e-11 -1.06403705e-10 1.0212803e-10 1.0437549e-09
0000e0 90 fb 11 30 61 e8 81 af b0 3a 05 30 b7 da 85 30
       5.3108185e-10 -2.3630078e-10 4.846852e-10 9.739186e-10
0000f0 ae f3 d1 2f 80 fe 85 30 2a 16 d9 ae e9 6f 7a b0
       3.8190023e-10 9.749357e-10 -9.8719546e-11 -9.1108504e-10

temporal_module.conv.1.weight f4 [64]
000000 6d 04 94 3c 5e bf 8f 3c 5c 72 8c 3c aa b6 12 3d
       0.018068517 0.017547306 0.017144375 0.035818733
000010 b0 ac 93 3c f1 10 01 3d d0 d2 dc 3c 5b ce 83 3c
       0.01802668 0.031510297 0.026955992 0.016089609
000020 7d 34 d5 3c 81 a7 c9 3c 82 39 83 3c 6e 9f b3 3c
       0.026026005 0.024616005 0.016018633 0.021926608
000030 8d 8c 82 3c 09 39 7d 3c 88 fb 8c 3c 05 69 89 3c
       0.01593616 0.015455493 0.017209783 0.01677371
000040 83 f7 88 3c 05 b6 88 3c 11 b3 8d 3c 4b 4d 87 3c
       0.016719585 0.016688356 0.0172973 0.016516348
000050 f3 5a 8a 3c eb 4a f0 3c ca ae 88 3c 11 1e 9e 3c
       0.016889071 0.029332599 0.016684908 0.019301446
000060 6c 9d 84 3c ad b7 0f 3d 7f 30 8e 3c 0d 28 85 3c
       0.016188346 0.035087276 0.01735711 0.01625445
000070 45 b1 e0 3c 4d 5e 83 3c b0 e8 87 3c 51 75 8e 3c
       0.027428279 0.016036177 0.016590446 0.017389925
000080 e8 52 8b 3c 7c ff 20 3d 3c 80 0c 3d 66 48 80 3c
       0.017007306 0.03930615 0.03430198 0.015659522
000090 72 65 0c 3d 7e c5 f1 3c 8c e1 b9 3c a0 e3 ef 3c
       0.034276433 0.029513117 0.022690557 0.029283345
0000a0 39 e1 cc 3c 62 c3 c8 3c ae 6e 84 3c f6 60 d9 3c
       0.025009738 0.024507228 0.016166057 0.026535492
0000b0 52 64 7e 3c fb 40 8b 3c af 02 8f 3c 55 04 8f 3c
       0.015526848 0.016998759 0.017457334 0.01745812
0000c0 60 3d f2 3c a8 19 8f 3c 08 ad 82 3c 74 d7 05 3d
       0.029570282 0.017468289 0.015951648 0.032676175
0000d0 5a 7e ce 3c ab 24 8c 3c 67 a7 89 3c 88 3c d4 3c
       0.025206733 0.017107328 0.016803456 0.02590777
0000e0 e4 36 85 3c 23 a2 09 3d fa 97 88 3c ad c0 24 3d
       0.016261525 0.03360189 0.01667403 0.040222812
0000f0 37 19 dd 3c 62 b2 07 3d d7 ca 9d 3c 9b 87 87 3c
       0.026989562 0.033129103 0.01926176 0.016544154

temporal_module.conv.1.bias f4 [64]
000000 f6 b0 47 b6 0b 8e 37 b6 51 d6 bf 36 17 18 9d 36
       -2.9756316e-06 -2.7351805e-06 5.7171933e-06 4.681769e-06
000010 5d 8e 21 37 72 fc e5 b6 e8 75 a7 35 ef 51 4f 34
       9.629494e-06 -6.8541203e-06 1.2476785e-06 1.9308185e-07
000020 ee 17 c7 b5 da 29 08 b5 11 0f 90 b6 0d 3d 0e b7
       -1.483362e-06 -5.072485e-07 -4.2932884e-06 -8.478074e-06
000030 58 17 0a 35 ff 10 f8 b3 6d 3a 30 b4 5d b9 b0 b5
       5.1442976e-07 -1.15514915e-07 -1.6412532e-07 -1.316697e-06
000040 69 d6 4e b6 c1 45 8b b6 c1 92 4b b5 a5 df d7 36
       -3.0821195e-06 -4.1506432e-06 -7.583695e-07 6.433535e-06
000050 c7 f4 cf 35 fc 86 83 36 2f ad 2a 34 c6 8e 5f b5
       1.5493941e-06 3.9198185e-06 1.5895488e-07 -8.3281736e-07
000060 24 c0 84 b3 2e fd 2f b7 ec 9d 3f 34 fb 7c 25 b4
       -6.181679e-08 -1.0489761e-05 1.7845713e-07 -1.541229e-07
000070 2e fe 7d 37 ff 17 45 37 2a 36 41 35 d1 8b 87 b5
       1.5139156e-05 1.1747702e-05 7.197692e-07 -1.0098976e-06
000080 c5 22 8c b6 d8 17 aa 36 e0 0d b5 b7 04 b8 13 b7
       -4.176373e-06 5.0691706e-06 -2.1583342e-05 -8.804727e-06
000090 7c 02 98 36 5a aa 65 b6 f5 f4 04 37 9a 5b 6e 36
       4.530242e-06 -3.4222817e-06 7.924847e-06 3.5518083e-06
0000a0 18 7c f0 35 5e ca b7 35 1e 76 89 b6 eb 56 8b 36
       1.791751e-06 1.3693459e-06 -4.096669e-06 4.1526414e-06
0000b0 63 9a 21 b5 dc 42 8c 34 3c 78 b5 36 c5 64 3a 37
       -6.0201836e-07 2.612568e-07 5.4082175e-06 1.1109926e-05
0000c0 07 83 c9 36 a1 64 57 b4 ab 68 d8 36 5f 74 45 b5
       6.0055204e-06 -2.0060044e-07 6.4494866e-06 -7.355756e-07
0000d0 f7 64 8e b7 07 ff 41 b6 1d b8 98 36 32 d7 4e b6
       -1.6974735e-05 -2.8907687e-06 4.5513866e-06 -3.0821652e-06
0000e0 de 1c e9 35 17 bd 50 b7 31 86 bb 36 3d b0 a0 36
       1.7368254e-06 -1.2441792e-05 5.588656e-06 4.7888884e-06
0000f0 4b 77 f1 b7 37 0b dd b6 49 1a b9 36 76 27 90 36
       -2.8784989e-05 -6.587619e-06 5.5164896e-06 4.2961283e-06

temporal_module.conv.1.running_mean f4 [64]
000000 3e 38 b2 3f 25 8e 2b c4 64 cf 38 43 52 87 0e 45
       1.3923414 -686.221 184.81012 2280.4575
000010 c3 db 37 c4 04 44 20 c4 c3 ab ec 45 e8 e3 dd c1
       -735.4338 -641.06274 7573.47 -27.736282
000020 98 09 0b c3 a4 6d 4a 45 c1 7a 93 c2 9d a4 16 c4
       -139.03748 3238.8525 -73.73975 -602.5721
000030 06 14 dc 42 9c 44 6c 43 eb 8e 10 c2 08 e6 1c c2
       110.03911 236.268 -36.13957 -39.22464
000040 b1 a7 ad 42 4c 93 12 c2 80 87 37 c2 a9 4c 04 43
       86.82752 -36.643845 -45.882324 132.29945
000050 cc f1 1b c3 e9 ed 37 45 e5 7b 0e c2 c1 af 4d 42
       -155.94452 2942.8694 -35.62099 51.421635
000060 50 7d 1d c2 b5 81 09 c4 4f 05 2c 42 9c 1e d4 c1
       -39.372375 -550.0267 43.005184 -26.514946
000070 3d 75 ea c4 9b 03 ba 41 ce 75 3c c2 69 bb d5 c2
       -1875.6637 23.25176 -47.115044 -106.866035
000080 eb 40 02 c4 ec be 82 46 4e 3c 4c c4 d2 58 22 c3
       -521.01434 16735.46 -816.94226 -162.34695
000090 0f 68 aa 46 35 fb 2c c4 f1 52 96 46 03 d7 98 45
       21812.03 -691.9251 19241.47 4890.8765
0000a0 3a 98 10 45 e0 1a 0e 46 57 7c 27 c2 ad a5 7c 45
       2313.5142 9094.719 -41.871426 4042.3547
0000b0 81 be cf 42 c6 e4 3f c2 c9 c5 00 c2 f6 46 92 c6
       103.87208 -47.97341 -32.19315 -18723.48
0000c0 75 c3 30 46 67 a4 54 44 d7 93 a1 42 c0 bc 3f 46
       11312.864 850.5688 80.78875 12271.1875
0000d0 df 77 2f 44 32 15 37 c2 3c e0 d1 42 f7 a9 ee 44
       701.873 -45.7707 104.93796 1909.3114
0000e0 a1 c3 b8 c2 65 ab d5 c3 a3 22 24 c3 d6 65 6a c5
       -92.38209 -427.33902 -164.1353 -3750.3647
0000f0 c2 6d 33 c4 43 ae 30 c4 8c 96 e5 42 78 ff 8d c2
       -717.71497 -706.72284 114.79404 -70.99896

temporal_module.conv.1.running_var f4 [64]
000000 e8 9f 83 47 50 24 15 4b c3 17 0c 49 ab 01 ac 4c
       67391.81 9.77416e+06 573820.2 9.018095e+07
000010 69 80 16 4b 84 33 01 4b 6b 74 86 4e 25 e1 88 46
       9.863273e+06 8.467332e+06 1.1278883e+09 17520.572
000020 2e e9 f2 4b 0d a8 28 4d 53 a8 f3 47 28 e8 c6 4a
       3.1838812e+07 1.768491e+08 124752.65 6.51778e+06
000030 88 ef 76 48 0b be 83 49 ad f5 ed 46 3a 82 03 47
       252862.12 1.0792334e+06 30458.838 33666.227
000040 a7 2e 03 48 dd 9d 04 47 98 9f 22 47 fb ca 9a 48
       134330.61 33949.863 41631.594 317015.84
000050 46 bd f4 48 fc d5 1e 4d bd a7 8a 47 e3 65 8a 47
       501226.2 1.6655149e+08 70991.48 70859.77
000060 35 75 24 47 2a 42 a7 4a 96 80 9e 47 3b 15 7d 46
       42101.207 5.480725e+06 81153.17 16197.308
000070 c3 ba 71 4c 45 c0 50 48 c6 4b 45 47 eb 24 40 48
       6.3367948e+07 213761.08 50507.773 196755.67
000080 c9 2e c7 4a 4b 6f a2 4f 64 bb 39 4b c1 d8 e5 48
       6.5268205e+06 5.4504054e+09 1.2172132e+07 470726.03
000090 26 13 09 50 cd fe ff 4a 5d 79 d2 4f d1 c0 d6 4d
       9.198934e+09 8.3884545e+06 7.062338e+09 4.5037008e+08
0000a0 cc 86 b6 4c ac f5 a7 4e b3 c8 28 47 f8 37 9d 4d
       9.569648e+07 1.4089477e+09 43208.7 3.2971136e+08
0000b0 fa 40 35 48 a0 a2 30 47 67 94 9a 46 ed 12 a8 4f
       185603.9 45218.625 19786.201 5.639625e+09
0000c0 be 4c 15 4f 54 cd 32 4b 83 c8 46 48 fe 74 2f 4f
       2.5048346e+09 1.1717972e+07 203554.05 2.94368e+09
0000d0 55 b9 a6 4b 51 9f 1a 47 ef a8 55 48 3e a0 83 4c
       2.1852842e+07 39583.316 218787.73 6.90099e+07
0000e0 4d 0e 16 48 47 8e 60 4a c0 22 de 48 a3 0b 5a 4d
       153657.2 3.6791218e+06 454934.0 2.2863723e+08
0000f0 c1 fd 09 4b 1d 71 19 4b bc 15 8e 48 d0 62 d5 47
       9.043393e+06 1.0055965e+07 290989.88 109253.625

spatial_attention.attention.0.weight f4 [64, 128]
000000 ac 86 e7 2f d5 8c 05 31 3b 6d a4 b0 24 a0 f5 30
       4.2114345e-10 1.94341e-09 -1.1963616e-09 1.7871611e-09
000010 01 eb a2 30 bc 28 51 31 ae 4a eb b0 ff 3c a3 2f
       1.1853843e-09 3.0436658e-09 -1.7119726e-09 2.9692868e-10
000020 f3 a9 48 b0 93 9f 0a b0 bc 1f f8 30 a5 b8 11 2f
       -7.300109e-10 -5.0430876e-10 1.8053394e-09 1.3253272e-10
000030 7c ac 86 30 c9 06 95 30 9e bf 3a 30 5a 3b ac 2e
       9.798806e-10 1.0843105e-09 6.793871e-10 7.8321974e-11
000040 15 28 ce 30 ae 35 33 30 50 9c 24 2c 0d 5f b6 af
       1.4999865e-09 6.5196104e-10 2.3392573e-12 -3.3173145e-10
000050 49 b5 d7 2f e9 51 fd 30 75 eb 7c 31 46 7b 7d 2f
       3.9237083e-10 1.8431453e-09 3.6804668e-09 2.3054011e-10
000060 f7 de 7d b0 34 a5 89 31 a9 3e 9c b0 f8 d0 9a b0
       -9.2357716e-10 4.006006e-09 -1.1368303e-09 -1.1264367e-09
000070 54 d6 d4 2f 9f 27 a2 30 83 97 1d 30 a8 4d 05 b0
       3.8714865e-10 1.1798312e-09 5.733158e-10 -4.8495474e-10
000080 05 c8 a0 b0 60 f5 71 af b4 54 23 31 13 9f ee 2f
       -1.1698381e-09 -2.2005997e-10 2.376777e-09 4.3404977e-10
000090 a2 1e 4b af 2f 52 c2 b0 b9 84 ca b0 b0 10 96 30
       -1.8473625e-10 -1.4138716e-09 -1.4735156e-09 1.0918679e-09
0000a0 e4 34 99 30 16 03 6c 31 c9 88 72 b0 90 9f c6 b0
       1.1147248e-09 3.4344274e-09 -8.823347e-10 -1.4451746e-09
0000b0 fd c0 eb 30 aa a5 c6 b0 fa 69 9d b0 18 c4 bf b0
       1.7153351e-09 -1.4453481e-09 -1.1453374e-09 -1.3952812e-09
0000c0 30 cd 1d 31 62 72 d3 30 ce b9 a9 30 b1 3b 38 31
       2.2963142e-09 1.538478e-09 1.2349177e-09 2.6809455e-09
0000d0 82 f5 b0 31 d6 c0 c9 af c8 cd e5 2f bd 95 2a b1
       5.150185e-09 -3.6698705e-10 4.1801074e-10 -2.4823372e-09
0000e0 8a 7a ab af 18 ec 63 b1 c0 93 e5 30 fa 9e b8 30
       -3.1191788e-10 -3.3167051e-09 1.6703936e-09 1.3432946e-09
0000f0 60 f6 2c b1 f3 1b 3f 30 3e ab bf ae 65 64 10 af
       -2.5169342e-09 6.9525113e-10 -8.716093e-11 -1.3132391e-10
000100 80 b8 3b 31 10 c4 83 32 54 3e 0d 2e 0c 42 3f b0
       2.7316958e-09 1.5339566e-08 3.2115047e-11 -6.9579253e-10
000110 e0 f7 e3 31 15 6f 2a b2 11 68 1d af 86 d3 6f b1
       6.6347496e-09 -9.9205595e-09 -1.4316039e-10 -3.4899315e-09
000120 72 93 2b b2 bc 26 0b b1 67 0c 65 30 be 10 8d 31
       -9.987035e-09 -2.024918e-09 8.332734e-10 4.1055435e-09
000130 ac 3c 35 30 28 c4 de 30 64 f6 c8 b0 08 31 2d b0
       6.5933636e-10 1.6208377e-09 -1.4621944e-09 -6.300671e-10
000140 54 60 bf b0 e2 bb bf 2f 5f e0 5e b0 c9 61 03 b0
       -1.3924457e-09 3.4876196e-10 -8.108198e-10 -4.7796483e-10
000150 31 ec 68 b0 17 ee d0 b1 55 ec 09 31 84 69 33 2f
       -8.4736757e-10 -6.0806644e-09 2.0070463e-09 1.6317442e-10
000160 3f 5a 66 b0 ae 66 4f b1 44 3f a8 30 f3 a6 29 31
       -8.380176e-10 -3.0180831e-09 1.224159e-09 2.4687636e-09
000170 73 4c 69 31 46 a3 19 b0 e7 73 ba 30 ac 34 21 af
       3.3949419e-09 -5.58931e-10 1.3566223e-09 -1.4661578e-10
000180 c8 65 70 b0 88 89 94 31 76 4e da b0 ff f3 11 30
       -8.745613e-10 4.3230024e-09 -1.5883888e-09 5.309743e-10
000190 2b 82 61 b0 ab cb 1c af c4 d3 03 30 15 c1 9b 30
       -8.2039503e-10 -1.4260475e-10 4.795846e-10 1.1332612e-09
0001a0 d4 e0 15 b1 da c8 b1 b1 87 fb ac b0 57 f7 1a b1
       -2.1810154e-09 -5.174212e-09 -1.2586135e-09 -2.2550546e-09
0001b0 78 e0 43 b0 bf 81 0d 31 87 75 1b 30 84 cb bf af
       -7.1259576e-10 2.0591953e-09 5.655569e-10 -3.4887304e-10
0001c0 c4 df 75 30 c6 f6 26 31 62 6c c7 30 d7 0c 99 2f
       8.944847e-10 2.4296454e-09 1.450996e-09 2.783966e-10
0001d0 f0 c2 f4 2f 4b 10 89 2f b4 d5 e2 b0 bd 9f 6b b2
       4.4521853e-10 2.4931732e-10 -1.6504402e-09 -1.3715121e-08
0001e0 d4 ea 39 b0 12 8c 3e 32 17 84 26 b0 0f eb 5c b1
       -6.763632e-10 1.1091304e-08 -6.057816e-10 -3.2147829e-09
0001f0 cd 30 c6 31 fe f4 70 b1 40 3f 06 30 df df 0c b1
       5.7681064e-09 -3.5063858e-09 4.88388e-10 -2.0499937e-09
000200 6b c8 ca b0 22 98 c3 b2 03 fa 3f 30 4c 6d db b2
       -1.4754397e-09 -2.277017e-08 6.9840683e-10 -2.5544658e-08
000210 28 68 f9 31 b0 86 a1 b2 99 90 07 b2 7c 82 15 af
       7.258695e-09 -1.8804116e-08 -7.890912e-09 -1.3597828e-10
000220 c3 08 1e b2 c2 30 a2 31 1f 90 bc b0 99 fd fc b2
       -9.198803e-09 4.7203637e-09 -1.3719762e-09 -2.9451984e-08
000230 f2 d7 f6 2f 0f 97 2c b1 88 3f b5 31 a7 31 dd b0
       4.4900578e-10 -2.511516e-09 5.275016e-09 -1.6093978e-09
000240 df a9 cc 30 b7 69 c7 2f c4 eb bd ae 76 89 1f b0
       1.4891234e-09 3.6273004e-10 -8.636605e-11 -5.8039207e-10
000250 8a b1 14 af 46 78 81 31 26 ba 7e b0 86 bd 8a 30
       -1.3523596e-10 3.7680676e-09 -9.2669195e-10 1.0094687e-09
000260 20 39 71 b0 69 5f c2 b2 b2 83 77 b0 68 f2 9f b1
       -8.775647e-10 -2.262796e-08 -9.0045227e-10 -4.6550674e-09
000270 67 8d 00 b3 8b be 89 b1 14 f7 61 2f dc 9f 92 b0
       -2.9930927e-08 -4.008887e-09 2.055141e-10 -1.0668333e-09
000280 2d a1 82 b2 4f 96 a2 31 06 c8 84 b2 93 e8 d4 30
       -1.5207286e-08 4.7319086e-09 -1.5457783e-08 1.5491132e-09
000290 10 94 06 32 b4 7a f3 32 8e ae ba 32 db 56 b9 b2
       7.833492e-09 2.8344722e-08 2.1732628e-08 -2.1576332e-08
0002a0 85 9d e0 b2 14 8d da 32 38 e5 d1 2e 8e 30 13 b2
       -2.6148664e-08 2.5442695e-08 9.544937e-11 -8.567566e-09
0002b0 dd ce 3e b1 e2 12 af b1 f5 37 dd b0 54 5f a0 2f
       -2.7766227e-09 -5.095317e-09 -1.609577e-09 2.9171565e-10
0002c0 a0 c0 72 b1 19 78 a4 b2 7d e1 c0 b0 a6 14 ef b2
       -3.532513e-09 -1.9146727e-08 -1.4033926e-09 -2.7832652e-08
0002d0 0c 1f 50 b2 ab 1c ae af 12 06 a6 2d c1 d4 f6 32
       -1.2114253e-08 -3.1670785e-10 1.887471e-11 2.8734918e-08
0002e0 29 94 da af 0f 4f 2a b2 f3 cc 0a b0 46 bc c6 32
       -3.9759243e-10 -9.913278e-09 -5.049536e-10 2.313585e-08
0002f0 7a c8 1a b1 8e ea 65 b2 8b 8d db 30 2d 58 34 31
       -2.2523907e-09 -1.3382886e-08 1.5974576e-09 2.624357e-09
000300 2e be ee af b8 f0 96 b1 5a 1e 80 2f 3f 1a 5c 32
       -4.3427079e-10 -4.392941e-09 2.330463e-10 1.2811653e-08
000310 4c 81 8d b1 90 b4 34 af 6c 94 21 b2 ce 8e 6c 32
       -4.1183394e-09 -1.6435053e-10 -9.405181e-09 1.3769478e-08
000320 2b bf bb 32 ba df 82 31 e0 2d 51 b0 57 92 2e b2
       2.1856598e-08 3.8089327e-09 -7.609895e-10 -1.0161407e-08
000330 38 1a 07 31 27 c8 76 31 de ac 05 b2 ff 1f 8e b0
       1.965999e-09 3.5911485e-09 -7.780924e-09 -1.0340954e-09
000340 8b e3 bf 30 76 6b 6c 30 21 5e 8b 31 99 8c 1e 31
       1.3961751e-09 8.600901e-10 4.0561337e-09 2.3071947e-09
000350 6c 89 85 31 1b 0d 84 31 a0 6b c8 2d 16 65 d3 30
       3.8864325e-09 3.8431955e-09 2.2785163e-11 1.5381001e-09
000360 90 19 fc af 9e c7 ee 30 a8 42 08 b0 80 3b 60 31
       -4.5856696e-10 1.7373514e-09 -4.9571236e-10 3.2630112e-09
000370 0c 75 a8 31 10 71 e4 ae db b8 0b b1 32 c3 b6 2f
       4.90275e-09 -1.03883235e-10 -2.033224e-09 3.3244302e-10
000380 2e 9a 2a b1 a2 e9 68 31 bc e6 ea af e0 d3 73 b0
       -2.4825897e-09 3.3893248e-09 -4.27283e-10 -8.870398e-10
000390 bd 46 cb b1 7d a7 69 31 56 b3 b5 31 44 fb 45 32
       -5.9161196e-09 3.4001169e-09 5.2881814e-09 1.152404e-08
0003a0 5d 99 56 31 02 a1 a1 30 d1 a0 82 30 1d 32 3c 32
       3.1228276e-09 1.1760053e-09 9.504452e-10 1.0954435e-08
0003b0 17 4c 93 b0 57 49 df 31 31 24 6d b0 cd e0 41 af
       -1.0717284e-09 6.498492e-09 -8.627153e-10 -1.7633113e-10
0003c0 4b a8 22 30 18 b4 51 b2 54 b8 cf b0 49 da 84 32
       5.9174415e-10 -1.220635e-08 -1.5113621e-09 1.5466087e-08
0003d0 66 87 0a b2 a1 ee 86 31 aa 81 8d 30 0f fc 0d 32
       -8.063443e-09 3.9270422e-09 1.0295953e-09 8.264592e-09
0003e0 70 3e fb 30 67 0c 80 b2 ae 7a e8 b0 2a 4f fc 31
       1.8280399e-09 -1.4906801e-08 -1.6915089e-09 7.343165e-09
0003f0 f1 dc 13 32 65 2a 81 b2 4b 46 f1 b0 4f 72 24 b1
       8.606762e-09 -1.5036855e-08 -1.7555036e-09 -2.3930118e-09

spatial_attention.attention.0.bias f4 [64]
000000 b9 47 95 31 ae e1 36 b2 57 54 6c b0 95 36 ab b5
       4.3446247e-09 -1.0645108e-08 -8.5976154e-10 -1.2756378e-06
000010 89 c4 32 b2 a9 00 34 b2 d0 e1 18 b2 96 d8 6e b1
       -1.0405651e-08 -1.0477529e-08 -8.898908e-09 -3.4756673e-09
000020 e8 76 e2 b2 cb b3 d0 32 d9 50 93 32 8d 9e a6 b2
       -2.6363935e-08 2.4296147e-08 1.7149818e-08 -1.9397044e-08
000030 45 23 2e b2 76 84 43 b1 64 70 67 b3 7f 60 1d b3
       -1.0136152e-08 -2.845153e-09 -5.3886097e-08 -3.6642174e-08
000040 3e db 7c b2 5f 50 3a b0 81 92 b0 b1 c0 ae 43 ae
       -1.47181805e-08 -6.778062e-10 -5.1389297e-09 -4.4493076e-11
000050 ef b1 41 33 57 bc 1b 33 c4 41 96 b2 fa b7 76 32
       4.5098144e-08 3.6260044e-08 -1.7492205e-08 1.4360916e-08
000060 8a 33 ec b0 9b f2 14 b5 4b c4 b6 32 47 f8 29 b3
       -1.7185908e-09 -5.5487334e-07 2.1276852e-08 -3.9574186e-08
000070 38 f1 db b1 9b 25 f7 b3 0e 09 e4 b1 5e f4 8a 30
       -6.4011623e-09 -1.1508674e-07 -6.6367027e-09 1.0110275e-09
000080 be 4a 02 34 6b ee 38 b2 ed ac c5 31 bc 5a 70 32
       1.2134385e-07 -1.076442e-08 5.753114e-09 1.3990469e-08
000090 f7 ea 32 31 22 48 5a 34 03 cc 07 b2 7c 62 d8 b0
       2.6035971e-09 2.0329074e-07 -7.904421e-09 -1.5744059e-09
0000a0 7e 9c 20 33 f7 b7 be 33 07 b0 07 31 47 a5 59 b2
       3.7395232e-08 8.8810275e-08 1.9745146e-09 -1.2668642e-08
0000b0 14 2f 7d b1 d4 5f 34 32 a0 51 11 b2 a2 a6 a1 b2
       -3.6843106e-09 1.0499168e-08 -8.45867e-09 -1.8818643e-08
0000c0 c8 35 84 32 70 ae c9 af a1 29 55 b1 43 23 59 32
       1.539128e-08 -3.6685632e-10 -3.1019243e-09 1.263908e-08
0000d0 d9 90 f3 32 55 99 b4 32 f9 2f f9 30 bd 28 89 31
       2.8354792e-08 2.1024485e-08 1.8130769e-09 3.991856e-09
0000e0 c8 e8 a3 31 48 9c b3 ae fa b2 6e 32 ad 7a ed 32
       4.7703885e-09 -8.167739e-11 1.3894118e-08 2.7646218e-08
0000f0 3e 46 11 33 17 50 b2 b2 c9 36 b8 b1 60 8d f7 b2
       3.382433e-08 -2.0758348e-08 -5.361333e-09 -2.8818874e-08
