scripts/outputs/training_20250522_003445/best_model.pt (torch, 194869 bytes, 20 tensors)

adaptive_adj f4 [80, 80]
-0.068476774 -0.14328566 -0.0041524596 -0.11916238 -0.078330494 0.1265682 0.02425319 0.16339919
-0.10234842 0.06957635 -0.03674293 -0.15659328 -0.12031965 -0.007943734 0.10515843 0.12761733
-0.16039652 0.064373076 0.07790837 -0.08592786 -0.06919778 -0.10002832 -0.1780909 0.16977161
-0.15226696 0.07630466 -0.06288578 -0.18890779 0.099431835 0.0043296716 -0.010904363 -0.094488524
0.0009272173 0.080676995 0.04200979 -0.17962424 -0.1531177 -0.12634715 0.13512461 -0.012151644
-0.071848676 0.028254887 -0.030215288 0.038139794 -0.15863319 -0.030973412 0.1923384 0.009644741
0.18630593 0.13378583 -0.0008026655 0.16095836 -0.048788495 0.13649711 0.015954984 -0.1898231
0.06838996 0.024093533 -0.12724301 0.11550798 -0.1444559 -0.17546633 -0.018505622 0.032792132
0.15913181 -0.097411 -0.10398715 0.03503586 0.18017927 0.17950112 -0.03673584 -0.012195972
-0.037237618 0.18627112 0.031347565 0.0133247245 0.04886704 -0.14575434 -0.017272867 -0.1546591
0.057732534 0.13161933 0.030498007 -0.05804654 0.14105 0.0280822 -0.15876864 -0.16291365
0.08286781 0.14886358 0.17298259 0.04703428 -0.1266098 -0.12753281 0.018054206 0.110566996
-0.039395582 0.06889314 0.1164299 0.08039592 -0.04761652 -0.038782362 -0.121004045 0.0014692354
-0.16635709 0.13357563 0.039039277 0.07961499 0.15588251 -0.05118784 0.016296657 -0.06679118
0.09056119 0.0738289 0.108000025 -0.007887783 0.07806155 -0.107401624 -0.11302866 -0.15995654
0.10679787 -0.17875789 -0.07625914 -0.024525542 -0.018608058 0.14690617 0.17575209 -0.082821615
-0.02569326 -0.15853961 -0.10855389 -0.066064864 -0.038456842 0.1304425 -0.04196931 0.051251385
-0.15312046 -0.06848481 0.0215478 -0.05972235 0.16779515 -0.021902671 0.17452745 0.088167295
0.079743035 -0.17679432 0.092657894 -0.13996978 0.189199 0.1383881 -0.08755703 0.033946738
0.059426714 -0.16319916 0.03439957 -0.008643134 0.04350201 0.13652359 -0.096628346 -0.17478576
-0.13181785 0.0126028685 -0.035039462 -0.118486494 -0.066388205 0.086028025 -0.1231667 0.12934205
0.100011826 -0.05952972 -0.030830981 0.044025198 0.10867264 -0.012341993 -0.107022695 0.16194375
-0.036613636 0.062281877 0.1745907 0.037616927 0.16636859 -0.04429358 -0.10020546 0.09589161
0.17712456 0.19134046 0.18881902 0.051511712 -0.18151478 0.16157036 0.17781238 -0.17157897
-0.0011393102 -0.0008646594 -0.014646975 0.10051811 -0.09085274 -0.08211871 -0.14517781 -0.04767052
-0.10232036 -0.09707863 0.12651373 -0.023481505 -0.14005485 -0.10058143 0.05859468 -0.08853966
0.16283117 0.07562132 -0.11117026 -0.13344769 -0.074506 -0.15450637 0.12633745 -0.14645363
0.0949222 -0.09723296 0.06187576 0.04032759 0.087653905 0.08406523 0.1320335 0.13625737
0.17194107 -0.05597444 -0.120741025 -0.025818644 -0.06395669 -0.013197685 -0.08280947 -0.14908527
-0.044109162 0.18497269 0.14884198 -0.07047889 0.13945775 -0.027782299 -0.029498508 -0.17926595
0.16931492 -0.17924382 0.052435804 -0.16485877 0.15817931 -0.17308916 0.08694498 -0.18148607
0.026179275 0.10792057 0.16563052 -0.00020100345 0.16016723 0.1259209 0.14292078 0.13805771
00000000: 8d3d 8cbd 7ab9 12be 5b11 88bb 680b f4bd
00000010: bd6b a0bd 189b 013e a0ae c63c 1e52 273e
00000020: 0c9c d1bd 0c7e 8e3d c17f 16bd fd59 20be
00000030: 266a f6bd 6f26 02bc 4e5d d73d 1eae 023e
00000040: fc3e 24be 08d6 833d 6c8e 9f3d f2fa afbd
00000050: 91b7 8dbd a6db ccbd 765d 36be 9cd8 2d3e
00000060: dfeb 1bbe 9e45 9c3d 43ca 80bd 0b71 41be
00000070: eba2 cb3d ebdf 8d3b 37a8 32bc 3383 c1bd
00000080: 8010 733a fb39 a53d 7512 2c3d 6bef 37be
00000090: e3ca 1cbe 2661 01be 1b5e 0a3e b017 47bc
000000a0: 6625 93bd cb76 e73c 0d86 f7bc 7938 1c3d
000000b0: bd70 22be f4bb fdbc 5cf4 443e fa04 1e3c
000000c0: fbc6 3e3e 27ff 083e f869 52ba 45d2 243e
000000d0: 72d6 47bd e6c5 0b3e 07b4 823c fd60 42be
000000e0: 0910 8c3d cd5f c53c fe4b 02be 738f ec3d
000000f0: 3fec 13be 72ad 33be 1a99 97bc 0b51 063d
00000100: 73f3 223e 6b7f c7bd 37f7 d4bd c381 0f3d
00000110: ea80 383e 24cf 373e 5278 16bd 9dd1 47bc
00000120: 7986 18bd dbbd 3e3e 4e66 003d f24f 5a3c
00000130: ce28 483d a040 15be d47f 8dbc f55e 1ebe
00000140: f378 6c3d 38c7 063e f5d6 f93c 35c2 6dbd
00000150: 696f 103e a40c e63c 3f94 22be d6d2 26be
00000160: 99b6 a93d b26f 183e 5922 313e 04a7 403d
00000170: 00a6 01be f697 02be 6ae6 933c f370 e23d
00000180: 435d 21bd d917 8d3d cd72 ee3d 9ea6 a43d
00000190: 8a09 43bd 41da 1ebd f8d0 f7bd 5c93 c03a
000001a0: 8359 2abe 0dc8 083e a6e7 1f3d 2f0d a33d
000001b0: aa9f 1f3e 57aa 51bd 9180 853c d0c9 88bd
000001c0: 2578 b93d 9b33 973d 1e2f dd3d c33b 01bc
000001d0: bcde 9f3d 62f5 dbbd 927b e7bd a6cb 23be
000001e0: d7b8 da3d 4f0c 37be c12d 9cbd cae9 c8bc
000001f0: ed6f 98bc 926e 163e 5bf8 333e 619e a9bd
00000200: ac7a d2bc 3558 22be 8051 debd 044d 87bd
00000210: ec84 1dbd b892 053e 03e8 2bbd f9ec 513d
00000220: 9ccb 1cbe c441 8cbd 0385 b03c 6c9f 74bd
00000230: 7ed2 2b3e 3b6d b3bc 53b7 323e 0e91 b43d
00000240: 5150 a33d 9209 35be 6cc3 bd3d 3d54 0fbe
00000250: 62bd 413e 9cb5 0d3e 1a51 b3bd bc0b 0b3d
00000260: 6d69 733d ae1d 27be 90e6 0c3d ee9b 0dbc
00000270: 2a2f 323d d7cc 0b3e 15e5 c5bd 0afb 32be
00000280: 42fb 06be 437c 4e3c 8a85 0fbd 0ca9 f2bd
00000290: 8af6 87bd 762f b03d d33e fcbd 3e72 043e
000002a0: 00d3 cc3d 70d5 73bd 4191 fcbc c453 343d
000002b0: c38f de3d 1236 4abc b72e dbbd 95d4 253e
000002c0: 2ef8 15bd 481b 7f3d e8c7 323e 3514 1a3d
000002d0: 875c 2a3e 2f6d 35bd 8538 cdbd d262 c43d
000002e0: 2460 353e c1ee 433e c659 413e f2fd 523d
000002f0: 03df 39be b372 253e 7314 363e 66b2 2fbe
00000300: e854 95ba 4faa 62ba def9 6fbc 70dc cd3d
00000310: 0011 babd db2d a8bd 7ea9 14be 2a42 43bd
00000320: 568d d1bd 29d1 c6bd d18c 013e 495c c0bc
00000330: 8a6a 0fbe a3fd cdbd fa00 703d 4854 b5bd
00000340: 37bd 263e 5adf 9a3d 3cad e3bd 83a6 08be
00000350: 9a96 98bd eb36 1ebe 9b5e 013e f1f7 15be
00000360: 9266 c23d 1322 c7bd 7071 7d3d 8b2e 253d
00000370: e483 b33d 642a ac3d ca33 073e 0d87 0b3e
00000380: 5211 303e 7445 65bd 1247 f7bd 9f81 d3bc
00000390: bafb 82bd 1a3b 58bc 0398 a9bd cfa9 18be
000003a0: cfab 34bd 7b69 3d3e 086a 183e 3c57 90bd
000003b0: 03ce 0e3e b497 e3bc dba6 f1bc 7e91 37be
000003c0: e460 2d3e b18b 37be edc6 563d bdd0 28be
000003d0: c2f9 213e 493e 31be 3610 b23d 7cd7 39be
000003e0: eb75 d63c 7605 dd3d 0c9b 293e 74c4 52b9
000003f0: e102 243e 69f1 003e d359 123e 005f 0d3e

adj_matrix f4 [80, 80]
0.55555546 0.0 0.055555552 0.0 0.055555545 0.0 0.0 0.0
0.0 0.0 0.0 0.0 0.0 0.0 0.0 0.0
0.0 0.0 0.0 0.0 0.0 0.0 0.0 0.055555552
0.0 0.0 0.0 0.0 0.0 0.0 0.0 0.0
0.0 0.0 0.0 0.0 0.0 0.0 0.0 0.0
0.055555552 0.0 0.0 0.0 0.0 0.0 0.0 0.0
0.0 0.0 0.0 0.0 0.0 0.0 0.055555545 0.0
0.0 0.055555552 0.0 0.0 0.0 0.0 0.055555552 0.0
0.0 0.0 0.0 0.0 0.0 0.0 0.055555545 0.0
0.0 0.0 0.0 0.0 0.0 0.0 0.0 0.0
0.0 1.0 0.0 0.0 0.0 0.0 0.0 0.0
0.0 0.0 0.0 0.0 0.0 0.0 0.0 0.0
0.0 0.0 0.0 0.0 0.0 0.0 0.0 0.0
0.0 0.0 0.0 0.0 0.0 0.0 0.0 0.0
0.0 0.0 0.0 0.0 0.0 0.0 0.0 0.0
0.0 0.0 0.0 0.0 0.0 0.0 0.0 0.0
0.0 0.0 0.0 0.0 0.0 0.0 0.0 0.0
0.0 0.0 0.0 0.0 0.0 0.0 0.0 0.0
0.0 0.0 0.0 0.0 0.0 0.0 0.0 0.0
0.0 0.0 0.0 0.0 0.0 0.0 0.0 0.0
0.055555552 0.0 0.5555556 0.0 0.055555552 0.0 0.0 0.0
0.0 0.0 0.0 0.0 0.0 0.0 0.0 0.0
0.0 0.0 0.0 0.0 0.0 0.0 0.0 0.055555556
0.0 0.0 0.0 0.0 0.0 0.0 0.0 0.0
0.0 0.0 0.0 0.0 0.0 0.0 0.0 0.0
0.055555556 0.0 0.0 0.0 0.0 0.0 0.0 0.0
0.0 0.0 0.0 0.0 0.0 0.0 0.055555552 0.0
0.0 0.055555556 0.0 0.0 0.0 0.0 0.055555556 0.0
0.0 0.0 0.0 0.0 0.0 0.0 0.055555552 0.0
0.0 0.0 0.0 0.0 0.0 0.0 0.0 0.0
0.0 0.0 0.0 1.0 0.0 0.0 0.0 0.0
0.0 0.0 0.0 0.0 0.0 0.0 0.0 0.0
00000000: e238 0e3f 0000 0000 388e 633d 0000 0000
00000010: 368e 633d 0000 0000 0000 0000 0000 0000
00000020: 0000 0000 0000 0000 0000 0000 0000 0000
00000030: 0000 0000 0000 0000 0000 0000 0000 0000
00000040: 0000 0000 0000 0000 0000 0000 0000 0000
00000050: 0000 0000 0000 0000 0000 0000 388e 633d
00000060: 0000 0000 0000 0000 0000 0000 0000 0000
00000070: 0000 0000 0000 0000 0000 0000 0000 0000
00000080: 0000 0000 0000 0000 0000 0000 0000 0000
00000090: 0000 0000 0000 0000 0000 0000 0000 0000
000000a0: 388e 633d 0000 0000 0000 0000 0000 0000
000000b0: 0000 0000 0000 0000 0000 0000 0000 0000
000000c0: 0000 0000 0000 0000 0000 0000 0000 0000
000000d0: 0000 0000 0000 0000 368e 633d 0000 0000
000000e0: 0000 0000 388e 633d 0000 0000 0000 0000
000000f0: 0000 0000 0000 0000 388e 633d 0000 0000
00000100: 0000 0000 0000 0000 0000 0000 0000 0000
00000110: 0000 0000 0000 0000 368e 633d 0000 0000
00000120: 0000 0000 0000 0000 0000 0000 0000 0000
00000130: 0000 0000 0000 0000 0000 0000 0000 0000
00000140: 0000 0000 0000 803f 0000 0000 0000 0000
00000150: 0000 0000 0000 0000 0000 0000 0000 0000
00000160: 0000 0000 0000 0000 0000 0000 0000 0000
00000170: 0000 0000 0000 0000 0000 0000 0000 0000
00000180: 0000 0000 0000 0000 0000 0000 0000 0000
00000190: 0000 0000 0000 0000 0000 0000 0000 0000
000001a0: 0000 0000 0000 0000 0000 0000 0000 0000
000001b0: 0000 0000 0000 0000 0000 0000 0000 0000
000001c0: 0000 0000 0000 0000 0000 0000 0000 0000
000001d0: 0000 0000 0000 0000 0000 0000 0000 0000
000001e0: 0000 0000 0000 0000 0000 0000 0000 0000
000001f0: 0000 0000 0000 0000 0000 0000 0000 0000
00000200: 0000 0000 0000 0000 0000 0000 0000 0000
00000210: 0000 0000 0000 0000 0000 0000 0000 0000
00000220: 0000 0000 0000 0000 0000 0000 0000 0000
00000230: 0000 0000 0000 0000 0000 0000 0000 0000
00000240: 0000 0000 0000 0000 0000 0000 0000 0000
00000250: 0000 0000 0000 0000 0000 0000 0000 0000
00000260: 0000 0000 0000 0000 0000 0000 0000 0000
00000270: 0000 0000 0000 0000 0000 0000 0000 0000
00000280: 388e 633d 0000 0000 e438 0e3f 0000 0000
00000290: 388e 633d 0000 0000 0000 0000 0000 0000
000002a0: 0000 0000 0000 0000 0000 0000 0000 0000
000002b0: 0000 0000 0000 0000 0000 0000 0000 0000
000002c0: 0000 0000 0000 0000 0000 0000 0000 0000
000002d0: 0000 0000 0000 0000 0000 0000 398e 633d
000002e0: 0000 0000 0000 0000 0000 0000 0000 0000
000002f0: 0000 0000 0000 0000 0000 0000 0000 0000
00000300: 0000 0000 0000 0000 0000 0000 0000 0000
00000310: 0000 0000 0000 0000 0000 0000 0000 0000
00000320: 398e 633d 0000 0000 0000 0000 0000 0000
00000330: 0000 0000 0000 0000 0000 0000 0000 0000
00000340: 0000 0000 0000 0000 0000 0000 0000 0000
00000350: 0000 0000 0000 0000 388e 633d 0000 0000
00000360: 0000 0000 398e 633d 0000 0000 0000 0000
00000370: 0000 0000 0000 0000 398e 633d 0000 0000
00000380: 0000 0000 0000 0000 0000 0000 0000 0000
00000390: 0000 0000 0000 0000 388e 633d 0000 0000
000003a0: 0000 0000 0000 0000 0000 0000 0000 0000
000003b0: 0000 0000 0000 0000 0000 0000 0000 0000
000003c0: 0000 0000 0000 0000 0000 0000 0000 803f
000003d0: 0000 0000 0000 0000 0000 0000 0000 0000
000003e0: 0000 0000 0000 0000 0000 0000 0000 0000
000003f0: 0000 0000 0000 0000 0000 0000 0000 0000

feature_extractor.0.weight f4 [64, 4]
0.36837345 0.4010967 -0.103469774 0.4600973 -0.09589541 0.087291114 -0.22958317 0.29371703
0.42686698 -0.35291466 0.42068976 0.094202355 0.35550863 0.05430919 0.2272546 -0.057163954
0.37154734 0.06045505 -0.21958128 0.12731564 -0.2165361 -0.045331486 -0.18926896 0.33234468
-0.38078263 -0.21667317 -0.1274644 -0.2867647 0.03406321 -0.47991717 0.43763956 -0.41082457
0.37211254 0.069684915 -0.14859441 0.30791306 0.06443788 0.39007685 0.04140483 -0.14393401
0.12063406 -0.1218741 0.1966179 0.44621545 0.27516842 -0.20477083 0.27476665 0.09025021
0.24006978 -0.29087907 -0.48103184 -0.17938136 -0.3696206 0.39636257 0.13028386 0.20582026
0.14437725 -0.00044283175 0.37740245 -0.34136528 0.018836135 -0.32738304 0.1404292 -0.15841725
0.13946293 -0.09054967 0.40078875 -0.28248116 -0.28433096 -0.28434318 0.43580776 0.1655198
0.46720517 -0.3987314 -0.48201552 -0.37728024 -0.3224506 0.18871215 0.16525942 0.41561362
-0.2443624 -0.32696894 0.25143465 -0.18829428 0.28958902 -0.104981646 0.27215803 -0.37458307
-0.23847814 0.13869439 0.092077054 -0.11378713 0.2841642 0.326018 -0.34869283 -0.25307882
0.4439148 -0.1549471 -0.16347772 -0.4698766 -0.27246997 0.111216076 -0.052606773 -0.34904912
0.0018846162 -0.3276536 -0.41028896 -0.2614717 -0.42369565 -0.30449945 0.4858799 0.09500733
0.14033316 -0.45242456 -0.31450468 -0.152662 0.06469626 -0.42604798 -0.20161647 -0.28546327
7.64598e-07 -0.17226052 -0.021866603 -0.3249286 -0.32930994 -0.2778332 -0.15737627 -0.380738
0.40532815 -0.08561116 0.41629085 0.15606618 -0.40948927 0.33212897 -0.12385694 -0.1778657
-0.40112793 -0.48315758 0.12932877 -0.09558279 0.18086109 -0.39642555 0.35731825 -0.3531318
-0.07279349 0.09081549 0.24427584 0.4035122 0.4415639 -0.38255802 0.11214553 -0.2012432
-0.041535478 -0.36034796 0.4415136 -0.35308018 0.25337023 0.1619413 0.14871788 -0.256466
0.44056025 0.09623384 0.050947007 -0.4267146 0.19608098 -0.061525866 -0.2152302 0.42883298
0.09782774 -0.2627779 -0.2392222 -0.011721779 0.26531896 -0.114073865 -0.27142286 -0.1574489
-0.35964057 0.16453442 0.3731195 -0.4568017 0.102464095 0.24444553 0.07710236 -0.16428079
0.24711922 0.24890378 0.17317154 -0.07431292 -0.11869658 0.040252794 -0.07477675 -0.13526271
0.3057242 0.41578925 -0.036326863 -0.098300226 0.00020516872 -0.0172916 0.1065312 0.13993533
-0.44021523 -0.17072739 0.40715802 0.19581597 -0.012630159 -0.28758088 -0.29202867 -0.4339693
-0.14921625 0.15509383 0.30493566 0.22960791 -0.42805868 -0.28680897 -0.06540909 0.48370805
0.05888288 -0.11578819 0.19304514 -0.17664483 -0.30974692 0.35104913 -0.21352132 -0.08662777
-0.4834764 0.32075062 0.36491984 0.18188398 -0.33475494 -0.4795497 -0.3921861 0.3739372
0.22621195 0.4068505 0.24809006 0.12773423 3.7641923e-06 -0.36635426 -0.4144758 -0.45375645
0.19087055 -0.23164156 -0.08701911 -0.2738869 -0.07754467 -0.33802542 -0.31282443 0.16623022
-0.1348611 0.29479665 -0.1466475 -0.35288858 -0.07466972 -0.22853339 -0.13922602 -0.46207842
00000000: 729b bc3e 8c5c cd3e f6e7 d3bd e091 eb3e
00000010: d064 c4bd afc5 b23d da17 6bbe 1462 963e
00000020: 4f8e da3e 3bb1 b4be a664 d73e 2aed c03d
00000030: 3a05 b63e 5073 5e3d 6eb5 683e c024 6abd
00000040: 743b be3e b79f 773d ead9 60be 085f 023e
00000050: a4bb 5dbe 82ad 39bd b9cf 41be 1529 aa3e
00000060: f1f5 c2be 92df 5dbe 0786 02be d3d2 92be
00000070: dd85 0b3d b4b7 f5be 4b12 e03e 9957 d2be
00000080: 8985 be3e f7b6 8e3d 2229 18be c8a6 9d3e
00000090: 02f8 833d 27b8 c73e 1c98 293d 7063 13be
000000a0: fd0e f73d 2199 f9bd 3456 493e 5a76 e43e
000000b0: e0e2 8c3e 72af 51be 37ae 8c3e 1ad5 b83d
000000c0: dad4 753e 1aee 94be ce49 f6be bfaf 37be
000000d0: e93e bdbe 09f0 ca3e 2269 053e 8cc2 523e
000000e0: a1d7 133e df2b e8b9 e53a c13e 6ec7 aebe
000000f0: 3d4e 9a3c c09e a7be accc 0f3e 2238 22be
00000100: 5fcf 0e3e 1b72 b9bd 2f34 cd3e 5fa1 90be
00000110: d493 91be 6e95 91be 3222 df3e 067e 293e
00000120: 8435 ef3e 8626 ccbe bdca f6be e02a c1be
00000130: 3f18 a5be c23d 413e c439 293e 4fcb d43e
00000140: 233a 7abe 7968 a7be 0bbc 803e 37d0 40be
00000150: 0345 943e 9e00 d7bd 4c58 8b3e 5ac9 bfbe
00000160: 9d33 74be e705 0e3e e592 bc3d 3a09 e9bd
00000170: f87d 913e d5eb a63e de87 b2be 8c93 81be
00000180: cd48 e33e 74aa 1ebe b466 27be aa93 f0be
00000190: 2f81 8bbe 41c5 e33d 337a 57bd 91b6 b2be
000001a0: 3a05 f73a 36c2 a7be 6511 d2be 9edf 85be
000001b0: a3ee d8be 5ae7 9bbe 40c5 f83e 3493 c23d
000001c0: 7fb3 0f3e 31a4 e7be c206 a1be 6d53 1cbe
000001d0: 797f 843d f622 dabe 8c74 4ebe 3e28 92be
000001e0: c63e 4d35 1065 30be 9721 b3bc 0b5d a6be
000001f0: 509b a8be 2740 8ebe 3f27 21be 17f0 c2be
00000200: 2c87 cf3e e754 afbd 1324 d53e d0cf 1f3e
00000210: 94a8 d1be cf0c aa3e b5a8 fdbd 6d22 36be
00000220: a460 cdbe 6e60 f7be c36e 043e e9c0 c3bd
00000230: a633 393e 4af8 cabe 6bf2 b63e b1cd b4be
00000240: c114 95bd 79fd b93d 7223 7a3e 2799 ce3e
00000250: aa14 e23e a5de c3be 8eac e53d b312 4ebe
00000260: 1b21 2abd 877f b8be 120e e23e edc6 b4be
00000270: beb9 813e f1d3 253e 8049 183e 834f 83be
00000280: 1d91 e13e 3f16 c53d cfad 503d 567a dabe
00000290: 74c9 483e 8c02 7cbd 4e65 5cbe ff8f db3e
000002a0: e959 c83d d38a 86be aaf6 74be b40c 40bc
000002b0: e3d7 873e 8f9f e9bd f0f7 8abe 493a 21be
000002c0: cf22 b8be b67b 283e 8509 bf3e eae1 e9be
000002d0: b2d8 d13d ee4f 7a3e d8e7 9d3d 3939 28be
000002e0: d20c 7d3e a2e0 7e3e e153 313e 5f31 98bd
000002f0: 3117 f3bd 1de0 243d 8d24 99bd 4f82 0abe
00000300: e287 9c3e 54e2 d43e 7acb 14bd a151 c9bd
00000310: 8f22 5739 1da7 8dbc 082d da3d 354b 0f3e
00000320: e463 e1be 29d3 2ebe 0477 d03e fb83 483e
00000330: baee 4ebc cd3d 93be c884 95be 3931 debe
00000340: 25cc 18be ebd0 1e3e 8720 9c3e 561e 6b3e
00000350: 822a dbbe a0d8 92be 33f5 85bd 95a8 f73e
00000360: 2d2f 713d 5c22 edbd a0ad 453e 62e2 34be
00000370: 2697 9ebe b6bc b33e 55a5 5abe e669 b1bd
00000380: 388a f7be 6d39 a43e c6d6 ba3e cb3f 3a3e
00000390: 0065 abbe 8a87 f5be 9ecc c8be b274 bf3e
000003a0: 1ba4 673e b54e d03e 520b 7e3e c3cc 023e
000003b0: 559c 7c36 c992 bbbe 2c36 d4be c452 e8be
000003c0: 9273 433e 7233 6dbe 1337 b2bd e73a 8cbe
000003d0: bdcf 9ebd ab11 adbe 862a a0be 4138 2a3e
000003e0: 0719 0abe 96ef 963e c32a 16be d0ad b4be
000003f0: 70ec 98bd a804 6abe 4491 0ebe 8b95 ecbe

feature_extractor.0.bias f4 [64]
0.26588604 -0.33420968 0.23747231 0.21306287 0.34332797 -0.36962596 0.34570548 -0.2225396
0.17174268 0.45563912 -0.05707944 -2.5040652e-06 -0.10145707 -0.40358788 0.22611278 -0.48243633
0.29652435 0.36021587 0.45893434 -0.104261465 -0.39691442 0.0987654 0.2623535 -0.48373154
-0.09983865 -0.28585657 -0.030677948 -0.23226905 -0.19057365 -0.14497516 -0.46123284 0.3963476
0.40526095 -0.06494356 -0.043654326 -0.1902501 -0.43761623 -0.4726511 0.17203839 -0.2606638
-0.30755842 -0.026070844 -0.1527395 -0.14800146 0.0049647414 -0.09242824 -0.15838237 -0.22556463
-0.39300817 0.40534323 -0.18628661 0.118785486 -0.15970057 0.027662132 0.45223266 0.21652947
-0.419387 0.18463999 0.46070465 0.11783956 0.32132733 0.47902265 -0.06313622 0.09015768
00000000: 3722 883e 881d abbe f12b 733e 272d 5a3e
00000010: afc8 af3e 9d3f bdbe 4f00 b13e 6ce1 63be
00000020: 50dd 2f3e 8849 e93e 22cc 69bd 830b 28b6
00000030: b9c8 cfbd 12a3 cebe 1c8a 673e e501 f7be
00000040: 0ad2 973e 376e b83e 71f9 ea3e 0987 d5bd
00000050: 5e38 cbbe 8445 ca3d 3353 863e a9ab f7be
00000060: 3578 ccbd cb5b 92be 5250 fbbc f0d7 6dbe
00000070: bd25 43be 5e74 14be b626 ecbe 13ee ca3e
00000080: 5d7e cf3e 2101 85bd e1ce 32bd ecd0 42be
00000090: 3c0f e0be 53ff f1be d52a 303e ba75 85be
000000a0: 4c78 9dbe 8692 d5bc be67 1cbe b28d 17be
000000b0: 45af a23b 044b bdbd fd2e 22be 6afa 66be
000000c0: 5e38 c9be 2689 cf3e ebc1 3ebe ce45 f33d
000000d0: 8c88 23be b29b e23c 0a8b e73e e7b9 5d3e
000000e0: e5b9 d6be 4412 3d3e 7be1 eb3e de55 f13d
000000f0: 0485 a43e 7542 f53e 904d 81bd 97a4 b83d

temporal_module.conv.0.weight f4 [64, 64, 3]
-0.048842043 -0.015172987 0.053007036 0.038005285 -0.04553496 -0.05777194 -0.048593897 -0.070292026
-0.056450617 -0.0064160684 0.035547692 0.0020996283 -0.0537665 -0.058198065 0.035031088 -0.052285053
-0.0080030905 0.034118727 -0.020669393 -0.00021284027 -6.697701e-07 -0.0057769604 -0.023739964 -0.050960843
-0.057053763 -0.03875032 0.06926339 -0.022069238 -0.03531047 0.00612198 0.021274114 0.038504303
0.054231368 0.040385444 -0.07173919 0.005940397 0.030662902 -2.6374772e-05 -0.029502604 0.06980782
-0.027159052 -0.041412476 -0.05168354 -2.0933014e-06 0.019311365 0.0048934645 0.0035938262 -0.041475847
-0.05399434 6.215666e-07 0.052418016 0.041703623 -0.042171787 -0.009769867 -0.03996839 -0.022028193
0.002744746 0.04039235 0.059398644 -0.06708604 0.03510423 -0.03770387 0.01462945 0.047734752
-5.600396e-07 0.052273303 -0.048149005 -0.015135021 0.029078621 -0.004695194 -0.0039660227 -0.017503673
0.03657013 0.022589434 0.011038214 -0.027582685 -0.045275092 0.00019863609 0.009471596 -0.020593297
-0.008422926 0.050042987 0.0059691477 0.0033937618 -0.006344033 -0.051971793 -0.05444983 -0.02172231
-0.023829808 0.0104580745 -0.009140878 -0.015762141 0.055391822 0.012878216 0.038243942 -0.022145482
-0.029004008 0.027306633 -0.048626848 -0.034048975 1.4057093e-09 -0.014043896 -0.040855065 0.029775724
0.0447345 0.0018720917 -0.0024093476 -0.05345 -0.024913587 0.018234931 0.033777602 -0.0005918414
-0.016042493 0.027250262 -0.044181462 0.032516092 -0.015540686 -4.309624e-07 -0.0035867537 0.00045984847
-0.009852359 0.03925392 7.600317e-07 0.057594843 0.068650685 -0.03558776 -0.039423145 0.044601906
0.04327097 -0.041842863 1.3040737e-05 -0.05773116 -0.045763258 0.0033525468 0.0075619905 0.0043655667
-0.007943631 0.053185854 0.001111323 -0.029559325 -4.567523e-06 0.0059879846 0.0130027225 -0.03783079
0.014651164 -0.024008308 -0.04664314 -0.038673215 0.06891674 0.06180772 0.06429582 0.043523964
0.053858425 -0.00080751313 -0.026759531 0.023226185 -0.036127858 -0.049161576 -0.0238446 0.016522674
0.036939036 -0.02864326 -0.029452438 0.0008401414 -0.029513443 -0.03386207 0.024732037 -0.002126775
0.067113414 0.07030516 0.021141369 0.025948355 0.017352195 0.001893245 -0.0041322866 0.0010050654
0.026471777 0.05370004 -0.007137696 -0.017909108 -0.0061082924 -0.022076856 0.002220194 0.054460645
0.05634011 0.032626744 -0.039879438 -0.02581236 -0.004799547 -0.0029040577 -1.0538247e-05 -0.052856635
0.023333283 -0.0547204 -0.045496255 -0.05934877 0.06364551 -0.068283774 0.055400312 -0.0032048489
-0.0076120393 0.03205435 -2.6388147e-05 0.03217266 0.052922234 -0.06171031 0.02826629 0.014517283
0.016304927 0.011707429 0.008029105 -0.021934038 -0.00063359464 0.055155113 0.035333276 8.2445956e-07
-0.06713648 0.0040003355 -0.048376396 0.04537783 -0.030756962 9.259105e-06 -0.015289245 0.014019484
0.06855456 0.0076974467 0.042395316 0.056644265 0.044958808 -0.012680604 -0.0050245794 0.0356755
-0.01901033 0.034606345 -0.0047290903 -0.03578682 0.016838029 0.0015016004 0.019498395 0.058257956
0.03610426 0.055002168 3.5919647e-06 -0.061447244 -0.0499649 -0.043959472 -0.050233107 -0.023336941
-0.05304219 -0.06567758 -0.042373396 -0.07158362 -0.03123117 0.015091067 0.046865087 -0.0095475875
00000000: 980e 48bd 1f98 78bc e81d 593d 6eab 1b3d
00000010: de82 3abd 45a2 6cbd 650a 47bd 44f5 8fbd
00000020: c338 67bd e23d d2bb 759a 113d eb99 093b
00000030: 433a 5cbd 1861 6ebd c27c 0f3d da28 56bd
00000040: 651f 03bc 14c0 0b3d dc52 a9bc e02d 5fb9
00000050: 40ca 33b5 a84c bdbb 507a c2bc 51bc 50bd
00000060: 35b1 69bd a8b8 1ebd f7d9 8d3d 8cca b4bc
00000070: b6a1 10bd e49a c83b 0d47 ae3c b0b6 1d3d
00000080: b621 5e3d 356b 253d ffeb 92bd a9a7 c23b
00000090: c430 fb3c 643f ddb7 72af f1bc 67f7 8e3d
000000a0: a97c debc 21a0 29bd 1fb2 53bd a57a 0cb6
000000b0: de32 9e3c 5b59 a03b 6686 6b3b 94e2 29bd
000000c0: 2b29 5dbd bbd9 2635 46b4 563d 6bd1 2a3d
000000d0: 53bc 2cbd cb11 20bc e5b5 23bd 7874 b4bc
000000e0: 32e1 333b 7372 253d fe4b 733d 6864 89bd
000000f0: 74c9 0f3d 606f 1abd 5cb0 6f3c 8485 433d
00000100: a155 16b5 881c 563d e437 45bd e1f8 77bc
00000110: 4a36 ee3c 24da 99bb 69f5 81bb dd63 8fbc
00000120: 90ca 153d 7a0d b93c a0d9 343c 15f5 e1bc
00000130: 6072 39bd f848 5039 c12e 1b3c 46b3 a8bc
00000140: 5000 0abc e0f9 4c3d d798 c33b e069 5e3b
00000150: 9be1 cfbb 60e0 54bd c906 5fbd fcf2 b1bc
00000160: bb36 c3bc 5858 2b3c 9fc3 15bc 9b1f 81bc
00000170: 89e2 623d 27ff 523c aea5 1c3d 716a b5bc
00000180: d099 edbc 29b2 df3c f22c 47bd f076 0bbd
00000190: 0033 c130 5f18 66bc a457 27bd 38ec f33c
000001a0: 863b 373d f960 f53a 25e6 1dbb 63ee 5abd
000001b0: 9417 ccbc 6c61 953c 625a 0a3d ce25 1bba
000001c0: 8c6b 83bc f13b df3c 9ff7 34bd 982f 053d
000001d0: 5d9e 7ebc 055f e7b4 be0f 6bbb d117 f139
000001e0: ca6b 21bc b8c8 203d fb04 4c35 92e8 6b3d
000001f0: bb98 8c3d 79c4 11bd 2a7a 21bd 7db0 363d
00000200: e73c 313d 6c63 2bbd 8ac9 5a37 8277 6cbd
00000210: 4172 3bbd 67b6 5b3b 93ca f73b 070d 8f3b
00000220: 0126 02bc 69d9 593d d0a9 913a 6626 f2bc
00000230: b942 99b6 db36 c43b 5f09 553c 75f4 1abd
00000240: 700b 703c 12ad c4bc e10c 3fbd ce67 1ebd
00000250: 3824 8d3d 182a 7d3d 87ad 833d 2f46 323d
00000260: a79a 5c3d 4aaf 53ba ce36 dbbc d744 be3c
00000270: cefa 13bd a65d 49bd c055 c3bc 8f5a 873c
00000280: 634d 173d 45a5 eabc 3d46 f1bc ef3c 5c3a
00000290: 2dc6 f1bc f4b2 0abd d79a ca3c 5d61 0bbb
000002a0: c272 893d 27fc 8f3d aa30 ad3c a591 d43c
000002b0: 3126 8e3c c326 f83a 2268 87bb 66bc 833a
000002c0: 57db d83c 93f4 5b3d 55e3 e9bb 1fb6 92bc
000002d0: 1228 c8bb 86da b4bc ad80 113b 2012 5f3d
000002e0: e3c4 663d 9fa3 053d 9f58 23bd 7174 d3bc
000002f0: 8545 9dbb 0152 3ebb 6dcd 30b7 3380 58bd
00000300: 7125 bf3c 8022 60bd 485a 3abd b217 73bd
00000310: 9458 823d 5dd8 8bbd 70eb 623d 7108 52bb
00000320: 6a6e f9bb 6c4b 033d 1d5c ddb7 7bc7 033d
00000330: fcc4 583d f3c3 7cbd b58e e73c e6d9 6d3c
00000340: e991 853c 84d0 3f3c 828c 033c 03af b3bc
00000350: d117 26ba 54ea 613d a0b9 103d 6e50 5d35
00000360: da7e 89bd 3f15 833b 5426 46bd 1ade 393d
00000370: 06f6 fbbc 8e57 1b37 be7f 7abc fab1 653c
00000380: 5566 8c3d dd3a fc3b b6a6 2d3d d103 683d
00000390: ba26 383d 4fc2 4fbc 3aa5 a4bb 7920 123d
000003a0: 8dbb 9bbc 62bf 0d3d 7cf6 9abb 3395 12bd
000003b0: e8ef 893c 59d1 c43a 19bb 9f3c e59f 6e3d
000003c0: 0fe2 133d f449 613d 7c0d 7136 1bb0 7bbd
000003d0: ffa7 4cbd d90e 34bd 3bc1 4dbd 1d2d bfbc
000003e0: c442 59bd f881 86bd ba8f 2dbd 6f9a 92bd
000003f0: 83d8 ffbc 8640 773c 9bf5 3f3d 7c6d 1cbc

temporal_module.conv.0.bias f4 [64]
0.04230367 0.029483344 -0.00040311852 -0.05847596 -0.015711615 1.1914263e-05 -0.053120017 0.043533143
0.008729727 0.041496374 -0.051192872 -0.024186974 0.005123255 4.525054e-07 -0.028961169 0.0395421
0.017202873 4.360064e-07 0.05536087 -0.056953203 -0.052167173 0.0036832574 0.052109994 0.027818372
-0.026764393 0.038565457 0.024615258 4.583871e-06 0.032562148 0.0036017373 2.3714282e-08 -0.0082395505
-0.025432961 -0.032398846 -0.0007347817 -0.036185686 0.01798583 0.008586133 -0.056934938 -0.039853577
0.038366977 -0.024941139 -2.8321753e-07 -0.03311605 -0.0047425777 0.02277637 0.006832714 0.022612207
-4.4995068e-06 -0.044285886 1.5731892e-08 0.029754372 0.005619454 0.004080981 0.0035490198 0.045897882
0.023561362 -0.0019299592 -0.026220663 0.045415994 -0.024661206 -0.03509563 0.010511465 -0.03297925
00000000: 9d46 2d3d 0e87 f13c a759 d3b9 7d84 6fbd
00000010: a5b5 80bc 5fe3 4737 6094 59bd cf4f 323d
00000020: 2107 0f3c 1af8 293d 9eaf 51bd c323 c6bc
00000030: fae0 a73b deef f234 f93f edbc e6f6 213d
00000040: 0aed 8c3c 4314 ea34 14c2 623d c347 69bd
00000050: 3fad 55bd ce62 713b 4a71 553d 5be3 e33c
00000060: 0041 dbbc d0f6 1d3d f0a5 c93c 27cf 9936
00000070: e35f 053d 200b 6c3b 42b4 cb32 2eff 06bc
00000080: c958 d0bc a7b4 04bd 5d9e 40ba 7137 14bd
00000090: 0557 933c daac 0c3c 9c34 69bd 813d 23bd
000000a0: b126 1d3d 5c51 ccbc 1f0d 98b4 b2a4 07bd
000000b0: a067 9bbb 8395 ba3c f6e4 df3b 3c3d b93c
000000c0: 78fa 96b6 1e65 35bd cc22 8732 71bf f33c
000000d0: 6623 b83b c0b9 853b ac96 683b 6bff 3b3d
000000e0: c203 c13c aff6 fcba b7cc d6bc 1f06 3a3d
000000f0: 4c06 cabc 6fc0 0fbd 4838 2c3c 4015 07bd

temporal_module.conv.1.weight f4 [64]
0.9997113 1.0005738 1.0013971 1.0013806 1.0017483 0.99862134 0.9989527 1.0007086
1.001758 1.0008681 1.0010774 0.99856436 0.99903584 0.99836427 0.9980846 0.9981367
1.0003017 0.9982729 1.0000626 1.0000235 1.0008761 1.0017185 0.99992716 0.9991791
1.0000547 1.0014881 0.99914443 1.0001534 0.9986831 1.0018643 0.9988233 1.0004137
0.9999781 1.000383 0.99969774 1.0010858 0.9999129 1.0008801 1.0013275 1.0015644
0.99911785 0.999421 1.0001534 0.9984669 1.0006055 1.0008249 1.0012683 1.0002807
1.0006199 1.0017169 0.9981647 1.0003431 1.0015641 0.999398 1.0011239 1.0002216
0.9995926 1.0018644 1.0006233 0.9998367 1.0003992 0.9981059 1.0010602 1.0013956
00000000: 14ed 7f3f cd12 803f c82d 803f 3d2d 803f
00000010: 4a39 803f a6a5 7f3f 5dbb 7f3f 3817 803f
00000020: 9b39 803f 721c 803f 4e23 803f eaa1 7f3f
00000030: d0c0 7f3f cd94 7f3f 7982 7f3f e385 7f3f
00000040: e309 803f d08e 7f3f 0d02 803f c500 803f
00000050: b51c 803f 5038 803f 3afb 7f3f 34ca 7f3f
00000060: cb01 803f c330 803f eec7 7f3f 0705 803f
00000070: b2a9 7f3f 173d 803f e2b2 7f3f 8e0d 803f
00000080: 91fe 7f3f 8d0c 803f 31ec 7f3f 9423 803f
00000090: 4bfa 7f3f d71c 803f 802b 803f 4333 803f
000000a0: 30c6 7f3f 0eda 7f3f 0705 803f 879b 7f3f
000000b0: d713 803f 081b 803f 8f29 803f 3309 803f
000000c0: 5014 803f 4238 803f b987 7f3f 3e0b 803f
000000d0: 4133 803f 8cd8 7f3f d424 803f 4307 803f
000000e0: 4de5 7f3f 183d 803f 6d14 803f 4cf5 7f3f
000000f0: 150d 803f de83 7f3f be22 803f bb2d 803f

temporal_module.conv.1.bias f4 [64]
0.0005560446 0.00029663925 0.001482948 0.0016743977 0.0017567261 -0.0013290384 -0.001774465 0.0010544035
0.0009990379 0.00037877692 0.0005139977 -0.0017681262 -0.0004223779 -0.0017043937 -0.0017723687 -0.0018344654
0.00031829628 -0.0017695996 0.0006407496 -0.00056231447 0.00013640561 0.0017602626 0.00025829842 -0.0005016395
-0.0001365863 0.0013757738 -0.00028782865 0.0012976924 -0.001520391 0.0018805367 -0.0011645077 9.8401724e-05
0.00022336049 -0.0008109843 -0.00072842935 0.0011178327 -9.212838e-05 0.0018987753 0.001781062 0.001555728
-0.00056784763 0.001768748 0.0013588787 -0.0017282428 3.364001e-05 0.0008639257 0.0015989199 0.0008000008
4.117008e-06 0.0017420434 -0.0018559142 0.00094745564 0.0015772732 -0.0007181397 0.0019529508 -0.00040766902
-0.00040010415 0.0018237266 -8.468158e-05 -0.0011017863 0.00084256765 -0.0019238496 -0.00017340072 0.0014190206
00000000: 85c3 113a 3f86 9b39 7a5f c23a 7777 db3a
00000010: f241 e63a 2133 aeba 2a95 e8ba e933 8a3a
00000020: 26f2 823a 9496 c639 cdbd 063a 78c0 e7ba
00000030: 9a72 ddb9 f665 dfba d34e e8ba 7272 f0ba
00000040: 01e1 a639 e9f1 e7ba faf7 273a 4968 13ba
00000050: 1a08 0f39 9db8 e63a 3a6c 8739 7580 03ba
00000060: 9b38 0fb9 4f53 b43a b5e7 96b9 5517 aa3a
00000070: db47 c7ba 577c f63a 65a2 98ba 065d ce38
00000080: e035 6a39 3c98 54ba 11f4 3eba 3e84 923a
00000090: 0c35 c1b8 54e0 f83a 8672 e93a 92e9 cb3a
000000a0: 9cdb 14ba 56d5 e73a 671c b23a 3586 e2ba
000000b0: b018 0d38 1379 623a d992 d13a 25b7 513a
000000c0: d424 8a36 4755 e43a 2642 f3ba ac5e 783a
000000d0: 82bc ce3a 8a41 3cba 28fa ff3a 69bc d5b9
000000e0: 12c5 d1b9 1c0a ef3a 1497 b1b8 d069 90ba
000000f0: c2df 5c3a ae29 fcba e7d2 35b9 6efe b93a

temporal_module.conv.1.running_mean f4 [64]
1.5948652e+07 -9.356037e+06 -456352.9 -1.1049419e+06 -7.507872e+06 -3.280004e+06 628110.56 -1.890113e+07
-1.7901184e+07 1.330042e+07 -1.7964764e+07 2.4377208e+07 928944.06 -6.290436e+06 -4.7164485e+06 -4.336994e+06
-1.6860706e+07 -2.869998e+07 1.0346837e+07 1.4940311e+06 2.2671314e+07 -2.4681066e+07 1.0087834e+07 7.836246e+06
6.3386e+06 -5.6083285e+06 4.857233e+06 6.110693e+06 1.1682233e+07 -7.6107175e+06 -1.0964616e+07 9.484337e+06
3.0151702e+07 1.5769776e+07 5.709934e+06 -6.3989155e+06 2.9467292e+06 1.3262546e+07 -2.4114968e+06 -1.0345082e+07
618470.2 -2.4464355e+06 3.5191e+06 -3.4064752e+06 3.0773355e+06 -9.899185e+06 9.876181e+06 1.0156625e+07
1.5480143e+07 -1.3917449e+07 -2.0850446e+07 -2.6654535e+06 -8.167158e+06 7.0362025e+06 3.9790972e+06 8.2971935e+06
-1.191086e+07 -6.148674e+06 1.0756376e+07 -4.421908e+06 -759244.1 -1.3195506e+07 5.6541275e+06 -1.8443345e+06
00000000: 6c5b 734b 05c3 0ecb 1dd4 dec8 6fe1 86c9
00000010: 401f e5ca 1032 48ca e958 1949 4534 90cb
00000020: 4093 88cb c4f2 4a4b 6e0f 89cb bcfb b94b
00000030: 01cb 6249 08f8 bfca 41ef 8fca c45a 84ca
00000040: 11a3 80cb a6f6 dacb 55e1 1d4b 7960 b649
00000050: e9f7 ac4b 354d bccb 9aed 194b ac24 ef4a
00000060: 5070 c14a 1127 abca 223b 944a ca7b ba4a
00000070: b941 324b bb42 e8ca 884e 27cb 31b8 104b
00000080: 0b0a e64b b0a0 704b dc40 ae4a 8747 c3ca
00000090: a5da 334a d25e 4a4b a32f 13ca 7ada 1dcb
000000a0: 63fe 1649 8e51 15ca f0c9 564a 2dea 4fca
000000b0: 5ed3 3b4a b10c 17cb d5b2 164b 51fa 1a4b
000000c0: 4f35 6c4b 095d 54cb 8713 9fcb b6af 22ca
000000d0: ec3d f9ca 55ba d64a 65dd 724a d335 fd4a
000000e0: ccbe 35cb 84a4 bbca 1821 244b 28f2 86ca
000000f0: c25c 39c9 f258 49cb df8c ac4a 7423 e1c9

temporal_module.conv.1.running_var f4 [64]
4.2378893e+15 1.6644135e+15 6.138555e+14 2.7897064e+14 1.2185921e+15 4.7135045e+14 2.6121521e+14 5.692087e+15
5.1519325e+15 3.7394227e+15 5.168645e+15 9.44573e+15 3.9411247e+14 1.1750178e+15 7.667482e+14 6.3428084e+14
4.6616415e+15 1.3079506e+16 2.1729418e+15 5.119871e+14 1.0215075e+16 9.53069e+15 1.9476675e+15 1.1429123e+15
1.2469811e+15 1.326902e+15 1.5510382e+15 1.2383885e+15 2.4176382e+15 1.1683826e+15 2.400372e+15 1.7463287e+15
1.453513e+16 4.4260194e+15 1.0364284e+15 8.6628504e+14 4.6412863e+14 3.109987e+15 7.247906e+14 2.3594698e+15
5.590585e+14 6.732745e+14 3.9910712e+14 4.8158203e+14 5.493335e+14 2.2981527e+15 1.8507021e+15 1.7920676e+15
3.883867e+15 3.435697e+15 6.979432e+15 5.2948743e+14 1.5875775e+15 1.00699555e+15 6.263676e+14 1.748569e+15
2.6418897e+15 8.984307e+14 2.3691767e+15 6.79196e+14 3.36546e+14 3.3407716e+15 7.832792e+14 3.3507087e+14
00000000: 68e5 7059 cf38 bd58 1893 0b58 eab8 7d57
00000010: b389 8a58 6a58 d657 e892 6d57 62c7 a159
00000020: 3e6d 9259 c38f 5459 d8e6 9259 5e3b 065a
00000030: bb38 b357 8595 8558 9f56 2e58 0138 1058
00000040: e87d 8459 f7de 395a ee08 f758 25d3 e857
00000050: 3a2a 115a 7370 075a 966c dd58 20ef 8158
00000060: edc3 8d58 eed9 9658 2755 b058 d9c9 8c58
00000070: 446d 0959 69d4 8458 0372 0859 db88 c658
00000080: 7f8e 4e5a 0f97 7b59 13a8 6b58 6df8 4458
00000090: af0f d357 44c8 3059 5ecc 2458 ce1e 0659
000000a0: fa3a fe57 bc15 1958 2f7e b557 87ff da57
000000b0: d6ce f957 86a2 0259 8566 d258 08bc cb58
000000c0: b4c5 5c59 f94b 4359 0d5e c659 73c8 f057
000000d0: 967c b458 dbf6 6458 656b 0e58 0eca c658
000000e0: 8e2c 1659 8d47 4c58 0fac 0659 696e 1a58
000000f0: 1c0b 9957 a0e6 3d59 da18 3258 625f 9857

spatial_attention.attention.0.weight f4 [64, 128]
-0.075983495 -0.0707968 0.022250995 -0.056134876 0.0789795 -0.0033487498 -0.036814347 -0.05340122
-0.02564734 0.07746921 -0.05568576 -0.081448466 0.026918244 0.029714625 -0.07525206 -0.03890614
0.07718024 -0.040940173 0.037430953 -0.042280395 -0.077451155 -0.084455535 0.06770313 0.027814724
0.025445662 0.0301635 0.03468582 0.057906568 0.0680826 0.06885362 0.029146397 0.01607557
0.019587623 -0.071249515 0.039919894 0.022544222 0.037707977 -0.021210935 0.073672004 0.011414583
-0.020710435 -0.0017576612 -0.03627976 -0.013221147 0.07582764 0.030166073 -0.009305842 0.003871501
0.020407505 -0.05023619 -0.047696743 0.07763004 0.0002404313 0.0269752 -0.040054724 -0.064591974
0.017274484 0.04843127 -0.08249135 -0.08679264 -0.028537232 0.05785136 -0.07841889 0.070428155
0.08040857 -0.020092402 0.0059312177 -0.0045020333 0.08574267 0.009744078 0.02214037 -0.03103577
-0.0008172756 -0.04589804 0.004212044 -0.011875004 0.016961107 0.016846394 -0.07246711 0.05925973
0.047799278 0.06125836 0.06546098 0.023820864 0.04875359 0.042682193 0.053500507 -0.05273398
0.042151827 -0.0077241967 0.034599625 0.032479253 -0.064935535 -0.041198518 -0.06292888 -0.024324063
0.028944207 0.02166883 0.07071614 -0.06278264 0.027825626 0.071459584 -0.06812014 -0.06722304
0.022169242 -0.034762572 0.02237658 -0.043547004 0.012548697 -0.0741365 0.07124567 -0.056093615
-0.08071213 -0.046071313 0.001643431 0.08350119 0.01771692 -0.018004013 -0.063011155 0.041319214
0.0057210345 -0.025746854 -0.023866909 0.012416618 0.05240725 -0.05318419 -0.021397065 0.040817697
-0.06058602 -0.0024228387 0.071666665 0.061554637 -0.07113754 -0.04171212 0.014405837 0.05557281
-0.03574653 -0.080946036 -0.0035524988 0.055437963 -0.045148782 -0.081642844 0.005982901 0.07319527
-0.07190073 0.018791368 0.056057636 0.0026356536 -0.047349934 -0.03224049 -0.05800396 0.006568844
-0.039617687 0.0028678633 -0.018799834 -0.0618574 0.08555587 0.020606063 0.043470748 0.052352764
0.03569439 -0.020967253 -0.026868803 -0.0490032 -0.078581974 -0.0675515 -0.033654556 0.08298195
-0.08429763 -0.05564478 -0.06866372 -0.06296686 0.07313741 -0.07027882 -0.063033454 -0.05169038
0.023740532 -0.027861169 -0.059133276 0.07282236 0.012839491 -0.06463256 -0.033105824 0.054425303
0.031817947 -0.056553908 -0.044972897 -0.03475146 0.034558587 -0.07113137 0.082444 0.007435608
0.035415977 0.026628297 0.06924441 -0.029835558 -0.032811224 -0.05771572 0.07269021 -0.00772335
-0.0022081155 0.07870019 -0.022781104 -0.029391397 -0.036460117 0.0503168 0.010514371 -0.046827797
0.057575542 0.033900674 -0.01997936 0.020882763 -0.079815485 -0.063410565 -0.032156013 0.042963002
-0.019087264 0.06466362 -0.08216989 0.06425241 -0.08483055 -0.03108508 0.08055773 -0.030606676
-0.038249888 0.04863562 -0.04699621 0.019235218 -0.032117005 0.033736788 -0.054303546 -0.046868064
-0.05795122 -0.014478098 0.08750002 0.049992673 -0.07077121 0.045978956 0.08128892 0.08764527
0.009101331 0.023027372 0.06364112 0.08536138 0.0033552286 -0.015313496 0.07188399 -0.023223499
0.06957147 0.074895665 0.024910003 -0.071716346 0.069382474 0.04177648 0.020483024 0.018119657
00000000: 3c9d 9bbd eafd 90bd b847 b63c afed 65bd
00000010: 01c0 a13d b376 5bbb a4ca 16bd 3dbb 5abd
00000020: 5f1a d2bc 2da8 9e3d c016 64bd 74ce a6bd
00000030: a683 dc3c 166c f33c c11d 9abd 0b5c 1fbd
00000040: ac10 9e3d e2b0 27bd 3351 193d 352e 2dbd
00000050: b69e 9ebd 06f7 acbd f0a7 8a3d b4db e33c
00000060: 6c73 d03c 7219 f73c b812 0e3d 702f 6d3d
00000070: e46e 8b3d 2003 8d3d 6dc4 ee3c eab0 833c
00000080: 3976 a03c 44eb 91bd 0b83 233d a9ae b83c
00000090: ae73 1a3d 8ec2 adbc 59e1 963d 3b04 3b3c
000000a0: eea8 a9bc 5361 e6ba 169a 14bd 829d 58bc
000000b0: 864b 9b3d d71e f73c 8877 18bc 02b9 7d3b
000000c0: a42d a73c 77c4 4dbd a95d 43bd 80fc 9e3d
000000d0: 491c 7c39 18fb dc3c 6c10 24bd cc48 84bd
000000e0: 3883 8d3c de5f 463d 3af1 a8bd 57c0 b1bd
000000f0: eac6 e9bc 8cf5 6c3d 159a a0bd a33c 903d
00000100: 40ad a43d d298 a4bc a95a c23b cb85 93bb
00000110: da99 af3d a0a5 1f3c b95f b53c ba3e febc
00000120: 703e 56ba 95ff 3bbd 3005 8a3b 608f 42bc
00000130: 05f2 8a3c 7301 8a3c a369 94bd 55ba 723d
00000140: 2dc9 433d 0cea 7a3d 6810 863d f923 c33c
00000150: d8b1 473d 86d3 2e3d 5923 5b3d 96ff 57bd
00000160: 65a7 2c3d 421b fdbb 56b8 0d3d f708 053d
00000170: ecfc 84bd c7bf 28bd dbe0 80bd 4243 c7bc
00000180: 671c ed3c d582 b13c a0d3 903d 2f94 80bd
00000190: 91f2 e33c 6759 923d 9282 8bbd 3cac 89bd
000001a0: 459c b53c 3363 0ebd 174f b73c 585e 32bd
000001b0: 0d99 4d3c e1d4 97bd 40e9 913d 6bc2 65bd
000001c0: 674c a5bd 46b5 3cbd 6568 d73a ac02 ab3d
000001d0: 1323 913c 277d 93bc fe0b 81bd 563e 293d
000001e0: 8477 bb3b 11eb d2bc 8984 c3bc 126f 4b3c
000001f0: fca8 563d aad7 59bd e648 afbc 7530 273d
00000200: 0c29 78bd 7dc8 1ebb f9c5 923d b720 7c3d
00000210: 8fb0 91bd 54da 2abd 7606 6c3c 51a0 633d
00000220: f46a 12bd 09c7 a5bd 0ad1 68bb eb12 633d
00000230: eeed 38bd 5d34 a7bd 360c c43b 67e7 953d
00000240: b140 93bd 5bf0 993c b19c 653d eeba 2c3b
00000250: 01f2 41bd 9b0e 04bd 8f95 6dbd 753f d73b
00000260: 2846 22bd c3f2 3b3b 1c02 9abc 2f5e 7dbd
00000270: ea37 af3d 0cce a83c 620e 323d da6f 563d
00000280: 4834 123d 84c3 abbc f71b dcbc 94b7 48bd
00000290: 96ef a0bd 7158 8abd 5cd9 09bd 71f2 a93d
000002a0: 3ca4 acbd c8eb 63bd 909f 8cbd c5f4 80bd
000002b0: 11c9 953d 58ee 8fbd af17 81bd 4bb9 53bd
000002c0: 817b c23c 1b3d e4bc bc35 72bd e423 953d
000002d0: ba5c 523c 135e 84bd f999 07bd 11ed 5e3d
000002e0: 8953 023d 12a5 67bd 8035 38bd 8c57 0ebd
000002f0: 4e8d 0d3d 53ad 91bd 66d8 a83d 67a6 f33b
00000300: 5810 113d 9623 da3c 03d0 8d3d b369 f4bc
00000310: 1065 06bd 5267 6cbd 9bde 943d 2814 fdbb
00000320: 08b6 10bb 912d a13d 709f babc 3ac6 f0bc
00000330: 3457 15bd fd18 4e3d 7844 2c3c 81ce 3fbd
00000340: 55d4 6b3d 6fdb 0a3d c1ab a3bc 5412 ab3c
00000350: 4d76 a3bd 66dd 81bd 06b6 03bd f9f9 2f3d
00000360: e55c 9cbc 5c6e 843d b048 a8bd c496 833d
00000370: a4bb adbd 23a6 febc 73fb a43d daba fabc
00000380: eaab 1cbd 2536 473d 197f 40bd 2d93 9d3c
00000390: 1f8d 03bd 962f 0a3d 656d 5ebd baf8 3fbd
000003a0: 425e 6dbd 8b35 6dbc 3633 b33d 1ec5 4c3d
000003b0: 7ff0 90bd 6e54 3c3d ce7a a63d 5d7f b33d
000003c0: c01d 153c e6a3 bc3c 4756 823d f2d1 ae3d
000003d0: 65e3 5b3b 75e5 7abc ea37 933d 353f bebc
000003e0: 7d7b 8e3d e662 993d 1010 cc3c 05e0 92bd
000003f0: 6618 8e3d d01d 2b3d 04cc a73c ad6f 943c

spatial_attention.attention.0.bias f4 [64]
-0.03552666 0.01931567 0.055938654 -0.01239512 -0.013907853 0.08046308 0.08431075 0.047982886
0.0021846937 -0.00054992747 -0.054181293 0.06104507 0.038486075 0.07001943 -0.058619384 0.022767896
0.018422682 -0.02512639 -0.008441561 0.016320707 -0.023615194 0.083322346 -0.078870304 -0.012731165
-0.04144664 0.067786075 -0.031625126 -0.019339284 0.076466426 -0.078293696 -0.028566783 0.07502027
0.061209824 -0.023410812 -0.016558433 -0.042230546 0.018083874 0.02544727 0.059477605 0.03873869
0.04435828 -0.014699326 -0.062798284 0.049173806 -0.0007627144 -0.057760056 0.0072949673 0.08770308
-0.00630412 -0.0729399 0.053041555 0.06509653 -0.05584098 -0.07837364 -0.06307091 0.037202194
-0.03583408 -0.08721003 -0.0055618063 -0.044108327 -0.026754446 -0.035271347 -0.02946981 -0.05740407
00000000: 6784 11bd e53b 9e3c ee1f 653d e714 4bbc
00000010: c3dd 63bc d4c9 a43d 1dab ac3d b489 443d
00000020: 142d 0f3b 0229 10ba 34ed 5dbd 650a 7a3d
00000030: 93a3 1d3d 5966 8f3d e11a 70bd bd83 ba3c
00000040: 2aeb 963c dcd5 cdbc 794e 0abc 01b3 853c
00000050: a774 c1bc e8a4 aa3d c186 a1bd 6096 50bc
00000060: f4c3 29bd 6dd3 8a3d 5989 01bd 6b6d 9ebc
00000070: 6e9a 9c3d 7258 a0bd e304 eabc 3aa4 993d
00000080: 27b7 7a3d 08c8 bfbc 8da5 87bc f0f9 2cbd
00000090: a224 943c cb76 d03c ca9e 733d 76ac 1e3d
000000a0: 07b1 353d 71d5 70bc 639c 80bd 796a 493d
000000b0: e6f0 47ba cf95 6cbd 9f0a ef3b ac9d b33d
000000c0: cb92 cebb 8461 95bd 1a42 593d 5451 853d
000000d0: 83b9 64bd 5c82 a0bd 522b 81bd 5461 183d
000000e0: c2c6 12bd 2c9b b2bd d03f b6bb efaa 34bd
000000f0: 242c dbbc b078 10bd ac6a f1bc 8820 6bbd

spatial_attention.attention.2.weight f4 [1, 64]
-0.025799185 -0.07775469 -0.016779587 -0.07784294 0.008451732 0.088010326 -0.050656702 -0.01742641
-0.021436103 -0.041675355 -0.087528996 0.031242386 -0.010632823 0.006196356 -0.031605985 -0.080415964
-0.046709534 0.06396586 0.08738581 -0.038457744 0.06595337 -0.07138683 -0.008159515 -0.11198156
-0.017979195 0.0369249 0.07586599 0.044490926 0.058716513 -0.027229754 0.12426635 -0.103515394
-0.028888233 -0.019470854 0.08298687 0.02423052 0.12240981 -0.084880665 0.040985413 -0.10636352
0.03890166 -0.057166174 -0.05586694 0.014055829 0.012253465 0.12304883 0.1003146 0.006072653
0.043547276 0.026467053 -0.025601307 -0.090052895 -0.10027804 0.010998323 -0.048955098 0.11427652
-0.05515224 0.03460153 -0.061249483 0.124294795 0.052592725 0.06823839 0.032648165 -0.018272247
00000000: d058 d3bc da3d 9fbd 5875 89bc 1f6c 9fbd
00000010: 2279 0a3c c23e b43d 677d 4fbd d5c1 8ebc
00000020: c49a afbc c7b3 2abd 6742 b3bd 08f0 ff3c
00000030: 4b35 2ebc cd0a cb3b 4775 01bd 20b1 a4bd
00000040: 7f52 3fbd 8800 833d 55f7 b23d de85 1dbd
00000050: 8f12 873d 4233 92bd 7daf 05bc 9756 e5bd
00000060: 1b49 93bc 903e 173d a15f 9b3d 1e3c 363d
00000070: ba80 703d ef10 dfbc 5b7f fe3d e1ff d3bd
00000080: 04a7 ecbc 5781 9fbc 05f5 a93d 157f c63c
00000090: ffb1 fa3d ead5 adbd 52e0 273d 1ed5 d9bd
000000a0: 5957 1f3d 1427 6abd bcd4 64bd 6b4a 663c
000000b0: c2c2 483c 0601 fc3d be71 cd3d 1bfd c63b
000000c0: a15e 323d 6fd1 d83c d5b9 d1bc a76d b8bd
000000d0: 935e cdbd 4f32 343c 2485 48bd cf09 ea3d
000000e0: 51e7 61bd 55ba 0d3d bde0 7abd 458e fe3d
000000f0: 786b 573d 92c0 8b3d 15ba 053d aeaf 95bc

gcn.weight f4 [64, 64]
-0.102920815 0.06938009 -0.046449196 -0.09164869 0.007179422 0.16263218 -0.19562285 -0.09023097
0.16432846 -0.10407388 0.050023433 0.081426784 0.0179114 0.017368471 -0.14485267 -0.0339546
-0.041698713 -0.010965582 -0.023886755 -0.050641082 -0.12874852 0.15425591 0.06283169 0.07221453
0.10744079 0.004470888 0.14065254 0.067329705 -0.06542039 0.0030172674 -0.18869896 -0.11217798
0.20145333 0.2143299 -0.15482393 -0.09427241 0.11911758 -0.1935381 -0.02401059 -0.19842605
-0.10243949 -0.11353776 -0.010265627 -0.057565916 -0.119343676 0.113137454 -0.095830716 -0.21295188
0.105415 0.14223753 -0.046805702 0.006329048 0.027684452 -0.027120203 -0.043984383 -0.17628035
0.09477459 -0.00087280216 0.114828676 0.014288589 -0.08594999 -0.106889606 0.028167194 0.110767566
0.21536383 0.1940265 0.17757711 -0.16399084 0.039250415 0.19724515 0.09814648 0.14423643
0.20547444 -0.06535003 0.11574566 0.12827668 0.0038549171 -0.127245 0.059753668 0.18022566
0.026942711 0.06794862 0.02970671 0.15289108 0.11526736 -0.04851187 0.035241287 -0.10132932
0.03390812 -0.1866971 0.074219435 0.13118412 -0.1816682 0.059048213 -0.029711897 -0.085841976
0.096823536 0.009811481 -0.11412046 0.14850639 0.05632404 -0.14970705 -0.0352281 -0.11742548
-0.13624716 0.20660138 -0.02281602 -0.012763374 -0.025874581 -0.048659656 -0.18374515 -0.028559526
-0.09027931 0.090194814 -0.006044549 -0.21217914 -0.12846382 -0.16254584 0.013265938 0.13373646
0.09955204 0.013180533 0.12377255 -0.023489442 0.19965507 -0.18042643 -0.057712466 -0.029589508
-0.16371337 0.06831238 0.148351 0.036046028 0.018833112 0.18758796 -0.07721198 -0.033971585
0.08039897 -0.11845482 -0.1636148 -0.043848418 0.1412081 -0.11141265 0.062211692 0.0039494573
0.19872786 0.11417262 -0.1143345 -0.20833568 0.1288276 -0.19910802 -0.12692222 0.21021602
0.0638505 -0.0029294891 -0.16453901 -0.040493406 0.02904921 0.12827732 -0.08458903 -0.038092807
0.043081537 -0.21291251 -0.06695213 -0.19788028 -0.07784047 -0.12804057 0.10612649 -0.14963144
-0.20386167 -0.024843749 -0.10201164 -0.11326459 -0.050542258 0.08068027 -0.19159758 -0.15696439
0.015781958 0.09698004 0.008508614 0.21501796 0.10764639 -0.14628656 0.12241984 -0.11200999
0.15956815 -0.055029716 0.18027297 -0.050778672 -0.062962934 -0.1582007 0.21425322 -0.123600855
-0.094445884 -0.11885523 -0.21403846 -0.10683269 0.17849156 0.1381843 0.05564713 -0.0635963
0.029831499 -0.040327836 -0.17735656 0.14703494 0.113571696 0.18695194 -0.20223849 0.03398263
0.122159004 -0.029956056 0.100440465 0.107475325 -0.10671002 0.15919454 0.05480396 -0.023674238
0.07832109 0.16358401 0.040271726 0.10473891 -0.14691564 -0.10039 -0.037326984 0.12374338
0.122981094 -0.058900453 -0.034032833 -0.029716466 -0.100325584 0.18203537 0.10928331 0.14138784
-0.07324149 -0.052005865 -0.1802852 0.1610063 -0.081924036 -0.01785093 -0.1437899 0.04458399
0.11847572 -0.2152191 0.16614772 0.039763898 0.10339589 -0.18919565 0.055468325 0.21205947
0.14267734 -0.09720394 0.011776828 -0.14810462 0.08679035 0.102704965 0.09377661 -0.18767187
00000000: 26c8 d2bd 2617 8e3d 8341 3ebd 4fb2 bbbd
00000010: 5b41 eb3b 0d89 263e 5b51 48be 04cb b8bd
00000020: b845 283e b024 d5bd 5fe5 4c3d 16c3 a63d
00000030: eeba 923c 5348 8e3c 4254 14be fb13 0bbd
00000040: 45cc 2abd fca8 33bc 28ae c3bc 066d 4fbd
00000050: a7d6 03be 43f5 1d3e e7ad 803d 36e5 933d
00000060: eb09 dc3d 8780 923b 3807 103e 28e4 893d
00000070: 20fb 85bd 59bd 453b 4d3a 41be 92bd e5bd
00000080: c849 4e3e 4c79 5b3e 2a8a 1ebe e511 c1bd
00000090: ebf3 f33d da2e 46be dbb1 c4bc 3330 4bbe
000000a0: cccb d1bd 7c86 e8bd 2931 28bc 3dca 6bbd
000000b0: 756a f4bd 9cb4 e73d e542 c4bd 0f10 5abe
000000c0: d2e3 d73d b7a6 113e 56b7 3fbd e763 cf3b
000000d0: 81ca e23c 302b debc f828 34bd d682 34be
000000e0: 2e19 c23d c3cc 64ba 4c2b eb3d b01a 6a3c
000000f0: 8c06 b0bd f0e8 dabd e3be e63c 1bda e23d
00000100: 5688 5c3e e2ae 463e c6d6 353e 37ed 27be
00000110: 0bc5 203d a2fa 493e 0601 c93d b7b2 133e
00000120: e467 523e 3dd6 85bd 100c ed3d f65a 033e
00000130: c7a2 7c3b 834c 02be 43c0 743d 138d 383e
00000140: f6b6 dc3c a528 8b3d 7c5b f33c 7b8f 1c3e
00000150: 4b11 ec3d 62b4 46bd 2b59 103d bf85 cfbd
00000160: 3ee3 0a3d 862d 3fbe 5c00 983d 2155 063e
00000170: 3b07 3abe 8adc 713d 5d66 f3bc ebcd afbd
00000180: 6b4b c63d 56c0 203c fdb7 e9bd 0f12 183e
00000190: 09b4 663d ce4c 19be 574b 10bd c57c f0bd
000001a0: 6084 0bbe 508f 533e a9e8 babc 781d 51bc
000001b0: eef6 d3bc 594f 47bd b027 3cbe abf5 e9bc
000001c0: 5ce4 b8bd 0fb8 b83d 5a11 c6bb 7d45 59be
000001d0: 058c 03be 6b72 26be 6059 593c 36f2 083e
000001e0: f1e1 cb3d 2af3 573c 767c fd3d ee6c c0bc
000001f0: 6172 4c3e b5c1 38be e863 6cbd b265 f2bc
00000200: 7aa4 27be 5ce7 8b3d 53e9 173e 00a5 133d
00000210: e647 9a3c 0f17 403e 5121 9ebd ca25 0bbd
00000220: 37a8 a43d 7198 f2bd a38a 27be 669a 33bd
00000230: db98 103e 512c e4bd b0d1 7e3d 736a 813b
00000240: 517f 4b3e 56d3 e93d 3528 eabd f355 55be
00000250: 62eb 033e f9e2 4bbe e6f7 01be de42 573e
00000260: 0dc4 823d acfc 3fbb ea7c 28be 6adc 25bd
00000270: 9cf8 ed3c 215b 033e 033d adbd 3407 1cbd
00000280: 4476 303d bd05 5abe 331e 89bd 21a1 4abe
00000290: d36a 9fbd 111d 03be d858 d93d fc38 19be
000002a0: 1dc1 50be 1e85 cbbc 7beb d0bd 44f7 e7bd
000002b0: 6605 4fbd b33b a53d 2832 44be 46bb 20be
000002c0: 2a49 813c 799d c63d b767 0b3c ab2d 5c3e
000002d0: b675 dc3d 25cc 15be 41b7 fa3d 7e65 e5bd
000002e0: d565 233e d766 61bd 7a99 383e 4cfd 4fbd
000002f0: b6f2 80bd 5dff 21be 3265 5b3e 7222 fdbd
00000300: d86c c1bd 5f6a f3bd e62c 5bbe 19cb dabd
00000310: 7ec6 363e 2f80 0d3e 3fee 633d c73e 82bd
00000320: 3061 f43c cd2e 25bd f59c 35be 5490 163e
00000330: 4798 e83d 5470 3f3e 9b17 4fbe 5f31 0b3d
00000340: 802e fa3d 6766 f5bc bbb3 cd3d 061c dc3d
00000350: c88a dabd e503 233e 1e7a 603d 7af0 c1bc
00000360: cf66 a03d 9182 273e f7f3 243d 5b81 d63d
00000370: 0e71 16be 4699 cdbd 2ee4 18bd 2b6d fd3d
00000380: 83dd fb3d 9a41 71bd 0366 0bbd f26f f3bc
00000390: 8077 cdbd 7b67 3a3e eecf df3d f9c7 103e
000003a0: a2ff 95bd 1a04 55bd af9c 38be d6de 243e
000003b0: cac7 a7bd 1d3c 92bc a93d 13be b49d 363d
000003c0: 66a3 f23d 6562 5cbe a122 2a3e 78df 223d
000003d0: 39c1 d33d 81bc 41be c132 633d 1e26 593e
000003e0: 021a 123e dc12 c7bd 99f3 403c bda8 17be
000003f0: 24bf b13d fb56 d23d f40d c03d 0e2d 40be

gcn.bias f4 [64]
0.0 0.0 0.0 0.0 0.0 0.0 0.0 0.0
0.0 0.0 0.0 0.0 0.0 0.0 0.0 0.0
0.0 0.0 0.0 0.0 0.0 0.0 0.0 0.0
0.0 0.0 0.0 0.0 0.0 0.0 0.0 0.0
0.0 0.0 0.0 0.0 0.0 0.0 0.0 0.0
0.0 0.0 0.0 0.0 0.0 0.0 0.0 0.0
0.0 0.0 0.0 0.0 0.0 0.0 0.0 0.0
0.0 0.0 0.0 0.0 0.0 0.0 0.0 0.0
00000000: 0000 0000 0000 0000 0000 0000 0000 0000
00000010: 0000 0000 0000 0000 0000 0000 0000 0000
00000020: 0000 0000 0000 0000 0000 0000 0000 0000
00000030: 0000 0000 0000 0000 0000 0000 0000 0000
00000040: 0000 0000 0000 0000 0000 0000 0000 0000
00000050: 0000 0000 0000 0000 0000 0000 0000 0000
00000060: 0000 0000 0000 0000 0000 0000 0000 0000
00000070: 0000 0000 0000 0000 0000 0000 0000 0000
00000080: 0000 0000 0000 0000 0000 0000 0000 0000
00000090: 0000 0000 0000 0000 0000 0000 0000 0000
000000a0: 0000 0000 0000 0000 0000 0000 0000 0000
000000b0: 0000 0000 0000 0000 0000 0000 0000 0000
000000c0: 0000 0000 0000 0000 0000 0000 0000 0000
000000d0: 0000 0000 0000 0000 0000 0000 0000 0000
000000e0: 0000 0000 0000 0000 0000 0000 0000 0000
000000f0: 0000 0000 0000 0000 0000 0000 0000 0000
